…
    source: "/home/alfa/Documents/msda/mywork/data/office/office_w.txt"
    batch_size: 128
    shuffle: true
    new_height: 256
    new_width: 256
    is_color: true
  }
}
layer {
  name: "target_data"
  type: "ImageData"
  top: "t_data"
  top: "t_label"
  include {
    phase: TRAIN
  }
  transform_param {
    crop_size: 227
    mean_value: 104
    mean_value: 117
    mean_value: 123
  }
  image_data_param {
    source: "/home/alfa/Documents/msda/mywork/data/office/office_d.txt"
    batch_size: 64
    shuffle: true
    new_height: 256
    new_width: 256
    is_color: true
  }
}
layer {
  name: "data"
  type: "Concat"
  bottom: "s1_data"
  bottom: "s2_data"
  bottom: "t_data"
  top: "data"
  include {
    phase: TRAIN
  }
  concat_param {
    concat_dim: 0
  }
}
layer {
  name: "label"
  type: "Concat"
  bottom: "s1_label"
  bottom: "s2_label"
  top: "label"
  include {
    phase: TRAIN
  }
  concat_param {
    concat_dim: 0
  }
}
layer {
  name: "conv1"
  type: "Convolution"
  bottom: "data"
  top: "conv1"
  param {
    lr_mult: 0
    decay_mult: 1
  }
  param {
    lr_mult: 0
    decay_mult: 0
  }
  convolution_param {
    num_output: 96
    kernel_size: 11
    stride: 4
    weight_filler {
      type: "gaussian"
      std: 0.01
    }
    bias_filler {
      type: "constant"
      value: 0
    }
  }
}
layer {
  name: "relu1"
  type: "ReLU"
  bottom: "conv1"
  top: "conv1"
}
layer {
  name: "pool1"
  type: "Pooling"
  bottom: "conv1"
  top: "pool1"
  pooling_param {
    pool: MAX
    kernel_size: 3
    stride: 2
  }
}
layer {
  name: "norm1"
  type: "LRN"
  bottom: "pool1"
  top: "norm1"
  lrn_param {
    local_size: 5
    alpha: 0.0001
    beta: 0.75
  }
}
layer {
  name: "conv2"
  type: "Convolution"
  bottom: "norm1"
  top: "conv2"
  param {
    lr_mult: 0
    decay_mult: 1
  }
  param {
    lr_mult: 0
    decay_mult: 0
  }
  convolution_param {
    num_output: 256
    pad: 2
    kernel_size: 5
    group: 2
    weight_filler {
      type: "gaussian"
      std: 0.01
    }
    bias_filler {
      type: "constant"
      value: 1
    }
  }
}
layer {
  name: "relu2"
  type: "ReLU"
  bottom: "conv2"
  top: "conv2"
}
layer {
  name: "pool2"
  type: "Pooling"
  bottom: "conv2"
  top: "pool2"
  pooling_param {
    pool: MAX
    kernel_size: 3
    stride: 2
  }
}
layer {
  name: "norm2"
  type: "LRN"
  bottom: "pool2"
  top: "norm2"
  lrn_param {
    local_size: 5
    alpha: 0.0001
    beta: 0.75
  }
}
layer {
  name: "conv3"
  type: "Convolution"
  bottom: "norm2"
  top: "conv3"
  param {
    lr_mult: 0
    decay_mult: 1
  }
  param {
    lr_mult: 0
    decay_mult: 0
  }
  convolution_param {
    num_output: 384
    pad: 1
    kernel_size: 3
    weight_filler {
      type: "gaussian"
      std: 0.01
    }
    bias_filler {
      type: "constant"
      value: 0
    }
  }
}
layer {
  name: "relu3"
  type: "ReLU"
  bottom: "conv3"
  top: "conv3"
}
layer {
  name: "conv4"
  type: "Convolution"
  bottom: "conv3"
  top: "conv4"
  param {
    lr_mult: 0
    decay_mult: 1
  }
  param {
    lr_mult: 0
    decay_mult: 0
  }
  convolution_param {
    num_output: 384
    pad: 1
    kernel_size: 3
    group: 2
    weight_filler {
      type: "gaussian"
      std: 0.01
    }
    bias_filler {
      type: "constant"
      value: 1
    }
  }
}
layer {
  name: "relu4"
  type: "ReLU"
  bottom: "conv4"
  top: "conv4"
}
layer {
  name: "conv5"
  type: "Convolution"
  bottom: "conv4"
  top: "conv5"
  param {
    lr_mult: 0
    decay_mult: 1
  }
  param {
    lr_mult: 0
    decay_mult: 0
  }
  convolution_param {
    num_output: 256
    pad: 1
    kernel_size: 3
    group: 2
    weight_filler {
      type: "gaussian"
      std: 0.01
    }
    bias_filler {
      type: "constant"
      value: 1
    }
  }
}
layer {
  name: "relu5"
  type: "ReLU"
  bottom: "conv5"
  top: "conv5"
}
layer {
  name: "pool5"
  type: "Pooling"
  bottom: "conv5"
  top: "pool5"
  pooling_param {
    pool: MAX
    kernel_size: 3
    stride: 2
  }
}
layer {
  name: "fc6"
  type: "InnerProduct"
  bottom: "pool5"
  top: "fc6"
  param {
    lr_mult: 1
    decay_mult: 1
  }
  param {
    lr_mult: 2
    decay_mult: 0
  }
  inner_product_param {
    num_output: 4096
    weight_filler {
      type: "gaussian"
      std: 0.005
    }
    bias_filler {
      type: "constant"
      value: 0
    }
  }
}
layer {
  name: "slicer_fc6"
  type: "Slice"
  bottom: "fc6"
  top: "fc6_source"
  top: "fc6_target"
  include {
    phase: TRAIN
  }
  slice_param {
    slice_point: 256
    axis: 0
  }
}
layer {
  name: "fc6_source/bn"
  type: "BatchNorm"
  bottom: "fc6_source"
  top: "fc6_source/bn"
  param {
    lr_mult: 0
    decay_mult: 0
  }
  param {
    lr_mult: 0
    decay_mult: 0
  }
  param {
    lr_mult: 0
    decay_mult: 0
  }
  include {
    phase: TRAIN
  }
  batch_norm_param {
    moving_average_fraction: 0.95
  }
}
layer {
  name: "fc6_target/bn"
  type: "BatchNorm"
  bottom: "fc6_target"
  top: "fc6_target/bn"
  param {
    lr_mult: 0
    decay_mult: 0
  }
  param {
    lr_mult: 0
    decay_mult: 0
  }
  param {
    lr_mult: 0
    decay_mult: 0
  }
  include {
    phase: TRAIN
  }
  batch_norm_param {
    moving_average_fraction: 0.95
  }
}
layer {
  name: "concat_wbn_6"
  type: "Concat"
  bottom: "fc6_source/bn"
  bottom: "fc6_target/bn"
  top: "fc6/bn"
  include {
    phase: TRAIN
  }
  concat_param {
    axis: 0
  }
}
layer {
  name: "fc6_scale"
  type: "Scale"
  bottom: "fc6/bn"
  top: "fc6/scale"
  param {
    lr_mult: 1
    decay_mult: 0
  }
  param {
    lr_mult: 1
    decay_mult: 0
  }
  scale_param {
    axis: 1
    num_axes: 1
    filler {
      type: "constant"
      value: 1
    }
    bias_term: true
    bias_filler {
      type: "constant"
      value: 0
    }
  }
}
layer {
  name: "relu6"
  type: "ReLU"
  bottom: "fc6/scale"
  top: "fc6/relu"
}
layer {
  name: "drop6"
  type: "Dropout"
  bottom: "fc6/relu"
  top: "fc6/out"
  dropout_param {
    dropout_ratio: 0.5
  }
}
layer {
  name: "fc7"
  type: "InnerProduct"
  bottom: "fc6/out"
  top: "fc7"
  param {
    lr_mult: 1
    decay_mult: 1
  }
  param {
    lr_mult: 2
    decay_mult: 0
  }
  inner_product_param {
    num_output: 4096
    weight_filler {
      type: "gaussian"
      std: 0.005
    }
    bias_filler {
      type: "constant"
      value: 0
    }
  }
}
layer {
  name: "slicer_fc7"
  type: "Slice"
  bottom: "fc7"
  top: "fc7_source"
  top: "fc7_target"
  include {
    phase: TRAIN
  }
  slice_param {
    slice_point: 256
    axis: 0
  }
}
layer {
  name: "fc7_source/bn"
  type: "BatchNorm"
  bottom: "fc7_source"
  top: "fc7_source/bn"
  param {
    lr_mult: 0
    decay_mult: 0
  }
  param {
    lr_mult: 0
    decay_mult: 0
  }
  param {
    lr_mult: 0
    decay_mult: 0
  }
  include {
    phase: TRAIN
  }
  batch_norm_param {
    moving_average_fraction: 0.95
  }
}
layer {
  name: "fc7_target/bn"
  type: "BatchNorm"
  bottom: "fc7_target"
  top: "fc7_target/bn"
  param {
    lr_mult: 0
    decay_mult: 0
  }
  param {
    lr_mult: 0
    decay_mult: 0
  }
  param {
    lr_mult: 0
    decay_mult: 0
  }
  include {
    phase: TRAIN
  }
  batch_norm_param {
    moving_average_fraction: 0.95
  }
}
layer {
  name: "concat_wbn_7"
  type: "Concat"
  bottom: "fc7_source/bn"
  bottom: "fc7_target/bn"
  top: "fc7/bn"
  include {
    phase: TRAIN
  }
  concat_param {
    axis: 0
  }
}
layer {
  name: "fc7_scale"
  type: "Scale"
  bottom: "fc7/bn"
  top: "fc7/scale"
  param {
    lr_mult: 1
    decay_mult: 0
  }
  param {
    lr_mult: 1
    decay_mult: 0
  }
  scale_param {
    axis: 1
    num_axes: 1
    filler {
      type: "constant"
      value: 1
    }
    bias_term: true
    bias_filler {
      type: "constant"
      value: 0
    }
  }
}
layer {
  name: "relu7"
  type: "ReLU"
  bottom: "fc7/scale"
  top: "fc7/relu"
}
layer {
  name: "drop7"
  type: "Dropout"
  bottom: "fc7/relu"
  top: "fc7/out"
  dropout_param {
    dropout_ratio: 0.5
  }
}
layer {
  name: "office-fc8"
  type: "InnerProduct"
  bottom: "fc7/out"
  top: "fc8"
  param {
    lr_mult: 10
    decay_mult: 1
  }
  param {
    lr_mult: 20
    decay_mult: 0
  }
  inner_product_param {
    num_output: 31
    weight_filler {
      type: "gaussian"
      std: 0.01
    }
    bias_filler {
      type: "constant"
      value: 0
    }
  }
}
layer {
  name: "slicer_fc8"
  type: "Slice"
  bottom: "fc8"
  top: "fc8_source"
  top: "fc8_target"
  include {
    phase: TRAIN
  }
  slice_param {
    slice_point: 256
    axis: 0
  }
}
layer {
  name: "fc8_source/bn"
  type: "BatchNorm"
  bottom: "fc8_source"
  top: "fc8_source/bn"
  param {
    lr_mult: 0
    decay_mult: 0
  }
  param {
    lr_mult: 0
    decay_mult: 0
  }
  param {
    lr_mult: 0
    decay_mult: 0
  }
  include {
    phase: TRAIN
  }
  batch_norm_param {
    moving_average_fraction: 0.95
  }
}
layer {
  name: "fc8_target/bn"
  type: "BatchNorm"
  bottom: "fc8_target"
  top: "fc8_target/bn"
  param {
    lr_mult: 0
    decay_mult: 0
  }
  param {
    lr_mult: 0
    decay_mult: 0
  }
  param {
    lr_mult: 0
    decay_mult: 0
  }
  include {
    phase: TRAIN
  }
  batch_norm_param {
    moving_average_fraction: 0.95
  }
}
layer {
  name: "concat_wbn_8"
  type: "Concat"
  bottom: "fc8_source/bn"
  bottom: "fc8_target/bn"
  top: "fc8/bn"
  include {
    phase: TRAIN
  }
  concat_param {
    axis: 0
  }
}
layer {
  name: "fc8_scale"
  type: "Scale"
  bottom: "fc8/bn"
  top: "fc8/scale"
  param {
    lr_mult: 1
    decay_mult: 0
  }
  param {
    lr_mult: 1
    decay_mult: 0
  }
  scale_param {
    axis: 1
    num_axes: 1
    filler {
      type: "constant"
      value: 1
    }
    bias_term: true
    bias_filler {
      type: "constant"
      value: 0
    }
  }
}
layer {
  name: "slicer_scorer"
  type: "Slice"
  bottom: "fc8/scale"
  top: "score_source"
  top: "score_target"
  include {
    phase: TRAIN
  }
  slice_param {
    slice_point: 256
    axis: 0
  }
}
layer {
  name: "loss"
  type: "SoftmaxWithLoss"
  bottom: "score_source"
  bottom: "label"
  top: "loss"
  loss_weight: 1
  include {
    phase: TRAIN
  }
}
layer {
  name: "entropy"
  type: "EntropyLoss"
  bottom: "score_target"
  top: "entropy"
  loss_weight: 0.4
  include {
    phase: TRAIN
  }
}
layer {
  name: "accuracy"
  type: "Accuracy"
  bottom: "score_source"
  bottom: "label"
  top: "accuracy"
  include {
    phase: TRAIN
  }
}
layer {
  name: "silence_target"
  type: "Silence"
  bottom: "t_label"
  include {
    phase: TRAIN
  }
}
I0830 17:53:12.412498 18709 layer_factory.hpp:77] Creating layer s1_data
I0830 17:53:12.412523 18709 net.cpp:84] Creating Layer s1_data
I0830 17:53:12.412530 18709 net.cpp:380] s1_data -> s1_data
I0830 17:53:12.412547 18709 net.cpp:380] s1_data -> s1_label
I0830 17:53:12.412829 18709 image_data_layer.cpp:38] Opening file /home/alfa/Documents/msda/mywork/data/office/office_a.txt
I0830 17:53:12.414175 18709 image_data_layer.cpp:53] Shuffling data
I0830 17:53:12.414625 18709 image_data_layer.cpp:63] A total of 2817 images.
I0830 17:53:12.420622 18709 image_data_layer.cpp:90] output data size: 128,3,227,227
I0830 17:53:12.541051 18709 net.cpp:122] Setting up s1_data
I0830 17:53:12.541076 18709 net.cpp:129] Top shape: 128 3 227 227 (19787136)
I0830 17:53:12.541081 18709 net.cpp:129] Top shape: 128 (128)
I0830 17:53:12.541085 18709 net.cpp:137] Memory required for data: 79149056
I0830 17:53:12.541091 18709 layer_factory.hpp:77] Creating layer s2_data
I0830 17:53:12.541110 18709 net.cpp:84] Creating Layer s2_data
I0830 17:53:12.541119 18709 net.cpp:380] s2_data -> s2_data
I0830 17:53:12.541131 18709 net.cpp:380] s2_data -> s2_label
I0830 17:53:12.541141 18709 image_data_layer.cpp:38] Opening file /home/alfa/Documents/msda/mywork/data/office/office_w.txt
I0830 17:53:12.541522 18709 image_data_layer.cpp:53] Shuffling data
I0830 17:53:12.541651 18709 image_data_layer.cpp:63] A total of 795 images.
I0830 17:53:12.549104 18709 image_data_layer.cpp:90] output data size: 128,3,227,227
I0830 17:53:12.669392 18709 net.cpp:122] Setting up s2_data
I0830 17:53:12.669414 18709 net.cpp:129] Top shape: 128 3 227 227 (19787136)
I0830 17:53:12.669420 18709 net.cpp:129] Top shape: 128 (128)
I0830 17:53:12.669422 18709 net.cpp:137] Memory required for data: 158298112
I0830 17:53:12.669427 18709 layer_factory.hpp:77] Creating layer target_data
I0830 17:53:12.669447 18709 net.cpp:84] Creating Layer target_data
I0830 17:53:12.669454 18709 net.cpp:380] target_data -> t_data
I0830 17:53:12.669464 18709 net.cpp:380] target_data -> t_label
I0830 17:53:12.669476 18709 image_data_layer.cpp:38] Opening file /home/alfa/Documents/msda/mywork/data/office/office_d.txt
I0830 17:53:12.669687 18709 image_data_layer.cpp:53] Shuffling data
I0830 17:53:12.669770 18709 image_data_layer.cpp:63] A total of 498 images.
I0830 17:53:12.679234 18709 image_data_layer.cpp:90] output data size: 64,3,227,227
I0830 17:53:12.742554 18709 net.cpp:122] Setting up target_data
I0830 17:53:12.742576 18709 net.cpp:129] Top shape: 64 3 227 227 (9893568)
I0830 17:53:12.742580 18709 net.cpp:129] Top shape: 64 (64)
I0830 17:53:12.742583 18709 net.cpp:137] Memory required for data: 197872640
I0830 17:53:12.742589 18709 layer_factory.hpp:77] Creating layer data
I0830 17:53:12.742602 18709 net.cpp:84] Creating Layer data
I0830 17:53:12.742609 18709 net.cpp:406] data <- s1_data
I0830 17:53:12.742620 18709 net.cpp:406] data <- s2_data
I0830 17:53:12.742625 18709 net.cpp:406] data <- t_data
I0830 17:53:12.742632 18709 net.cpp:380] data -> data
I0830 17:53:12.742683 18709 net.cpp:122] Setting up data
I0830 17:53:12.742691 18709 net.cpp:129] Top shape: 320 3 227 227 (49467840)
I0830 17:53:12.742694 18709 net.cpp:137] Memory required for data: 395744000
I0830 17:53:12.742699 18709 layer_factory.hpp:77] Creating layer label
I0830 17:53:12.742707 18709 net.cpp:84] Creating Layer label
I0830 17:53:12.742712 18709 net.cpp:406] label <- s1_label
I0830 17:53:12.742715 18709 net.cpp:406] label <- s2_label
I0830 17:53:12.742736 18709 net.cpp:380] label -> label
I0830 17:53:12.742759 18709 net.cpp:122] Setting up label
I0830 17:53:12.742766 18709 net.cpp:129] Top shape: 256 (256)
I0830 17:53:12.742769 18709 net.cpp:137] Memory required for data: 395745024
I0830 17:53:12.742774 18709 layer_factory.hpp:77] Creating layer label_label_0_split
I0830 17:53:12.742785 18709 net.cpp:84] Creating Layer label_label_0_split
I0830 17:53:12.742789 18709 net.cpp:406] label_label_0_split <- label
I0830 17:53:12.742794 18709 net.cpp:380] label_label_0_split -> label_label_0_split_0
I0830 17:53:12.742802 18709 net.cpp:380] label_label_0_split -> label_label_0_split_1
I0830 17:53:12.742831 18709 net.cpp:122] Setting up label_label_0_split
I0830 17:53:12.742837 18709 net.cpp:129] Top shape: 256 (256)
I0830 17:53:12.742841 18709 net.cpp:129] Top shape: 256 (256)
I0830 17:53:12.742846 18709 net.cpp:137] Memory required for data: 395747072
I0830 17:53:12.742848 18709 layer_factory.hpp:77] Creating layer conv1
I0830 17:53:12.742864 18709 net.cpp:84] Creating Layer conv1
I0830 17:53:12.742869 18709 net.cpp:406] conv1 <- data
I0830 17:53:12.742877 18709 net.cpp:380] conv1 -> conv1
I0830 17:53:13.226470 18709 net.cpp:122] Setting up conv1
I0830 17:53:13.226496 18709 net.cpp:129] Top shape: 320 96 55 55 (92928000)
I0830 17:53:13.226501 18709 net.cpp:137] Memory required for data: 767459072
I0830 17:53:13.226527 18709 layer_factory.hpp:77] Creating layer relu1
I0830 17:53:13.226539 18709 net.cpp:84] Creating Layer relu1
I0830 17:53:13.226547 18709 net.cpp:406] relu1 <- conv1
I0830 17:53:13.226555 18709 net.cpp:367] relu1 -> conv1 (in-place)
I0830 17:53:13.226734 18709 net.cpp:122] Setting up relu1
I0830 17:53:13.226743 18709 net.cpp:129] Top shape: 320 96 55 55 (92928000)
I0830 17:53:13.226748 18709 net.cpp:137] Memory required for data: 1139171072
I0830 17:53:13.226753 18709 layer_factory.hpp:77] Creating layer pool1
I0830 17:53:13.226766 18709 net.cpp:84] Creating Layer pool1
I0830 17:53:13.226773 18709 net.cpp:406] pool1 <- conv1
I0830 17:53:13.226780 18709 net.cpp:380] pool1 -> pool1
I0830 17:53:13.226845 18709 net.cpp:122] Setting up pool1
I0830 17:53:13.226855 18709 net.cpp:129] Top shape: 320 96 27 27 (22394880)
I0830 17:53:13.226858 18709 net.cpp:137] Memory required for data: 1228750592
I0830 17:53:13.226863 18709 layer_factory.hpp:77] Creating layer norm1
I0830 17:53:13.226873 18709 net.cpp:84] Creating Layer norm1
I0830 17:53:13.226879 18709 net.cpp:406] norm1 <- pool1
I0830 17:53:13.226886 18709 net.cpp:380] norm1 -> norm1
I0830 17:53:13.227066 18709 net.cpp:122] Setting up norm1
I0830 17:53:13.227074 18709 net.cpp:129] Top shape: 320 96 27 27 (22394880)
I0830 17:53:13.227080 18709 net.cpp:137] Memory required for data: 1318330112
I0830 17:53:13.227084 18709 layer_factory.hpp:77] Creating layer conv2
I0830 17:53:13.227099 18709 net.cpp:84] Creating Layer conv2
I0830 17:53:13.227105 18709 net.cpp:406] conv2 <- norm1
I0830 17:53:13.227115 18709 net.cpp:380] conv2 -> conv2
I0830 17:53:13.232481 18709 net.cpp:122] Setting up conv2
I0830 17:53:13.232502 18709 net.cpp:129] Top shape: 320 256 27 27 (59719680)
I0830 17:53:13.232506 18709 net.cpp:137] Memory required for data: 1557208832
I0830 17:53:13.232522 18709 layer_factory.hpp:77] Creating layer relu2
I0830 17:53:13.232534 18709 net.cpp:84] Creating Layer relu2
I0830 17:53:13.232542 18709 net.cpp:406] relu2 <- conv2
I0830 17:53:13.232550 18709 net.cpp:367] relu2 -> conv2 (in-place)
I0830 17:53:13.233054 18709 net.cpp:122] Setting up relu2
I0830 17:53:13.233065 18709 net.cpp:129] Top shape: 320 256 27 27 (59719680)
I0830 17:53:13.233070 18709 net.cpp:137] Memory required for data: 1796087552
I0830 17:53:13.233075 18709 layer_factory.hpp:77] Creating layer pool2
I0830 17:53:13.233088 18709 net.cpp:84] Creating Layer pool2
I0830 17:53:13.233093 18709 net.cpp:406] pool2 <- conv2
I0830 17:53:13.233101 18709 net.cpp:380] pool2 -> pool2
I0830 17:53:13.233148 18709 net.cpp:122] Setting up pool2
I0830 17:53:13.233156 18709 net.cpp:129] Top shape: 320 256 13 13 (13844480)
I0830 17:53:13.233175 18709 net.cpp:137] Memory required for data: 1851465472
I0830 17:53:13.233180 18709 layer_factory.hpp:77] Creating layer norm2
I0830 17:53:13.233188 18709 net.cpp:84] Creating Layer norm2
I0830 17:53:13.233196 18709 net.cpp:406] norm2 <- pool2
I0830 17:53:13.233202 18709 net.cpp:380] norm2 -> norm2
I0830 17:53:13.233376 18709 net.cpp:122] Setting up norm2
I0830 17:53:13.233386 18709 net.cpp:129] Top shape: 320 256 13 13 (13844480)
I0830 17:53:13.233392 18709 net.cpp:137] Memory required for data: 1906843392
I0830 17:53:13.233395 18709 layer_factory.hpp:77] Creating layer conv3
I0830 17:53:13.233409 18709 net.cpp:84] Creating Layer conv3
I0830 17:53:13.233415 18709 net.cpp:406] conv3 <- norm2
I0830 17:53:13.233424 18709 net.cpp:380] conv3 -> conv3
I0830 17:53:13.241797 18709 net.cpp:122] Setting up conv3
I0830 17:53:13.241822 18709 net.cpp:129] Top shape: 320 384 13 13 (20766720)
I0830 17:53:13.241827 18709 net.cpp:137] Memory required for data: 1989910272
I0830 17:53:13.241842 18709 layer_factory.hpp:77] Creating layer relu3
I0830 17:53:13.241854 18709 net.cpp:84] Creating Layer relu3
I0830 17:53:13.241864 18709 net.cpp:406] relu3 <- conv3
I0830 17:53:13.241875 18709 net.cpp:367] relu3 -> conv3 (in-place)
I0830 17:53:13.242031 18709 net.cpp:122] Setting up relu3
I0830 17:53:13.242041 18709 net.cpp:129] Top shape: 320 384 13 13 (20766720)
I0830 17:53:13.242045 18709 net.cpp:137] Memory required for data: 2072977152
I0830 17:53:13.242050 18709 layer_factory.hpp:77] Creating layer conv4
I0830 17:53:13.242066 18709 net.cpp:84] Creating Layer conv4
I0830 17:53:13.242072 18709 net.cpp:406] conv4 <- conv3
I0830 17:53:13.242081 18709 net.cpp:380] conv4 -> conv4
I0830 17:53:13.249686 18709 net.cpp:122] Setting up conv4
I0830 17:53:13.249711 18709 net.cpp:129] Top shape: 320 384 13 13 (20766720)
I0830 17:53:13.249716 18709 net.cpp:137] Memory required for data: 2156044032
I0830 17:53:13.249725 18709 layer_factory.hpp:77] Creating layer relu4
I0830 17:53:13.249737 18709 net.cpp:84] Creating Layer relu4
I0830 17:53:13.249742 18709 net.cpp:406] relu4 <- conv4
I0830 17:53:13.249754 18709 net.cpp:367] relu4 -> conv4 (in-place)
I0830 17:53:13.250277 18709 net.cpp:122] Setting up relu4
I0830 17:53:13.250288 18709 net.cpp:129] Top shape: 320 384 13 13 (20766720)
I0830 17:53:13.250294 18709 net.cpp:137] Memory required for data: 2239110912
I0830 17:53:13.250299 18709 layer_factory.hpp:77] Creating layer conv5
I0830 17:53:13.250315 18709 net.cpp:84] Creating Layer conv5
I0830 17:53:13.250321 18709 net.cpp:406] conv5 <- conv4
I0830 17:53:13.250334 18709 net.cpp:380] conv5 -> conv5
I0830 17:53:13.256408 18709 net.cpp:122] Setting up conv5
I0830 17:53:13.256431 18709 net.cpp:129] Top shape: 320 256 13 13 (13844480)
I0830 17:53:13.256436 18709 net.cpp:137] Memory required for data: 2294488832
I0830 17:53:13.256453 18709 layer_factory.hpp:77] Creating layer relu5
I0830 17:53:13.256466 18709 net.cpp:84] Creating Layer relu5
I0830 17:53:13.256476 18709 net.cpp:406] relu5 <- conv5
I0830 17:53:13.256486 18709 net.cpp:367] relu5 -> conv5 (in-place)
I0830 17:53:13.256662 18709 net.cpp:122] Setting up relu5
I0830 17:53:13.256670 18709 net.cpp:129] Top shape: 320 256 13 13 (13844480)
I0830 17:53:13.256675 18709 net.cpp:137] Memory required for data: 2349866752
I0830 17:53:13.256680 18709 layer_factory.hpp:77] Creating layer pool5
I0830 17:53:13.256691 18709 net.cpp:84] Creating Layer pool5
I0830 17:53:13.256697 18709 net.cpp:406] pool5 <- conv5
I0830 17:53:13.256705 18709 net.cpp:380] pool5 -> pool5
I0830 17:53:13.256753 18709 net.cpp:122] Setting up pool5
I0830 17:53:13.256762 18709 net.cpp:129] Top shape: 320 256 6 6 (2949120)
I0830 17:53:13.256767 18709 net.cpp:137] Memory required for data: 2361663232
I0830 17:53:13.256772 18709 layer_factory.hpp:77] Creating layer fc6
I0830 17:53:13.256781 18709 net.cpp:84] Creating Layer fc6
I0830 17:53:13.256788 18709 net.cpp:406] fc6 <- pool5
I0830 17:53:13.256798 18709 net.cpp:380] fc6 -> fc6
I0830 17:53:13.535198 18709 net.cpp:122] Setting up fc6
I0830 17:53:13.535223 18709 net.cpp:129] Top shape: 320 4096 (1310720)
I0830 17:53:13.535253 18709 net.cpp:137] Memory required for data: 2366906112
I0830 17:53:13.535264 18709 layer_factory.hpp:77] Creating layer slicer_fc6
I0830 17:53:13.535279 18709 net.cpp:84] Creating Layer slicer_fc6
I0830 17:53:13.535286 18709 net.cpp:406] slicer_fc6 <- fc6
I0830 17:53:13.535300 18709 net.cpp:380] slicer_fc6 -> fc6_source
I0830 17:53:13.535316 18709 net.cpp:380] slicer_fc6 -> fc6_target
I0830 17:53:13.535359 18709 net.cpp:122] Setting up slicer_fc6
I0830 17:53:13.535367 18709 net.cpp:129] Top shape: 256 4096 (1048576)
I0830 17:53:13.535372 18709 net.cpp:129] Top shape: 64 4096 (262144)
I0830 17:53:13.535377 18709 net.cpp:137] Memory required for data: 2372148992
I0830 17:53:13.535383 18709 layer_factory.hpp:77] Creating layer fc6_source/bn
I0830 17:53:13.535398 18709 net.cpp:84] Creating Layer fc6_source/bn
I0830 17:53:13.535404 18709 net.cpp:406] fc6_source/bn <- fc6_source
I0830 17:53:13.535413 18709 net.cpp:380] fc6_source/bn -> fc6_source/bn
I0830 17:53:13.535584 18709 net.cpp:122] Setting up fc6_source/bn
I0830 17:53:13.535591 18709 net.cpp:129] Top shape: 256 4096 (1048576)
I0830 17:53:13.535598 18709 net.cpp:137] Memory required for data: 2376343296
I0830 17:53:13.535607 18709 layer_factory.hpp:77] Creating layer fc6_target/bn
I0830 17:53:13.535616 18709 net.cpp:84] Creating Layer fc6_target/bn
I0830 17:53:13.535621 18709 net.cpp:406] fc6_target/bn <- fc6_target
I0830 17:53:13.535632 18709 net.cpp:380] fc6_target/bn -> fc6_target/bn
I0830 17:53:13.535816 18709 net.cpp:122] Setting up fc6_target/bn
I0830 17:53:13.535825 18709 net.cpp:129] Top shape: 64 4096 (262144)
I0830 17:53:13.535828 18709 net.cpp:137] Memory required for data: 2377391872
I0830 17:53:13.535846 18709 layer_factory.hpp:77] Creating layer concat_wbn_6
I0830 17:53:13.535856 18709 net.cpp:84] Creating Layer concat_wbn_6
I0830 17:53:13.535861 18709 net.cpp:406] concat_wbn_6 <- fc6_source/bn
I0830 17:53:13.535868 18709 net.cpp:406] concat_wbn_6 <- fc6_target/bn
I0830 17:53:13.535877 18709 net.cpp:380] concat_wbn_6 -> fc6/bn
I0830 17:53:13.535907 18709 net.cpp:122] Setting up concat_wbn_6
I0830 17:53:13.535913 18709 net.cpp:129] Top shape: 320 4096 (1310720)
I0830 17:53:13.535917 18709 net.cpp:137] Memory required for data: 2382634752
I0830 17:53:13.535921 18709 layer_factory.hpp:77] Creating layer fc6_scale
I0830 17:53:13.535933 18709 net.cpp:84] Creating Layer fc6_scale
I0830 17:53:13.535938 18709 net.cpp:406] fc6_scale <- fc6/bn
I0830 17:53:13.535948 18709 net.cpp:380] fc6_scale -> fc6/scale
I0830 17:53:13.535995 18709 layer_factory.hpp:77] Creating layer fc6_scale
I0830 17:53:13.536103 18709 net.cpp:122] Setting up fc6_scale
I0830 17:53:13.536110 18709 net.cpp:129] Top shape: 320 4096 (1310720)
I0830 17:53:13.536114 18709 net.cpp:137] Memory required for data: 2387877632
I0830 17:53:13.536123 18709 layer_factory.hpp:77] Creating layer relu6
I0830 17:53:13.536132 18709 net.cpp:84] Creating Layer relu6
I0830 17:53:13.536139 18709 net.cpp:406] relu6 <- fc6/scale
I0830 17:53:13.536145 18709 net.cpp:380] relu6 -> fc6/relu
I0830 17:53:13.536386 18709 net.cpp:122] Setting up relu6
I0830 17:53:13.536396 18709 net.cpp:129] Top shape: 320 4096 (1310720)
I0830 17:53:13.536399 18709 net.cpp:137] Memory required for data: 2393120512
I0830 17:53:13.536404 18709 layer_factory.hpp:77] Creating layer drop6
I0830 17:53:13.536418 18709 net.cpp:84] Creating Layer drop6
I0830 17:53:13.536427 18709 net.cpp:406] drop6 <- fc6/relu
I0830 17:53:13.536435 18709 net.cpp:380] drop6 -> fc6/out
I0830 17:53:13.536480 18709 net.cpp:122] Setting up drop6
I0830 17:53:13.536489 18709 net.cpp:129] Top shape: 320 4096 (1310720)
I0830 17:53:13.536492 18709 net.cpp:137] Memory required for data: 2398363392
I0830 17:53:13.536497 18709 layer_factory.hpp:77] Creating layer fc7
I0830 17:53:13.536509 18709 net.cpp:84] Creating Layer fc7
I0830 17:53:13.536516 18709 net.cpp:406] fc7 <- fc6/out
I0830 17:53:13.536526 18709 net.cpp:380] fc7 -> fc7
I0830 17:53:13.660347 18709 net.cpp:122] Setting up fc7
I0830 17:53:13.660372 18709 net.cpp:129] Top shape: 320 4096 (1310720)
I0830 17:53:13.660403 18709 net.cpp:137] Memory required for data: 2403606272
I0830 17:53:13.660414 18709 layer_factory.hpp:77] Creating layer slicer_fc7
I0830 17:53:13.660431 18709 net.cpp:84] Creating Layer slicer_fc7
I0830 17:53:13.660439 18709 net.cpp:406] slicer_fc7 <- fc7
I0830 17:53:13.660450 18709 net.cpp:380] slicer_fc7 -> fc7_source
I0830 17:53:13.660462 18709 net.cpp:380] slicer_fc7 -> fc7_target
I0830 17:53:13.660508 18709 net.cpp:122] Setting up slicer_fc7
I0830 17:53:13.660516 18709 net.cpp:129] Top shape: 256 4096 (1048576)
I0830 17:53:13.660523 18709 net.cpp:129] Top shape: 64 4096 (262144)
I0830 17:53:13.660531 18709 net.cpp:137] Memory required for data: 2408849152
I0830 17:53:13.660535 18709 layer_factory.hpp:77] Creating layer fc7_source/bn
I0830 17:53:13.660545 18709 net.cpp:84] Creating Layer fc7_source/bn
I0830 17:53:13.660552 18709 net.cpp:406] fc7_source/bn <- fc7_source
I0830 17:53:13.660560 18709 net.cpp:380] fc7_source/bn -> fc7_source/bn
I0830 17:53:13.660732 18709 net.cpp:122] Setting up fc7_source/bn
I0830 17:53:13.660742 18709 net.cpp:129] Top shape: 256 4096 (1048576)
I0830 17:53:13.660748 18709 net.cpp:137] Memory required for data: 2413043456
I0830 17:53:13.660759 18709 layer_factory.hpp:77] Creating layer fc7_target/bn
I0830 17:53:13.660775 18709 net.cpp:84] Creating Layer fc7_target/bn
I0830 17:53:13.660781 18709 net.cpp:406] fc7_target/bn <- fc7_target
I0830 17:53:13.660790 18709 net.cpp:380] fc7_target/bn -> fc7_target/bn
I0830 17:53:13.660955 18709 net.cpp:122] Setting up fc7_target/bn
I0830 17:53:13.660964 18709 net.cpp:129] Top shape: 64 4096 (262144)
I0830 17:53:13.660967 18709 net.cpp:137] Memory required for data: 2414092032
I0830 17:53:13.660977 18709 layer_factory.hpp:77] Creating layer concat_wbn_7
I0830 17:53:13.660989 18709 net.cpp:84] Creating Layer concat_wbn_7
I0830 17:53:13.660995 18709 net.cpp:406] concat_wbn_7 <- fc7_source/bn
I0830 17:53:13.661001 18709 net.cpp:406] concat_wbn_7 <- fc7_target/bn
I0830 17:53:13.661010 18709 net.cpp:380] concat_wbn_7 -> fc7/bn
I0830 17:53:13.661037 18709 net.cpp:122] Setting up concat_wbn_7
I0830 17:53:13.661044 18709 net.cpp:129] Top shape: 320 4096 (1310720)
I0830 17:53:13.661048 18709 net.cpp:137] Memory required for data: 2419334912
I0830 17:53:13.661053 18709 layer_factory.hpp:77] Creating layer fc7_scale
I0830 17:53:13.661067 18709 net.cpp:84] Creating Layer fc7_scale
I0830 17:53:13.661072 18709 net.cpp:406] fc7_scale <- fc7/bn
I0830 17:53:13.661080 18709 net.cpp:380] fc7_scale -> fc7/scale
I0830 17:53:13.661123 18709 layer_factory.hpp:77] Creating layer fc7_scale
I0830 17:53:13.661228 18709 net.cpp:122] Setting up fc7_scale
I0830 17:53:13.661237 18709 net.cpp:129] Top shape: 320 4096 (1310720)
I0830 17:53:13.661242 18709 net.cpp:137] Memory required for data: 2424577792
I0830 17:53:13.661249 18709 layer_factory.hpp:77] Creating layer relu7
I0830 17:53:13.661262 18709 net.cpp:84] Creating Layer relu7
I0830 17:53:13.661267 18709 net.cpp:406] relu7 <- fc7/scale
I0830 17:53:13.661276 18709 net.cpp:380] relu7 -> fc7/relu
I0830 17:53:13.661969 18709 net.cpp:122] Setting up relu7
I0830 17:53:13.661980 18709 net.cpp:129] Top shape: 320 4096 (1310720)
I0830 17:53:13.661985 18709 net.cpp:137] Memory required for data: 2429820672
I0830 17:53:13.661990 18709 layer_factory.hpp:77] Creating layer drop7
I0830 17:53:13.661999 18709 net.cpp:84] Creating Layer drop7
I0830 17:53:13.662005 18709 net.cpp:406] drop7 <- fc7/relu
I0830 17:53:13.662015 18709 net.cpp:380] drop7 -> fc7/out
I0830 17:53:13.662060 18709 net.cpp:122] Setting up drop7
I0830 17:53:13.662068 18709 net.cpp:129] Top shape: 320 4096 (1310720)
I0830 17:53:13.662072 18709 net.cpp:137] Memory required for data: 2435063552
I0830 17:53:13.662076 18709 layer_factory.hpp:77] Creating layer office-fc8
I0830 17:53:13.662088 18709 net.cpp:84] Creating Layer office-fc8
I0830 17:53:13.662097 18709 net.cpp:406] office-fc8 <- fc7/out
I0830 17:53:13.662111 18709 net.cpp:380] office-fc8 -> fc8
I0830 17:53:13.663048 18709 net.cpp:122] Setting up office-fc8
I0830 17:53:13.663064 18709 net.cpp:129] Top shape: 320 31 (9920)
I0830 17:53:13.663069 18709 net.cpp:137] Memory required for data: 2435103232
I0830 17:53:13.663077 18709 layer_factory.hpp:77] Creating layer slicer_fc8
I0830 17:53:13.663087 18709 net.cpp:84] Creating Layer slicer_fc8
I0830 17:53:13.663092 18709 net.cpp:406] slicer_fc8 <- fc8
I0830 17:53:13.663105 18709 net.cpp:380] slicer_fc8 -> fc8_source
I0830 17:53:13.663115 18709 net.cpp:380] slicer_fc8 -> fc8_target
I0830 17:53:13.663154 18709 net.cpp:122] Setting up slicer_fc8
I0830 17:53:13.663161 18709 net.cpp:129] Top shape: 256 31 (7936)
I0830 17:53:13.663167 18709 net.cpp:129] Top shape: 64 31 (1984)
I0830 17:53:13.663173 18709 net.cpp:137] Memory required for data: 2435142912
I0830 17:53:13.663179 18709 layer_factory.hpp:77] Creating layer fc8_source/bn
I0830 17:53:13.663192 18709 net.cpp:84] Creating Layer fc8_source/bn
I0830 17:53:13.663198 18709 net.cpp:406] fc8_source/bn <- fc8_source
I0830 17:53:13.663205 18709 net.cpp:380] fc8_source/bn -> fc8_source/bn
I0830 17:53:13.663375 18709 net.cpp:122] Setting up fc8_source/bn
I0830 17:53:13.663383 18709 net.cpp:129] Top shape: 256 31 (7936)
I0830 17:53:13.663388 18709 net.cpp:137] Memory required for data: 2435174656
I0830 17:53:13.663408 18709 layer_factory.hpp:77] Creating layer fc8_target/bn
I0830 17:53:13.663414 18709 net.cpp:84] Creating Layer fc8_target/bn
I0830 17:53:13.663419 18709 net.cpp:406] fc8_target/bn <- fc8_target
I0830 17:53:13.663432 18709 net.cpp:380] fc8_target/bn -> fc8_target/bn
I0830 17:53:13.663604 18709 net.cpp:122] Setting up fc8_target/bn
I0830 17:53:13.663611 18709 net.cpp:129] Top shape: 64 31 (1984)
I0830 17:53:13.663615 18709 net.cpp:137] Memory required for data: 2435182592
I0830 17:53:13.663626 18709 layer_factory.hpp:77] Creating layer concat_wbn_8
I0830 17:53:13.663637 18709 net.cpp:84] Creating Layer concat_wbn_8
I0830 17:53:13.663643 18709 net.cpp:406] concat_wbn_8 <- fc8_source/bn
I0830 17:53:13.663651 18709 net.cpp:406] concat_wbn_8 <- fc8_target/bn
I0830 17:53:13.663661 18709 net.cpp:380] concat_wbn_8 -> fc8/bn
I0830 17:53:13.663686 18709 net.cpp:122] Setting up concat_wbn_8
I0830 17:53:13.663693 18709 net.cpp:129] Top shape: 320 31 (9920)
I0830 17:53:13.663697 18709 net.cpp:137] Memory required for data: 2435222272
I0830 17:53:13.663702 18709 layer_factory.hpp:77] Creating layer fc8_scale
I0830 17:53:13.663743 18709 net.cpp:84] Creating Layer fc8_scale
I0830 17:53:13.663749 18709 net.cpp:406] fc8_scale <- fc8/bn
I0830 17:53:13.663758 18709 net.cpp:380] fc8_scale -> fc8/scale
I0830 17:53:13.663802 18709 layer_factory.hpp:77] Creating layer fc8_scale
I0830 17:53:13.663909 18709 net.cpp:122] Setting up fc8_scale
I0830 17:53:13.663918 18709 net.cpp:129] Top shape: 320 31 (9920)
I0830 17:53:13.663921 18709 net.cpp:137] Memory required for data: 2435261952
I0830 17:53:13.663930 18709 layer_factory.hpp:77] Creating layer slicer_scorer
I0830 17:53:13.663942 18709 net.cpp:84] Creating Layer slicer_scorer
I0830 17:53:13.663947 18709 net.cpp:406] slicer_scorer <- fc8/scale
I0830 17:53:13.663955 18709 net.cpp:380] slicer_scorer -> score_source
I0830 17:53:13.663966 18709 net.cpp:380] slicer_scorer -> score_target
I0830 17:53:13.664007 18709 net.cpp:122] Setting up slicer_scorer
I0830 17:53:13.664014 18709 net.cpp:129] Top shape: 256 31 (7936)
I0830 17:53:13.664018 18709 net.cpp:129] Top shape: 64 31 (1984)
I0830 17:53:13.664023 18709 net.cpp:137] Memory required for data: 2435301632
I0830 17:53:13.664029 18709 layer_factory.hpp:77] Creating layer score_source_slicer_scorer_0_split
I0830 17:53:13.664038 18709 net.cpp:84] Creating Layer score_source_slicer_scorer_0_split
I0830 17:53:13.664043 18709 net.cpp:406] score_source_slicer_scorer_0_split <- score_source
I0830 17:53:13.664054 18709 net.cpp:380] score_source_slicer_scorer_0_split -> score_source_slicer_scorer_0_split_0
I0830 17:53:13.664067 18709 net.cpp:380] score_source_slicer_scorer_0_split -> score_source_slicer_scorer_0_split_1
I0830 17:53:13.664103 18709 net.cpp:122] Setting up score_source_slicer_scorer_0_split
I0830 17:53:13.664117 18709 net.cpp:129] Top shape: 256 31 (7936)
I0830 17:53:13.664124 18709 net.cpp:129] Top shape: 256 31 (7936)
I0830 17:53:13.664127 18709 net.cpp:137] Memory required for data: 2435365120
I0830 17:53:13.664134 18709 layer_factory.hpp:77] Creating layer loss
I0830 17:53:13.664141 18709 net.cpp:84] Creating Layer loss
I0830 17:53:13.664150 18709 net.cpp:406] loss <- score_source_slicer_scorer_0_split_0
I0830 17:53:13.664157 18709 net.cpp:406] loss <- label_label_0_split_0
I0830 17:53:13.664167 18709 net.cpp:380] loss -> loss
…
I0830 17:53:14.097399 18709 net.cpp:294] The NetState phase (1) differed from the phase (0) specified by a rule in layer silence_target
I0830 17:53:14.097576 18709 net.cpp:51] Initializing net from parameters: 
name: "CaffeNet"
state {
  phase: TEST
}
layer {
  name: "data"
  type: "ImageData"
  top: "data"
  top: "label"
  include {
    phase: TEST
  }
  transform_param {
    mirror: false
    crop_size: 224
    mean_value: 104
    mean_value: 117
    mean_value: 123
  }
  image_data_param {
    source: "/home/alfa/Documents/msda/mywork/data/office/office_d.txt"
    batch_size: 1
    shuffle: false
    new_height: 256
    new_width: 256
    is_color: true
  }
}
layer {
  name: "conv1"
  type: "Convolution"
  bottom: "data"
  top: "conv1"
  param {
    lr_mult: 0
    decay_mult: 1
  }
  param {
    lr_mult: 0
    decay_mult: 0
  }
  convolution_param {
    num_output: 96
    kernel_size: 11
    stride: 4
    weight_filler {
      type: "gaussian"
      std: 0.01
    }
    bias_filler {
      type: "constant"
      value: 0
    }
  }
}
layer {
  name: "relu1"
  type: "ReLU"
  bottom: "conv1"
  top: "conv1"
}
layer {
  name: "pool1"
  type: "Pooling"
  bottom: "conv1"
  top: "pool1"
  pooling_param {
    pool: MAX
    kernel_size: 3
    stride: 2
  }
}
layer {
  name: "norm1"
  type: "LRN"
  bottom: "pool1"
  top: "norm1"
  lrn_param {
    local_size: 5
    alpha: 0.0001
    beta: 0.75
  }
}
layer {
  name: "conv2"
  type: "Convolution"
  bottom: "norm1"
  top: "conv2"
  param {
    lr_mult: 0
    decay_mult: 1
  }
  param {
    lr_mult: 0
    decay_mult: 0
  }
  convolution_param {
    num_output: 256
    pad: 2
    kernel_size: 5
    group: 2
    weight_filler {
      type: "gaussian"
      std: 0.01
    }
    bias_filler {
      type: "constant"
      value: 1
    }
  }
}
layer {
  name: "relu2"
  type: "ReLU"
  bottom: "conv2"
  top: "conv2"
}
layer {
  name: "pool2"
  type: "Pooling"
  bottom: "conv2"
  top: "pool2"
  pooling_param {
    pool: MAX
    kernel_size: 3
    stride: 2
  }
}
layer {
  name: "norm2"
  type: "LRN"
  bottom: "pool2"
  top: "norm2"
  lrn_param {
    local_size: 5
    alpha: 0.0001
    beta: 0.75
  }
}
layer {
  name: "conv3"
  type: "Convolution"
  bottom: "norm2"
  top: "conv3"
  param {
    lr_mult: 0
    decay_mult: 1
  }
  param {
    lr_mult: 0
    decay_mult: 0
  }
  convolution_param {
    num_output: 384
    pad: 1
    kernel_size: 3
    weight_filler {
      type: "gaussian"
      std: 0.01
    }
    bias_filler {
      type: "constant"
      value: 0
    }
  }
}
layer {
  name: "relu3"
  type: "ReLU"
  bottom: "conv3"
  top: "conv3"
}
layer {
  name: "conv4"
  type: "Convolution"
  bottom: "conv3"
  top: "conv4"
  param {
    lr_mult: 0
    decay_mult: 1
  }
  param {
    lr_mult: 0
    decay_mult: 0
  }
  convolution_param {
    num_output: 384
    pad: 1
    kernel_size: 3
    group: 2
    weight_filler {
      type: "gaussian"
      std: 0.01
    }
    bias_filler {
      type: "constant"
      value: 1
    }
  }
}
layer {
  name: "relu4"
  type: "ReLU"
  bottom: "conv4"
  top: "conv4"
}
layer {
  name: "conv5"
  type: "Convolution"
  bottom: "conv4"
  top: "conv5"
  param {
    lr_mult: 0
    decay_mult: 1
  }
  param {
    lr_mult: 0
    decay_mult: 0
  }
  convolution_param {
    num_output: 256
    pad: 1
    kernel_size: 3
    group: 2
    weight_filler {
      type: "gaussian"
      std: 0.01
    }
    bias_filler {
      type: "constant"
      value: 1
    }
  }
}
layer {
  name: "relu5"
  type: "ReLU"
  bottom: "conv5"
  top: "conv5"
}
layer {
  name: "pool5"
  type: "Pooling"
  bottom: "conv5"
  top: "pool5"
  pooling_param {
    pool: MAX
    kernel_size: 3
    stride: 2
  }
}
layer {
  name: "fc6"
  type: "InnerProduct"
  bottom: "pool5"
  top: "fc6"
  param {
    lr_mult: 1
    decay_mult: 1
  }
  param {
    lr_mult: 2
    decay_mult: 0
  }
  inner_product_param {
    num_output: 4096
    weight_filler {
      type: "gaussian"
      std: 0.005
    }
    bias_filler {
      type: "constant"
      value: 0
    }
  }
}
layer {
  name: "fc6_target/bn"
  type: "BatchNorm"
  bottom: "fc6"
  top: "fc6/bn"
  param {
    lr_mult: 0
    decay_mult: 0
  }
  param {
    lr_mult: 0
    decay_mult: 0
  }
  param {
    lr_mult: 0
    decay_mult: 0
  }
  include {
    phase: TEST
  }
  batch_norm_param {
    moving_average_fraction: 0.95
  }
}
layer {
  name: "fc6_scale"
  type: "Scale"
  bottom: "fc6/bn"
  top: "fc6/scale"
  param {
    lr_mult: 1
    decay_mult: 0
  }
  param {
    lr_mult: 1
    decay_mult: 0
  }
  scale_param {
    axis: 1
    num_axes: 1
    filler {
      type: "constant"
      value: 1
    }
    bias_term: true
    bias_filler {
      type: "constant"
      value: 0
    }
  }
}
layer {
  name: "relu6"
  type: "ReLU"
  bottom: "fc6/scale"
  top: "fc6/relu"
}
layer {
  name: "drop6"
  type: "Dropout"
  bottom: "fc6/relu"
  top: "fc6/out"
  dropout_param {
    dropout_ratio: 0.5
  }
}
layer {
  name: "fc7"
  type: "InnerProduct"
  bottom: "fc6/out"
  top: "fc7"
  param {
    lr_mult: 1
    decay_mult: 1
  }
  param {
    lr_mult: 2
    decay_mult: 0
  }
  inner_product_param {
    num_output: 4096
    weight_filler {
      type: "gaussian"
      std: 0.005
    }
    bias_filler {
      type: "constant"
      value: 0
    }
  }
}
layer {
  name: "fc7_target/bn"
  type: "BatchNorm"
  bottom: "fc7"
  top: "fc7/bn"
  param {
    lr_mult: 0
    decay_mult: 0
  }
  param {
    lr_mult: 0
    decay_mult: 0
  }
  param {
    lr_mult: 0
    decay_mult: 0
  }
  include {
    phase: TEST
  }
  batch_norm_param {
    moving_average_fraction: 0.95
  }
}
layer {
  name: "fc7_scale"
  type: "Scale"
  bottom: "fc7/bn"
  top: "fc7/scale"
  param {
    lr_mult: 1
    decay_mult: 0
  }
  param {
    lr_mult: 1
    decay_mult: 0
  }
  scale_param {
    axis: 1
    num_axes: 1
    filler {
      type: "constant"
      value: 1
    }
    bias_term: true
    bias_filler {
      type: "constant"
      value: 0
    }
  }
}
layer {
  name: "relu7"
  type: "ReLU"
  bottom: "fc7/scale"
  top: "fc7/relu"
}
layer {
  name: "drop7"
  type: "Dropout"
  bottom: "fc7/relu"
  top: "fc7/out"
  dropout_param {
    dropout_ratio: 0.5
  }
}
layer {
  name: "office-fc8"
  type: "InnerProduct"
  bottom: "fc7/out"
  top: "fc8"
  param {
    lr_mult: 10
    decay_mult: 1
  }
  param {
    lr_mult: 20
    decay_mult: 0
  }
  inner_product_param {
    num_output: 31
    weight_filler {
      type: "gaussian"
      std: 0.01
    }
    bias_filler {
      type: "constant"
      value: 0
    }
  }
}
layer {
  name: "fc8_target/bn"
  type: "BatchNorm"
  bottom: "fc8"
  top: "fc8/bn"
  param {
    lr_mult: 0
    decay_mult: 0
  }
  param {
    lr_mult: 0
    decay_mult: 0
  }
  param {
    lr_mult: 0
    decay_mult: 0
  }
  include {
    phase: TEST
  }
  batch_norm_param {
    moving_average_fraction: 0.95
  }
}
layer {
  name: "fc8_scale"
  type: "Scale"
  bottom: "fc8/bn"
  top: "fc8/scale"
  param {
    lr_mult: 1
    decay_mult: 0
  }
  param {
    lr_mult: 1
    decay_mult: 0
  }
  scale_param {
    axis: 1
    num_axes: 1
    filler {
      type: "constant"
      value: 1
    }
    bias_term: true
    bias_filler {
      type: "constant"
      value: 0
    }
  }
}
layer {
  name: "accuracy"
  type: "Accuracy"
  bottom: "fc8/scale"
  bottom: "label"
  top: "accuracy"
  include {
    phase: TEST
  }
}
I0830 17:53:14.097689 18709 layer_factory.hpp:77] Creating layer data
I0830 17:53:14.097707 18709 net.cpp:84] Creating Layer data
I0830 17:53:14.097714 18709 net.cpp:380] data -> data
I0830 17:53:14.097725 18709 net.cpp:380] data -> label
I0830 17:53:14.097739 18709 image_data_layer.cpp:38] Opening file /home/alfa/Documents/msda/mywork/data/office/office_d.txt
I0830 17:53:14.098021 18709 image_data_layer.cpp:63] A total of 498 images.
I0830 17:53:14.103248 18709 image_data_layer.cpp:90] output data size: 1,3,224,224
I0830 17:53:14.105935 18709 net.cpp:122] Setting up data
I0830 17:53:14.105958 18709 net.cpp:129] Top shape: 1 3 224 224 (150528)
I0830 17:53:14.105964 18709 net.cpp:129] Top shape: 1 (1)
I0830 17:53:14.105968 18709 net.cpp:137] Memory required for data: 602116
I0830 17:53:14.105976 18709 layer_factory.hpp:77] Creating layer conv1
I0830 17:53:14.105998 18709 net.cpp:84] Creating Layer conv1
I0830 17:53:14.106005 18709 net.cpp:406] conv1 <- data
I0830 17:53:14.106016 18709 net.cpp:380] conv1 -> conv1
I0830 17:53:14.107477 18709 net.cpp:122] Setting up conv1
I0830 17:53:14.107491 18709 net.cpp:129] Top shape: 1 96 54 54 (279936)
I0830 17:53:14.107494 18709 net.cpp:137] Memory required for data: 1721860
I0830 17:53:14.107507 18709 layer_factory.hpp:77] Creating layer relu1
I0830 17:53:14.107519 18709 net.cpp:84] Creating Layer relu1
I0830 17:53:14.107527 18709 net.cpp:406] relu1 <- conv1
I0830 17:53:14.107534 18709 net.cpp:367] relu1 -> conv1 (in-place)
I0830 17:53:14.107687 18709 net.cpp:122] Setting up relu1
I0830 17:53:14.107697 18709 net.cpp:129] Top shape: 1 96 54 54 (279936)
I0830 17:53:14.107702 18709 net.cpp:137] Memory required for data: 2841604
I0830 17:53:14.107707 18709 layer_factory.hpp:77] Creating layer pool1
I0830 17:53:14.107739 18709 net.cpp:84] Creating Layer pool1
I0830 17:53:14.107746 18709 net.cpp:406] pool1 <- conv1
I0830 17:53:14.107754 18709 net.cpp:380] pool1 -> pool1
I0830 17:53:14.107800 18709 net.cpp:122] Setting up pool1
I0830 17:53:14.107808 18709 net.cpp:129] Top shape: 1 96 27 27 (69984)
I0830 17:53:14.107812 18709 net.cpp:137] Memory required for data: 3121540
I0830 17:53:14.107832 18709 layer_factory.hpp:77] Creating layer norm1
I0830 17:53:14.107843 18709 net.cpp:84] Creating Layer norm1
I0830 17:53:14.107849 18709 net.cpp:406] norm1 <- pool1
I0830 17:53:14.107858 18709 net.cpp:380] norm1 -> norm1
I0830 17:53:14.108414 18709 net.cpp:122] Setting up norm1
I0830 17:53:14.108427 18709 net.cpp:129] Top shape: 1 96 27 27 (69984)
I0830 17:53:14.108430 18709 net.cpp:137] Memory required for data: 3401476
I0830 17:53:14.108435 18709 layer_factory.hpp:77] Creating layer conv2
I0830 17:53:14.108448 18709 net.cpp:84] Creating Layer conv2
I0830 17:53:14.108454 18709 net.cpp:406] conv2 <- norm1
I0830 17:53:14.108463 18709 net.cpp:380] conv2 -> conv2
I0830 17:53:14.112397 18709 net.cpp:122] Setting up conv2
I0830 17:53:14.112419 18709 net.cpp:129] Top shape: 1 256 27 27 (186624)
I0830 17:53:14.112424 18709 net.cpp:137] Memory required for data: 4147972
I0830 17:53:14.112438 18709 layer_factory.hpp:77] Creating layer relu2
I0830 17:53:14.112448 18709 net.cpp:84] Creating Layer relu2
I0830 17:53:14.112458 18709 net.cpp:406] relu2 <- conv2
I0830 17:53:14.112466 18709 net.cpp:367] relu2 -> conv2 (in-place)
I0830 17:53:14.112628 18709 net.cpp:122] Setting up relu2
I0830 17:53:14.112637 18709 net.cpp:129] Top shape: 1 256 27 27 (186624)
I0830 17:53:14.112643 18709 net.cpp:137] Memory required for data: 4894468
I0830 17:53:14.112646 18709 layer_factory.hpp:77] Creating layer pool2
I0830 17:53:14.112655 18709 net.cpp:84] Creating Layer pool2
I0830 17:53:14.112660 18709 net.cpp:406] pool2 <- conv2
I0830 17:53:14.112668 18709 net.cpp:380] pool2 -> pool2
I0830 17:53:14.112712 18709 net.cpp:122] Setting up pool2
I0830 17:53:14.112720 18709 net.cpp:129] Top shape: 1 256 13 13 (43264)
I0830 17:53:14.112725 18709 net.cpp:137] Memory required for data: 5067524
I0830 17:53:14.112730 18709 layer_factory.hpp:77] Creating layer norm2
I0830 17:53:14.112740 18709 net.cpp:84] Creating Layer norm2
I0830 17:53:14.112746 18709 net.cpp:406] norm2 <- pool2
I0830 17:53:14.112754 18709 net.cpp:380] norm2 -> norm2
I0830 17:53:14.112936 18709 net.cpp:122] Setting up norm2
I0830 17:53:14.112943 18709 net.cpp:129] Top shape: 1 256 13 13 (43264)
I0830 17:53:14.112948 18709 net.cpp:137] Memory required for data: 5240580
I0830 17:53:14.112952 18709 layer_factory.hpp:77] Creating layer conv3
I0830 17:53:14.112967 18709 net.cpp:84] Creating Layer conv3
I0830 17:53:14.112973 18709 net.cpp:406] conv3 <- norm2
I0830 17:53:14.112983 18709 net.cpp:380] conv3 -> conv3
I0830 17:53:14.121587 18709 net.cpp:122] Setting up conv3
I0830 17:53:14.121610 18709 net.cpp:129] Top shape: 1 384 13 13 (64896)
I0830 17:53:14.121615 18709 net.cpp:137] Memory required for data: 5500164
I0830 17:53:14.121634 18709 layer_factory.hpp:77] Creating layer relu3
I0830 17:53:14.121644 18709 net.cpp:84] Creating Layer relu3
I0830 17:53:14.121655 18709 net.cpp:406] relu3 <- conv3
I0830 17:53:14.121665 18709 net.cpp:367] relu3 -> conv3 (in-place)
I0830 17:53:14.122205 18709 net.cpp:122] Setting up relu3
I0830 17:53:14.122215 18709 net.cpp:129] Top shape: 1 384 13 13 (64896)
I0830 17:53:14.122221 18709 net.cpp:137] Memory required for data: 5759748
I0830 17:53:14.122226 18709 layer_factory.hpp:77] Creating layer conv4
I0830 17:53:14.122242 18709 net.cpp:84] Creating Layer conv4
I0830 17:53:14.122248 18709 net.cpp:406] conv4 <- conv3
I0830 17:53:14.122259 18709 net.cpp:380] conv4 -> conv4
I0830 17:53:14.130357 18709 net.cpp:122] Setting up conv4
I0830 17:53:14.130381 18709 net.cpp:129] Top shape: 1 384 13 13 (64896)
I0830 17:53:14.130386 18709 net.cpp:137] Memory required for data: 6019332
I0830 17:53:14.130398 18709 layer_factory.hpp:77] Creating layer relu4
I0830 17:53:14.130409 18709 net.cpp:84] Creating Layer relu4
I0830 17:53:14.130415 18709 net.cpp:406] relu4 <- conv4
I0830 17:53:14.130424 18709 net.cpp:367] relu4 -> conv4 (in-place)
I0830 17:53:14.130589 18709 net.cpp:122] Setting up relu4
I0830 17:53:14.130599 18709 net.cpp:129] Top shape: 1 384 13 13 (64896)
I0830 17:53:14.130604 18709 net.cpp:137] Memory required for data: 6278916
I0830 17:53:14.130609 18709 layer_factory.hpp:77] Creating layer conv5
I0830 17:53:14.130636 18709 net.cpp:84] Creating Layer conv5
I0830 17:53:14.130641 18709 net.cpp:406] conv5 <- conv4
I0830 17:53:14.130650 18709 net.cpp:380] conv5 -> conv5
I0830 17:53:14.136726 18709 net.cpp:122] Setting up conv5
I0830 17:53:14.136749 18709 net.cpp:129] Top shape: 1 256 13 13 (43264)
I0830 17:53:14.136755 18709 net.cpp:137] Memory required for data: 6451972
I0830 17:53:14.136773 18709 layer_factory.hpp:77] Creating layer relu5
I0830 17:53:14.136786 18709 net.cpp:84] Creating Layer relu5
I0830 17:53:14.136797 18709 net.cpp:406] relu5 <- conv5
I0830 17:53:14.136806 18709 net.cpp:367] relu5 -> conv5 (in-place)
I0830 17:53:14.136972 18709 net.cpp:122] Setting up relu5
I0830 17:53:14.136981 18709 net.cpp:129] Top shape: 1 256 13 13 (43264)
I0830 17:53:14.136987 18709 net.cpp:137] Memory required for data: 6625028
I0830 17:53:14.136993 18709 layer_factory.hpp:77] Creating layer pool5
I0830 17:53:14.137004 18709 net.cpp:84] Creating Layer pool5
I0830 17:53:14.137012 18709 net.cpp:406] pool5 <- conv5
I0830 17:53:14.137022 18709 net.cpp:380] pool5 -> pool5
I0830 17:53:14.137073 18709 net.cpp:122] Setting up pool5
I0830 17:53:14.137081 18709 net.cpp:129] Top shape: 1 256 6 6 (9216)
I0830 17:53:14.137085 18709 net.cpp:137] Memory required for data: 6661892
I0830 17:53:14.137091 18709 layer_factory.hpp:77] Creating layer fc6
I0830 17:53:14.137106 18709 net.cpp:84] Creating Layer fc6
I0830 17:53:14.137112 18709 net.cpp:406] fc6 <- pool5
I0830 17:53:14.137121 18709 net.cpp:380] fc6 -> fc6
I0830 17:53:14.414654 18709 net.cpp:122] Setting up fc6
I0830 17:53:14.414678 18709 net.cpp:129] Top shape: 1 4096 (4096)
I0830 17:53:14.414682 18709 net.cpp:137] Memory required for data: 6678276
I0830 17:53:14.414695 18709 layer_factory.hpp:77] Creating layer fc6_target/bn
I0830 17:53:14.414708 18709 net.cpp:84] Creating Layer fc6_target/bn
I0830 17:53:14.414716 18709 net.cpp:406] fc6_target/bn <- fc6
I0830 17:53:14.414726 18709 net.cpp:380] fc6_target/bn -> fc6/bn
I0830 17:53:14.414901 18709 net.cpp:122] Setting up fc6_target/bn
I0830 17:53:14.414909 18709 net.cpp:129] Top shape: 1 4096 (4096)
I0830 17:53:14.414913 18709 net.cpp:137] Memory required for data: 6694660
I0830 17:53:14.414922 18709 layer_factory.hpp:77] Creating layer fc6_scale
I0830 17:53:14.414933 18709 net.cpp:84] Creating Layer fc6_scale
I0830 17:53:14.414943 18709 net.cpp:406] fc6_scale <- fc6/bn
I0830 17:53:14.414952 18709 net.cpp:380] fc6_scale -> fc6/scale
I0830 17:53:14.414993 18709 layer_factory.hpp:77] Creating layer fc6_scale
I0830 17:53:14.415097 18709 net.cpp:122] Setting up fc6_scale
I0830 17:53:14.415107 18709 net.cpp:129] Top shape: 1 4096 (4096)
I0830 17:53:14.415109 18709 net.cpp:137] Memory required for data: 6711044
I0830 17:53:14.415124 18709 layer_factory.hpp:77] Creating layer relu6
I0830 17:53:14.415133 18709 net.cpp:84] Creating Layer relu6
I0830 17:53:14.415140 18709 net.cpp:406] relu6 <- fc6/scale
I0830 17:53:14.415148 18709 net.cpp:380] relu6 -> fc6/relu
I0830 17:53:14.415871 18709 net.cpp:122] Setting up relu6
I0830 17:53:14.415884 18709 net.cpp:129] Top shape: 1 4096 (4096)
I0830 17:53:14.415889 18709 net.cpp:137] Memory required for data: 6727428
I0830 17:53:14.415894 18709 layer_factory.hpp:77] Creating layer drop6
I0830 17:53:14.415905 18709 net.cpp:84] Creating Layer drop6
I0830 17:53:14.415911 18709 net.cpp:406] drop6 <- fc6/relu
I0830 17:53:14.415920 18709 net.cpp:380] drop6 -> fc6/out
I0830 17:53:14.415963 18709 net.cpp:122] Setting up drop6
I0830 17:53:14.415971 18709 net.cpp:129] Top shape: 1 4096 (4096)
I0830 17:53:14.415976 18709 net.cpp:137] Memory required for data: 6743812
I0830 17:53:14.415982 18709 layer_factory.hpp:77] Creating layer fc7
I0830 17:53:14.415992 18709 net.cpp:84] Creating Layer fc7
I0830 17:53:14.415998 18709 net.cpp:406] fc7 <- fc6/out
I0830 17:53:14.416007 18709 net.cpp:380] fc7 -> fc7
I0830 17:53:14.539397 18709 net.cpp:122] Setting up fc7
I0830 17:53:14.539422 18709 net.cpp:129] Top shape: 1 4096 (4096)
I0830 17:53:14.539427 18709 net.cpp:137] Memory required for data: 6760196
I0830 17:53:14.539463 18709 layer_factory.hpp:77] Creating layer fc7_target/bn
I0830 17:53:14.539479 18709 net.cpp:84] Creating Layer fc7_target/bn
I0830 17:53:14.539485 18709 net.cpp:406] fc7_target/bn <- fc7
I0830 17:53:14.539495 18709 net.cpp:380] fc7_target/bn -> fc7/bn
I0830 17:53:14.539671 18709 net.cpp:122] Setting up fc7_target/bn
I0830 17:53:14.539680 18709 net.cpp:129] Top shape: 1 4096 (4096)
I0830 17:53:14.539683 18709 net.cpp:137] Memory required for data: 6776580
I0830 17:53:14.539695 18709 layer_factory.hpp:77] Creating layer fc7_scale
I0830 17:53:14.539706 18709 net.cpp:84] Creating Layer fc7_scale
I0830 17:53:14.539733 18709 net.cpp:406] fc7_scale <- fc7/bn
I0830 17:53:14.539742 18709 net.cpp:380] fc7_scale -> fc7/scale
I0830 17:53:14.539786 18709 layer_factory.hpp:77] Creating layer fc7_scale
I0830 17:53:14.539891 18709 net.cpp:122] Setting up fc7_scale
I0830 17:53:14.539901 18709 net.cpp:129] Top shape: 1 4096 (4096)
I0830 17:53:14.539906 18709 net.cpp:137] Memory required for data: 6792964
I0830 17:53:14.539913 18709 layer_factory.hpp:77] Creating layer relu7
I0830 17:53:14.539923 18709 net.cpp:84] Creating Layer relu7
I0830 17:53:14.539932 18709 net.cpp:406] relu7 <- fc7/scale
I0830 17:53:14.539939 18709 net.cpp:380] relu7 -> fc7/relu
I0830 17:53:14.540172 18709 net.cpp:122] Setting up relu7
I0830 17:53:14.540182 18709 net.cpp:129] Top shape: 1 4096 (4096)
I0830 17:53:14.540187 18709 net.cpp:137] Memory required for data: 6809348
I0830 17:53:14.540191 18709 layer_factory.hpp:77] Creating layer drop7
I0830 17:53:14.540202 18709 net.cpp:84] Creating Layer drop7
I0830 17:53:14.540207 18709 net.cpp:406] drop7 <- fc7/relu
I0830 17:53:14.540215 18709 net.cpp:380] drop7 -> fc7/out
I0830 17:53:14.540258 18709 net.cpp:122] Setting up drop7
I0830 17:53:14.540264 18709 net.cpp:129] Top shape: 1 4096 (4096)
I0830 17:53:14.540268 18709 net.cpp:137] Memory required for data: 6825732
I0830 17:53:14.540274 18709 layer_factory.hpp:77] Creating layer office-fc8
I0830 17:53:14.540287 18709 net.cpp:84] Creating Layer office-fc8
I0830 17:53:14.540292 18709 net.cpp:406] office-fc8 <- fc7/out
I0830 17:53:14.540300 18709 net.cpp:380] office-fc8 -> fc8
I0830 17:53:14.542131 18709 net.cpp:122] Setting up office-fc8
I0830 17:53:14.542142 18709 net.cpp:129] Top shape: 1 31 (31)
I0830 17:53:14.542146 18709 net.cpp:137] Memory required for data: 6825856
I0830 17:53:14.542155 18709 layer_factory.hpp:77] Creating layer fc8_target/bn
I0830 17:53:14.542170 18709 net.cpp:84] Creating Layer fc8_target/bn
I0830 17:53:14.542177 18709 net.cpp:406] fc8_target/bn <- fc8
I0830 17:53:14.542186 18709 net.cpp:380] fc8_target/bn -> fc8/bn
I0830 17:53:14.542367 18709 net.cpp:122] Setting up fc8_target/bn
I0830 17:53:14.542376 18709 net.cpp:129] Top shape: 1 31 (31)
I0830 17:53:14.542379 18709 net.cpp:137] Memory required for data: 6825980
I0830 17:53:14.542389 18709 layer_factory.hpp:77] Creating layer fc8_scale
I0830 17:53:14.542400 18709 net.cpp:84] Creating Layer fc8_scale
I0830 17:53:14.542409 18709 net.cpp:406] fc8_scale <- fc8/bn
I0830 17:53:14.542419 18709 net.cpp:380] fc8_scale -> fc8/scale
I0830 17:53:14.542462 18709 layer_factory.hpp:77] Creating layer fc8_scale
I0830 17:53:14.542567 18709 net.cpp:122] Setting up fc8_scale
I0830 17:53:14.542575 18709 net.cpp:129] Top shape: 1 31 (31)
I0830 17:53:14.542579 18709 net.cpp:137] Memory required for data: 6826104
I0830 17:53:14.542587 18709 layer_factory.hpp:77] Creating layer accuracy
I0830 17:53:14.542598 18709 net.cpp:84] Creating Layer accuracy
I0830 17:53:14.542605 18709 net.cpp:406] accuracy <- fc8/scale
I0830 17:53:14.542611 18709 net.cpp:406] accuracy <- label
I0830 17:53:14.542620 18709 net.cpp:380] accuracy -> accuracy
…
