…
    source: "/home/alfa/Documents/msda/mywork/data/office/office_w.txt"
    batch_size: 128
    shuffle: true
    new_height: 256
    new_width: 256
    is_color: true
  }
}
layer {
  name: "target_data"
  type: "ImageData"
  top: "t_data"
  top: "t_label"
  include {
    phase: TRAIN
  }
  transform_param {
    crop_size: 227
    mean_value: 104
    mean_value: 117
    mean_value: 123
  }
  image_data_param {
    source: "/home/alfa/Documents/msda/mywork/data/office/office_d.txt"
    batch_size: 128
    shuffle: true
    new_height: 256
    new_width: 256
    is_color: true
  }
}
layer {
  name: "data"
  type: "Concat"
  bottom: "s1_data"
  bottom: "s2_data"
  bottom: "t_data"
  top: "data"
  include {
    phase: TRAIN
  }
  concat_param {
    concat_dim: 0
  }
}
layer {
  name: "label"
  type: "Concat"
  bottom: "s1_label"
  bottom: "s2_label"
  top: "label"
  include {
    phase: TRAIN
  }
  concat_param {
    concat_dim: 0
  }
}
layer {
  name: "conv1"
  type: "Convolution"
  bottom: "data"
  top: "conv1"
  param {
    lr_mult: 0
    decay_mult: 1
  }
  param {
    lr_mult: 0
    decay_mult: 0
  }
  convolution_param {
    num_output: 96
    kernel_size: 11
    stride: 4
    weight_filler {
      type: "gaussian"
      std: 0.01
    }
    bias_filler {
      type: "constant"
      value: 0
    }
  }
}
layer {
  name: "relu1"
  type: "ReLU"
  bottom: "conv1"
  top: "conv1"
}
layer {
  name: "pool1"
  type: "Pooling"
  bottom: "conv1"
  top: "pool1"
  pooling_param {
    pool: MAX
    kernel_size: 3
    stride: 2
  }
}
layer {
  name: "norm1"
  type: "LRN"
  bottom: "pool1"
  top: "norm1"
  lrn_param {
    local_size: 5
    alpha: 0.0001
    beta: 0.75
  }
}
layer {
  name: "conv2"
  type: "Convolution"
  bottom: "norm1"
  top: "conv2"
  param {
    lr_mult: 0
    decay_mult: 1
  }
  param {
    lr_mult: 0
    decay_mult: 0
  }
  convolution_param {
    num_output: 256
    pad: 2
    kernel_size: 5
    group: 2
    weight_filler {
      type: "gaussian"
      std: 0.01
    }
    bias_filler {
      type: "constant"
      value: 1
    }
  }
}
layer {
  name: "relu2"
  type: "ReLU"
  bottom: "conv2"
  top: "conv2"
}
layer {
  name: "pool2"
  type: "Pooling"
  bottom: "conv2"
  top: "pool2"
  pooling_param {
    pool: MAX
    kernel_size: 3
    stride: 2
  }
}
layer {
  name: "norm2"
  type: "LRN"
  bottom: "pool2"
  top: "norm2"
  lrn_param {
    local_size: 5
    alpha: 0.0001
    beta: 0.75
  }
}
layer {
  name: "conv3"
  type: "Convolution"
  bottom: "norm2"
  top: "conv3"
  param {
    lr_mult: 0
    decay_mult: 1
  }
  param {
    lr_mult: 0
    decay_mult: 0
  }
  convolution_param {
    num_output: 384
    pad: 1
    kernel_size: 3
    weight_filler {
      type: "gaussian"
      std: 0.01
    }
    bias_filler {
      type: "constant"
      value: 0
    }
  }
}
layer {
  name: "relu3"
  type: "ReLU"
  bottom: "conv3"
  top: "conv3"
}
layer {
  name: "conv4"
  type: "Convolution"
  bottom: "conv3"
  top: "conv4"
  param {
    lr_mult: 0
    decay_mult: 1
  }
  param {
    lr_mult: 0
    decay_mult: 0
  }
  convolution_param {
    num_output: 384
    pad: 1
    kernel_size: 3
    group: 2
    weight_filler {
      type: "gaussian"
      std: 0.01
    }
    bias_filler {
      type: "constant"
      value: 1
    }
  }
}
layer {
  name: "relu4"
  type: "ReLU"
  bottom: "conv4"
  top: "conv4"
}
layer {
  name: "conv5"
  type: "Convolution"
  bottom: "conv4"
  top: "conv5"
  param {
    lr_mult: 0
    decay_mult: 1
  }
  param {
    lr_mult: 0
    decay_mult: 0
  }
  convolution_param {
    num_output: 256
    pad: 1
    kernel_size: 3
    group: 2
    weight_filler {
      type: "gaussian"
      std: 0.01
    }
    bias_filler {
      type: "constant"
      value: 1
    }
  }
}
layer {
  name: "relu5"
  type: "ReLU"
  bottom: "conv5"
  top: "conv5"
}
layer {
  name: "pool5"
  type: "Pooling"
  bottom: "conv5"
  top: "pool5"
  pooling_param {
    pool: MAX
    kernel_size: 3
    stride: 2
  }
}
layer {
  name: "fc6"
  type: "InnerProduct"
  bottom: "pool5"
  top: "fc6"
  param {
    lr_mult: 1
    decay_mult: 1
  }
  param {
    lr_mult: 2
    decay_mult: 0
  }
  inner_product_param {
    num_output: 4096
    weight_filler {
      type: "gaussian"
      std: 0.005
    }
    bias_filler {
      type: "constant"
      value: 0
    }
  }
}
layer {
  name: "slicer_fc6"
  type: "Slice"
  bottom: "fc6"
  top: "fc6_source"
  top: "fc6_target"
  include {
    phase: TRAIN
  }
  slice_param {
    slice_point: 256
    axis: 0
  }
}
layer {
  name: "fc6_source/bn"
  type: "BatchNorm"
  bottom: "fc6_source"
  top: "fc6_source/bn"
  param {
    lr_mult: 0
    decay_mult: 0
  }
  param {
    lr_mult: 0
    decay_mult: 0
  }
  param {
    lr_mult: 0
    decay_mult: 0
  }
  include {
    phase: TRAIN
  }
  batch_norm_param {
    moving_average_fraction: 0.95
  }
}
layer {
  name: "fc6_target/bn"
  type: "BatchNorm"
  bottom: "fc6_target"
  top: "fc6_target/bn"
  param {
    lr_mult: 0
    decay_mult: 0
  }
  param {
    lr_mult: 0
    decay_mult: 0
  }
  param {
    lr_mult: 0
    decay_mult: 0
  }
  include {
    phase: TRAIN
  }
  batch_norm_param {
    moving_average_fraction: 0.95
  }
}
layer {
  name: "concat_wbn_6"
  type: "Concat"
  bottom: "fc6_source/bn"
  bottom: "fc6_target/bn"
  top: "fc6/bn"
  include {
    phase: TRAIN
  }
  concat_param {
    axis: 0
  }
}
layer {
  name: "fc6_scale"
  type: "Scale"
  bottom: "fc6/bn"
  top: "fc6/scale"
  param {
    lr_mult: 1
    decay_mult: 0
  }
  param {
    lr_mult: 1
    decay_mult: 0
  }
  scale_param {
    axis: 1
    num_axes: 1
    filler {
      type: "constant"
      value: 1
    }
    bias_term: true
    bias_filler {
      type: "constant"
      value: 0
    }
  }
}
layer {
  name: "relu6"
  type: "ReLU"
  bottom: "fc6/scale"
  top: "fc6/relu"
}
layer {
  name: "drop6"
  type: "Dropout"
  bottom: "fc6/relu"
  top: "fc6/out"
  dropout_param {
    dropout_ratio: 0.5
  }
}
layer {
  name: "fc7"
  type: "InnerProduct"
  bottom: "fc6/out"
  top: "fc7"
  param {
    lr_mult: 1
    decay_mult: 1
  }
  param {
    lr_mult: 2
    decay_mult: 0
  }
  inner_product_param {
    num_output: 4096
    weight_filler {
      type: "gaussian"
      std: 0.005
    }
    bias_filler {
      type: "constant"
      value: 0
    }
  }
}
layer {
  name: "slicer_fc7"
  type: "Slice"
  bottom: "fc7"
  top: "fc7_source"
  top: "fc7_target"
  include {
    phase: TRAIN
  }
  slice_param {
    slice_point: 256
    axis: 0
  }
}
layer {
  name: "fc7_source/bn"
  type: "BatchNorm"
  bottom: "fc7_source"
  top: "fc7_source/bn"
  param {
    lr_mult: 0
    decay_mult: 0
  }
  param {
    lr_mult: 0
    decay_mult: 0
  }
  param {
    lr_mult: 0
    decay_mult: 0
  }
  include {
    phase: TRAIN
  }
  batch_norm_param {
    moving_average_fraction: 0.95
  }
}
layer {
  name: "fc7_target/bn"
  type: "BatchNorm"
  bottom: "fc7_target"
  top: "fc7_target/bn"
  param {
    lr_mult: 0
    decay_mult: 0
  }
  param {
    lr_mult: 0
    decay_mult: 0
  }
  param {
    lr_mult: 0
    decay_mult: 0
  }
  include {
    phase: TRAIN
  }
  batch_norm_param {
    moving_average_fraction: 0.95
  }
}
layer {
  name: "concat_wbn_7"
  type: "Concat"
  bottom: "fc7_source/bn"
  bottom: "fc7_target/bn"
  top: "fc7/bn"
  include {
    phase: TRAIN
  }
  concat_param {
    axis: 0
  }
}
layer {
  name: "fc7_scale"
  type: "Scale"
  bottom: "fc7/bn"
  top: "fc7/scale"
  param {
    lr_mult: 1
    decay_mult: 0
  }
  param {
    lr_mult: 1
    decay_mult: 0
  }
  scale_param {
    axis: 1
    num_axes: 1
    filler {
      type: "constant"
      value: 1
    }
    bias_term: true
    bias_filler {
      type: "constant"
      value: 0
    }
  }
}
layer {
  name: "relu7"
  type: "ReLU"
  bottom: "fc7/scale"
  top: "fc7/relu"
}
layer {
  name: "drop7"
  type: "Dropout"
  bottom: "fc7/relu"
  top: "fc7/out"
  dropout_param {
    dropout_ratio: 0.5
  }
}
layer {
  name: "office-fc8"
  type: "InnerProduct"
  bottom: "fc7/out"
  top: "fc8"
  param {
    lr_mult: 10
    decay_mult: 1
  }
  param {
    lr_mult: 20
    decay_mult: 0
  }
  inner_product_param {
    num_output: 31
    weight_filler {
      type: "gaussian"
      std: 0.01
    }
    bias_filler {
      type: "constant"
      value: 0
    }
  }
}
layer {
  name: "slicer_fc8"
  type: "Slice"
  bottom: "fc8"
  top: "fc8_source"
  top: "fc8_target"
  include {
    phase: TRAIN
  }
  slice_param {
    slice_point: 256
    axis: 0
  }
}
layer {
  name: "fc8_source/bn"
  type: "BatchNorm"
  bottom: "fc8_source"
  top: "fc8_source/bn"
  param {
    lr_mult: 0
    decay_mult: 0
  }
  param {
    lr_mult: 0
    decay_mult: 0
  }
  param {
    lr_mult: 0
    decay_mult: 0
  }
  include {
    phase: TRAIN
  }
  batch_norm_param {
    moving_average_fraction: 0.95
  }
}
layer {
  name: "fc8_target/bn"
  type: "BatchNorm"
  bottom: "fc8_target"
  top: "fc8_target/bn"
  param {
    lr_mult: 0
    decay_mult: 0
  }
  param {
    lr_mult: 0
    decay_mult: 0
  }
  param {
    lr_mult: 0
    decay_mult: 0
  }
  include {
    phase: TRAIN
  }
  batch_norm_param {
    moving_average_fraction: 0.95
  }
}
layer {
  name: "concat_wbn_8"
  type: "Concat"
  bottom: "fc8_source/bn"
  bottom: "fc8_target/bn"
  top: "fc8/bn"
  include {
    phase: TRAIN
  }
  concat_param {
    axis: 0
  }
}
layer {
  name: "fc8_scale"
  type: "Scale"
  bottom: "fc8/bn"
  top: "fc8/scale"
  param {
    lr_mult: 1
    decay_mult: 0
  }
  param {
    lr_mult: 1
    decay_mult: 0
  }
  scale_param {
    axis: 1
    num_axes: 1
    filler {
      type: "constant"
      value: 1
    }
    bias_term: true
    bias_filler {
      type: "constant"
      value: 0
    }
  }
}
layer {
  name: "slicer_scorer"
  type: "Slice"
  bottom: "fc8/scale"
  top: "score_source"
  top: "score_target"
  include {
    phase: TRAIN
  }
  slice_param {
    slice_point: 256
    axis: 0
  }
}
layer {
  name: "loss"
  type: "SoftmaxWithLoss"
  bottom: "score_source"
  bottom: "label"
  top: "loss"
  loss_weight: 1
  include {
    phase: TRAIN
  }
}
layer {
  name: "entropy"
  type: "EntropyLoss"
  bottom: "score_target"
  top: "entropy"
  loss_weight: 0.8
  include {
    phase: TRAIN
  }
}
layer {
  name: "accuracy"
  type: "Accuracy"
  bottom: "score_source"
  bottom: "label"
  top: "accuracy"
  include {
    phase: TRAIN
  }
}
layer {
  name: "silence_target"
  type: "Silence"
  bottom: "t_label"
  include {
    phase: TRAIN
  }
}
I0829 16:15:02.627110 16769 layer_factory.hpp:77] Creating layer s1_data
I0829 16:15:02.627140 16769 net.cpp:84] Creating Layer s1_data
I0829 16:15:02.627149 16769 net.cpp:380] s1_data -> s1_data
I0829 16:15:02.627171 16769 net.cpp:380] s1_data -> s1_label
I0829 16:15:02.627487 16769 image_data_layer.cpp:38] Opening file /home/alfa/Documents/msda/mywork/data/office/office_a.txt
I0829 16:15:02.628851 16769 image_data_layer.cpp:53] Shuffling data
I0829 16:15:02.629313 16769 image_data_layer.cpp:63] A total of 2817 images.
I0829 16:15:02.635699 16769 image_data_layer.cpp:90] output data size: 128,3,227,227
I0829 16:15:02.751014 16769 net.cpp:122] Setting up s1_data
I0829 16:15:02.751042 16769 net.cpp:129] Top shape: 128 3 227 227 (19787136)
I0829 16:15:02.751049 16769 net.cpp:129] Top shape: 128 (128)
I0829 16:15:02.751054 16769 net.cpp:137] Memory required for data: 79149056
I0829 16:15:02.751062 16769 layer_factory.hpp:77] Creating layer s2_data
I0829 16:15:02.751085 16769 net.cpp:84] Creating Layer s2_data
I0829 16:15:02.751094 16769 net.cpp:380] s2_data -> s2_data
I0829 16:15:02.751108 16769 net.cpp:380] s2_data -> s2_label
I0829 16:15:02.751122 16769 image_data_layer.cpp:38] Opening file /home/alfa/Documents/msda/mywork/data/office/office_w.txt
I0829 16:15:02.751509 16769 image_data_layer.cpp:53] Shuffling data
I0829 16:15:02.751646 16769 image_data_layer.cpp:63] A total of 795 images.
I0829 16:15:02.759112 16769 image_data_layer.cpp:90] output data size: 128,3,227,227
I0829 16:15:02.872560 16769 net.cpp:122] Setting up s2_data
I0829 16:15:02.872586 16769 net.cpp:129] Top shape: 128 3 227 227 (19787136)
I0829 16:15:02.872591 16769 net.cpp:129] Top shape: 128 (128)
I0829 16:15:02.872596 16769 net.cpp:137] Memory required for data: 158298112
I0829 16:15:02.872602 16769 layer_factory.hpp:77] Creating layer target_data
I0829 16:15:02.872627 16769 net.cpp:84] Creating Layer target_data
I0829 16:15:02.872635 16769 net.cpp:380] target_data -> t_data
I0829 16:15:02.872649 16769 net.cpp:380] target_data -> t_label
I0829 16:15:02.872665 16769 image_data_layer.cpp:38] Opening file /home/alfa/Documents/msda/mywork/data/office/office_d.txt
I0829 16:15:02.872880 16769 image_data_layer.cpp:53] Shuffling data
I0829 16:15:02.872967 16769 image_data_layer.cpp:63] A total of 498 images.
I0829 16:15:02.881942 16769 image_data_layer.cpp:90] output data size: 128,3,227,227
I0829 16:15:02.997537 16769 net.cpp:122] Setting up target_data
I0829 16:15:02.997562 16769 net.cpp:129] Top shape: 128 3 227 227 (19787136)
I0829 16:15:02.997570 16769 net.cpp:129] Top shape: 128 (128)
I0829 16:15:02.997573 16769 net.cpp:137] Memory required for data: 237447168
I0829 16:15:02.997579 16769 layer_factory.hpp:77] Creating layer data
I0829 16:15:02.997594 16769 net.cpp:84] Creating Layer data
I0829 16:15:02.997604 16769 net.cpp:406] data <- s1_data
I0829 16:15:02.997622 16769 net.cpp:406] data <- s2_data
I0829 16:15:02.997627 16769 net.cpp:406] data <- t_data
I0829 16:15:02.997638 16769 net.cpp:380] data -> data
I0829 16:15:02.997678 16769 net.cpp:122] Setting up data
I0829 16:15:02.997686 16769 net.cpp:129] Top shape: 384 3 227 227 (59361408)
I0829 16:15:02.997690 16769 net.cpp:137] Memory required for data: 474892800
I0829 16:15:02.997696 16769 layer_factory.hpp:77] Creating layer label
I0829 16:15:02.997709 16769 net.cpp:84] Creating Layer label
I0829 16:15:02.997714 16769 net.cpp:406] label <- s1_label
I0829 16:15:02.997735 16769 net.cpp:406] label <- s2_label
I0829 16:15:02.997745 16769 net.cpp:380] label -> label
I0829 16:15:02.997772 16769 net.cpp:122] Setting up label
I0829 16:15:02.997779 16769 net.cpp:129] Top shape: 256 (256)
I0829 16:15:02.997783 16769 net.cpp:137] Memory required for data: 474893824
I0829 16:15:02.997789 16769 layer_factory.hpp:77] Creating layer label_label_0_split
I0829 16:15:02.997800 16769 net.cpp:84] Creating Layer label_label_0_split
I0829 16:15:02.997805 16769 net.cpp:406] label_label_0_split <- label
I0829 16:15:02.997813 16769 net.cpp:380] label_label_0_split -> label_label_0_split_0
I0829 16:15:02.997826 16769 net.cpp:380] label_label_0_split -> label_label_0_split_1
I0829 16:15:02.997859 16769 net.cpp:122] Setting up label_label_0_split
I0829 16:15:02.997866 16769 net.cpp:129] Top shape: 256 (256)
I0829 16:15:02.997871 16769 net.cpp:129] Top shape: 256 (256)
I0829 16:15:02.997879 16769 net.cpp:137] Memory required for data: 474895872
I0829 16:15:02.997884 16769 layer_factory.hpp:77] Creating layer conv1
I0829 16:15:02.997903 16769 net.cpp:84] Creating Layer conv1
I0829 16:15:02.997910 16769 net.cpp:406] conv1 <- data
I0829 16:15:02.997920 16769 net.cpp:380] conv1 -> conv1
I0829 16:15:03.470234 16769 net.cpp:122] Setting up conv1
I0829 16:15:03.470263 16769 net.cpp:129] Top shape: 384 96 55 55 (111513600)
I0829 16:15:03.470268 16769 net.cpp:137] Memory required for data: 920950272
I0829 16:15:03.470293 16769 layer_factory.hpp:77] Creating layer relu1
I0829 16:15:03.470305 16769 net.cpp:84] Creating Layer relu1
I0829 16:15:03.470312 16769 net.cpp:406] relu1 <- conv1
I0829 16:15:03.470324 16769 net.cpp:367] relu1 -> conv1 (in-place)
I0829 16:15:03.470504 16769 net.cpp:122] Setting up relu1
I0829 16:15:03.470513 16769 net.cpp:129] Top shape: 384 96 55 55 (111513600)
I0829 16:15:03.470518 16769 net.cpp:137] Memory required for data: 1367004672
I0829 16:15:03.470523 16769 layer_factory.hpp:77] Creating layer pool1
I0829 16:15:03.470538 16769 net.cpp:84] Creating Layer pool1
I0829 16:15:03.470543 16769 net.cpp:406] pool1 <- conv1
I0829 16:15:03.470551 16769 net.cpp:380] pool1 -> pool1
I0829 16:15:03.470609 16769 net.cpp:122] Setting up pool1
I0829 16:15:03.470618 16769 net.cpp:129] Top shape: 384 96 27 27 (26873856)
I0829 16:15:03.470623 16769 net.cpp:137] Memory required for data: 1474500096
I0829 16:15:03.470628 16769 layer_factory.hpp:77] Creating layer norm1
I0829 16:15:03.470640 16769 net.cpp:84] Creating Layer norm1
I0829 16:15:03.470647 16769 net.cpp:406] norm1 <- pool1
I0829 16:15:03.470654 16769 net.cpp:380] norm1 -> norm1
I0829 16:15:03.470840 16769 net.cpp:122] Setting up norm1
I0829 16:15:03.470851 16769 net.cpp:129] Top shape: 384 96 27 27 (26873856)
I0829 16:15:03.470857 16769 net.cpp:137] Memory required for data: 1581995520
I0829 16:15:03.470863 16769 layer_factory.hpp:77] Creating layer conv2
I0829 16:15:03.470880 16769 net.cpp:84] Creating Layer conv2
I0829 16:15:03.470885 16769 net.cpp:406] conv2 <- norm1
I0829 16:15:03.470896 16769 net.cpp:380] conv2 -> conv2
I0829 16:15:03.476905 16769 net.cpp:122] Setting up conv2
I0829 16:15:03.476927 16769 net.cpp:129] Top shape: 384 256 27 27 (71663616)
I0829 16:15:03.476933 16769 net.cpp:137] Memory required for data: 1868649984
I0829 16:15:03.476949 16769 layer_factory.hpp:77] Creating layer relu2
I0829 16:15:03.476961 16769 net.cpp:84] Creating Layer relu2
I0829 16:15:03.476969 16769 net.cpp:406] relu2 <- conv2
I0829 16:15:03.476980 16769 net.cpp:367] relu2 -> conv2 (in-place)
I0829 16:15:03.477497 16769 net.cpp:122] Setting up relu2
I0829 16:15:03.477509 16769 net.cpp:129] Top shape: 384 256 27 27 (71663616)
I0829 16:15:03.477524 16769 net.cpp:137] Memory required for data: 2155304448
I0829 16:15:03.477530 16769 layer_factory.hpp:77] Creating layer pool2
I0829 16:15:03.477541 16769 net.cpp:84] Creating Layer pool2
I0829 16:15:03.477548 16769 net.cpp:406] pool2 <- conv2
I0829 16:15:03.477556 16769 net.cpp:380] pool2 -> pool2
I0829 16:15:03.477609 16769 net.cpp:122] Setting up pool2
I0829 16:15:03.477617 16769 net.cpp:129] Top shape: 384 256 13 13 (16613376)
I0829 16:15:03.477636 16769 net.cpp:137] Memory required for data: 2221757952
I0829 16:15:03.477641 16769 layer_factory.hpp:77] Creating layer norm2
I0829 16:15:03.477653 16769 net.cpp:84] Creating Layer norm2
I0829 16:15:03.477659 16769 net.cpp:406] norm2 <- pool2
I0829 16:15:03.477665 16769 net.cpp:380] norm2 -> norm2
I0829 16:15:03.477845 16769 net.cpp:122] Setting up norm2
I0829 16:15:03.477856 16769 net.cpp:129] Top shape: 384 256 13 13 (16613376)
I0829 16:15:03.477862 16769 net.cpp:137] Memory required for data: 2288211456
I0829 16:15:03.477867 16769 layer_factory.hpp:77] Creating layer conv3
I0829 16:15:03.477882 16769 net.cpp:84] Creating Layer conv3
I0829 16:15:03.477888 16769 net.cpp:406] conv3 <- norm2
I0829 16:15:03.477897 16769 net.cpp:380] conv3 -> conv3
I0829 16:15:03.486359 16769 net.cpp:122] Setting up conv3
I0829 16:15:03.486385 16769 net.cpp:129] Top shape: 384 384 13 13 (24920064)
I0829 16:15:03.486390 16769 net.cpp:137] Memory required for data: 2387891712
I0829 16:15:03.486407 16769 layer_factory.hpp:77] Creating layer relu3
I0829 16:15:03.486418 16769 net.cpp:84] Creating Layer relu3
I0829 16:15:03.486425 16769 net.cpp:406] relu3 <- conv3
I0829 16:15:03.486438 16769 net.cpp:367] relu3 -> conv3 (in-place)
I0829 16:15:03.486604 16769 net.cpp:122] Setting up relu3
I0829 16:15:03.486614 16769 net.cpp:129] Top shape: 384 384 13 13 (24920064)
I0829 16:15:03.486618 16769 net.cpp:137] Memory required for data: 2487571968
I0829 16:15:03.486624 16769 layer_factory.hpp:77] Creating layer conv4
I0829 16:15:03.486645 16769 net.cpp:84] Creating Layer conv4
I0829 16:15:03.486651 16769 net.cpp:406] conv4 <- conv3
I0829 16:15:03.486661 16769 net.cpp:380] conv4 -> conv4
I0829 16:15:03.494843 16769 net.cpp:122] Setting up conv4
I0829 16:15:03.494868 16769 net.cpp:129] Top shape: 384 384 13 13 (24920064)
I0829 16:15:03.494871 16769 net.cpp:137] Memory required for data: 2587252224
I0829 16:15:03.494882 16769 layer_factory.hpp:77] Creating layer relu4
I0829 16:15:03.494895 16769 net.cpp:84] Creating Layer relu4
I0829 16:15:03.494904 16769 net.cpp:406] relu4 <- conv4
I0829 16:15:03.494916 16769 net.cpp:367] relu4 -> conv4 (in-place)
I0829 16:15:03.495438 16769 net.cpp:122] Setting up relu4
I0829 16:15:03.495450 16769 net.cpp:129] Top shape: 384 384 13 13 (24920064)
I0829 16:15:03.495457 16769 net.cpp:137] Memory required for data: 2686932480
I0829 16:15:03.495462 16769 layer_factory.hpp:77] Creating layer conv5
I0829 16:15:03.495477 16769 net.cpp:84] Creating Layer conv5
I0829 16:15:03.495484 16769 net.cpp:406] conv5 <- conv4
I0829 16:15:03.495496 16769 net.cpp:380] conv5 -> conv5
I0829 16:15:03.501545 16769 net.cpp:122] Setting up conv5
I0829 16:15:03.501570 16769 net.cpp:129] Top shape: 384 256 13 13 (16613376)
I0829 16:15:03.501574 16769 net.cpp:137] Memory required for data: 2753385984
I0829 16:15:03.501591 16769 layer_factory.hpp:77] Creating layer relu5
I0829 16:15:03.501605 16769 net.cpp:84] Creating Layer relu5
I0829 16:15:03.501611 16769 net.cpp:406] relu5 <- conv5
I0829 16:15:03.501622 16769 net.cpp:367] relu5 -> conv5 (in-place)
I0829 16:15:03.501791 16769 net.cpp:122] Setting up relu5
I0829 16:15:03.501801 16769 net.cpp:129] Top shape: 384 256 13 13 (16613376)
I0829 16:15:03.501806 16769 net.cpp:137] Memory required for data: 2819839488
I0829 16:15:03.501811 16769 layer_factory.hpp:77] Creating layer pool5
I0829 16:15:03.501824 16769 net.cpp:84] Creating Layer pool5
I0829 16:15:03.501829 16769 net.cpp:406] pool5 <- conv5
I0829 16:15:03.501837 16769 net.cpp:380] pool5 -> pool5
I0829 16:15:03.501888 16769 net.cpp:122] Setting up pool5
I0829 16:15:03.501897 16769 net.cpp:129] Top shape: 384 256 6 6 (3538944)
I0829 16:15:03.501902 16769 net.cpp:137] Memory required for data: 2833995264
I0829 16:15:03.501907 16769 layer_factory.hpp:77] Creating layer fc6
I0829 16:15:03.501919 16769 net.cpp:84] Creating Layer fc6
I0829 16:15:03.501925 16769 net.cpp:406] fc6 <- pool5
I0829 16:15:03.501936 16769 net.cpp:380] fc6 -> fc6
I0829 16:15:03.781692 16769 net.cpp:122] Setting up fc6
I0829 16:15:03.781718 16769 net.cpp:129] Top shape: 384 4096 (1572864)
I0829 16:15:03.781749 16769 net.cpp:137] Memory required for data: 2840286720
I0829 16:15:03.781761 16769 layer_factory.hpp:77] Creating layer slicer_fc6
I0829 16:15:03.781776 16769 net.cpp:84] Creating Layer slicer_fc6
I0829 16:15:03.781783 16769 net.cpp:406] slicer_fc6 <- fc6
I0829 16:15:03.781797 16769 net.cpp:380] slicer_fc6 -> fc6_source
I0829 16:15:03.781813 16769 net.cpp:380] slicer_fc6 -> fc6_target
I0829 16:15:03.781857 16769 net.cpp:122] Setting up slicer_fc6
I0829 16:15:03.781864 16769 net.cpp:129] Top shape: 256 4096 (1048576)
I0829 16:15:03.781870 16769 net.cpp:129] Top shape: 128 4096 (524288)
I0829 16:15:03.781875 16769 net.cpp:137] Memory required for data: 2846578176
I0829 16:15:03.781883 16769 layer_factory.hpp:77] Creating layer fc6_source/bn
I0829 16:15:03.781895 16769 net.cpp:84] Creating Layer fc6_source/bn
I0829 16:15:03.781903 16769 net.cpp:406] fc6_source/bn <- fc6_source
I0829 16:15:03.781909 16769 net.cpp:380] fc6_source/bn -> fc6_source/bn
I0829 16:15:03.782076 16769 net.cpp:122] Setting up fc6_source/bn
I0829 16:15:03.782084 16769 net.cpp:129] Top shape: 256 4096 (1048576)
I0829 16:15:03.782089 16769 net.cpp:137] Memory required for data: 2850772480
I0829 16:15:03.782099 16769 layer_factory.hpp:77] Creating layer fc6_target/bn
I0829 16:15:03.782109 16769 net.cpp:84] Creating Layer fc6_target/bn
I0829 16:15:03.782114 16769 net.cpp:406] fc6_target/bn <- fc6_target
I0829 16:15:03.782127 16769 net.cpp:380] fc6_target/bn -> fc6_target/bn
I0829 16:15:03.782292 16769 net.cpp:122] Setting up fc6_target/bn
I0829 16:15:03.782300 16769 net.cpp:129] Top shape: 128 4096 (524288)
I0829 16:15:03.782305 16769 net.cpp:137] Memory required for data: 2852869632
I0829 16:15:03.782321 16769 layer_factory.hpp:77] Creating layer concat_wbn_6
I0829 16:15:03.782331 16769 net.cpp:84] Creating Layer concat_wbn_6
I0829 16:15:03.782336 16769 net.cpp:406] concat_wbn_6 <- fc6_source/bn
I0829 16:15:03.782344 16769 net.cpp:406] concat_wbn_6 <- fc6_target/bn
I0829 16:15:03.782353 16769 net.cpp:380] concat_wbn_6 -> fc6/bn
I0829 16:15:03.782377 16769 net.cpp:122] Setting up concat_wbn_6
I0829 16:15:03.782384 16769 net.cpp:129] Top shape: 384 4096 (1572864)
I0829 16:15:03.782388 16769 net.cpp:137] Memory required for data: 2859161088
I0829 16:15:03.782393 16769 layer_factory.hpp:77] Creating layer fc6_scale
I0829 16:15:03.782405 16769 net.cpp:84] Creating Layer fc6_scale
I0829 16:15:03.782413 16769 net.cpp:406] fc6_scale <- fc6/bn
I0829 16:15:03.782421 16769 net.cpp:380] fc6_scale -> fc6/scale
I0829 16:15:03.782465 16769 layer_factory.hpp:77] Creating layer fc6_scale
I0829 16:15:03.782572 16769 net.cpp:122] Setting up fc6_scale
I0829 16:15:03.782582 16769 net.cpp:129] Top shape: 384 4096 (1572864)
I0829 16:15:03.782585 16769 net.cpp:137] Memory required for data: 2865452544
I0829 16:15:03.782595 16769 layer_factory.hpp:77] Creating layer relu6
I0829 16:15:03.782605 16769 net.cpp:84] Creating Layer relu6
I0829 16:15:03.782611 16769 net.cpp:406] relu6 <- fc6/scale
I0829 16:15:03.782619 16769 net.cpp:380] relu6 -> fc6/relu
I0829 16:15:03.782851 16769 net.cpp:122] Setting up relu6
I0829 16:15:03.782862 16769 net.cpp:129] Top shape: 384 4096 (1572864)
I0829 16:15:03.782867 16769 net.cpp:137] Memory required for data: 2871744000
I0829 16:15:03.782872 16769 layer_factory.hpp:77] Creating layer drop6
I0829 16:15:03.782883 16769 net.cpp:84] Creating Layer drop6
I0829 16:15:03.782891 16769 net.cpp:406] drop6 <- fc6/relu
I0829 16:15:03.782897 16769 net.cpp:380] drop6 -> fc6/out
I0829 16:15:03.782943 16769 net.cpp:122] Setting up drop6
I0829 16:15:03.782950 16769 net.cpp:129] Top shape: 384 4096 (1572864)
I0829 16:15:03.782955 16769 net.cpp:137] Memory required for data: 2878035456
I0829 16:15:03.782960 16769 layer_factory.hpp:77] Creating layer fc7
I0829 16:15:03.782972 16769 net.cpp:84] Creating Layer fc7
I0829 16:15:03.782980 16769 net.cpp:406] fc7 <- fc6/out
I0829 16:15:03.782989 16769 net.cpp:380] fc7 -> fc7
I0829 16:15:03.907415 16769 net.cpp:122] Setting up fc7
I0829 16:15:03.907443 16769 net.cpp:129] Top shape: 384 4096 (1572864)
I0829 16:15:03.907475 16769 net.cpp:137] Memory required for data: 2884326912
I0829 16:15:03.907490 16769 layer_factory.hpp:77] Creating layer slicer_fc7
I0829 16:15:03.907507 16769 net.cpp:84] Creating Layer slicer_fc7
I0829 16:15:03.907516 16769 net.cpp:406] slicer_fc7 <- fc7
I0829 16:15:03.907527 16769 net.cpp:380] slicer_fc7 -> fc7_source
I0829 16:15:03.907543 16769 net.cpp:380] slicer_fc7 -> fc7_target
I0829 16:15:03.907591 16769 net.cpp:122] Setting up slicer_fc7
I0829 16:15:03.907599 16769 net.cpp:129] Top shape: 256 4096 (1048576)
I0829 16:15:03.907605 16769 net.cpp:129] Top shape: 128 4096 (524288)
I0829 16:15:03.907610 16769 net.cpp:137] Memory required for data: 2890618368
I0829 16:15:03.907618 16769 layer_factory.hpp:77] Creating layer fc7_source/bn
I0829 16:15:03.907630 16769 net.cpp:84] Creating Layer fc7_source/bn
I0829 16:15:03.907636 16769 net.cpp:406] fc7_source/bn <- fc7_source
I0829 16:15:03.907646 16769 net.cpp:380] fc7_source/bn -> fc7_source/bn
I0829 16:15:03.907841 16769 net.cpp:122] Setting up fc7_source/bn
I0829 16:15:03.907850 16769 net.cpp:129] Top shape: 256 4096 (1048576)
I0829 16:15:03.907856 16769 net.cpp:137] Memory required for data: 2894812672
I0829 16:15:03.907866 16769 layer_factory.hpp:77] Creating layer fc7_target/bn
I0829 16:15:03.907882 16769 net.cpp:84] Creating Layer fc7_target/bn
I0829 16:15:03.907891 16769 net.cpp:406] fc7_target/bn <- fc7_target
I0829 16:15:03.907901 16769 net.cpp:380] fc7_target/bn -> fc7_target/bn
I0829 16:15:03.908062 16769 net.cpp:122] Setting up fc7_target/bn
I0829 16:15:03.908071 16769 net.cpp:129] Top shape: 128 4096 (524288)
I0829 16:15:03.908076 16769 net.cpp:137] Memory required for data: 2896909824
I0829 16:15:03.908087 16769 layer_factory.hpp:77] Creating layer concat_wbn_7
I0829 16:15:03.908097 16769 net.cpp:84] Creating Layer concat_wbn_7
I0829 16:15:03.908102 16769 net.cpp:406] concat_wbn_7 <- fc7_source/bn
I0829 16:15:03.908108 16769 net.cpp:406] concat_wbn_7 <- fc7_target/bn
I0829 16:15:03.908121 16769 net.cpp:380] concat_wbn_7 -> fc7/bn
I0829 16:15:03.908151 16769 net.cpp:122] Setting up concat_wbn_7
I0829 16:15:03.908159 16769 net.cpp:129] Top shape: 384 4096 (1572864)
I0829 16:15:03.908164 16769 net.cpp:137] Memory required for data: 2903201280
I0829 16:15:03.908169 16769 layer_factory.hpp:77] Creating layer fc7_scale
I0829 16:15:03.908181 16769 net.cpp:84] Creating Layer fc7_scale
I0829 16:15:03.908188 16769 net.cpp:406] fc7_scale <- fc7/bn
I0829 16:15:03.908198 16769 net.cpp:380] fc7_scale -> fc7/scale
I0829 16:15:03.908243 16769 layer_factory.hpp:77] Creating layer fc7_scale
I0829 16:15:03.908346 16769 net.cpp:122] Setting up fc7_scale
I0829 16:15:03.908354 16769 net.cpp:129] Top shape: 384 4096 (1572864)
I0829 16:15:03.908360 16769 net.cpp:137] Memory required for data: 2909492736
I0829 16:15:03.908368 16769 layer_factory.hpp:77] Creating layer relu7
I0829 16:15:03.908380 16769 net.cpp:84] Creating Layer relu7
I0829 16:15:03.908386 16769 net.cpp:406] relu7 <- fc7/scale
I0829 16:15:03.908396 16769 net.cpp:380] relu7 -> fc7/relu
I0829 16:15:03.909088 16769 net.cpp:122] Setting up relu7
I0829 16:15:03.909101 16769 net.cpp:129] Top shape: 384 4096 (1572864)
I0829 16:15:03.909106 16769 net.cpp:137] Memory required for data: 2915784192
I0829 16:15:03.909111 16769 layer_factory.hpp:77] Creating layer drop7
I0829 16:15:03.909124 16769 net.cpp:84] Creating Layer drop7
I0829 16:15:03.909129 16769 net.cpp:406] drop7 <- fc7/relu
I0829 16:15:03.909142 16769 net.cpp:380] drop7 -> fc7/out
I0829 16:15:03.909188 16769 net.cpp:122] Setting up drop7
I0829 16:15:03.909196 16769 net.cpp:129] Top shape: 384 4096 (1572864)
I0829 16:15:03.909200 16769 net.cpp:137] Memory required for data: 2922075648
I0829 16:15:03.909207 16769 layer_factory.hpp:77] Creating layer office-fc8
I0829 16:15:03.909221 16769 net.cpp:84] Creating Layer office-fc8
I0829 16:15:03.909229 16769 net.cpp:406] office-fc8 <- fc7/out
I0829 16:15:03.909238 16769 net.cpp:380] office-fc8 -> fc8
I0829 16:15:03.910174 16769 net.cpp:122] Setting up office-fc8
I0829 16:15:03.910192 16769 net.cpp:129] Top shape: 384 31 (11904)
I0829 16:15:03.910197 16769 net.cpp:137] Memory required for data: 2922123264
I0829 16:15:03.910207 16769 layer_factory.hpp:77] Creating layer slicer_fc8
I0829 16:15:03.910219 16769 net.cpp:84] Creating Layer slicer_fc8
I0829 16:15:03.910228 16769 net.cpp:406] slicer_fc8 <- fc8
I0829 16:15:03.910238 16769 net.cpp:380] slicer_fc8 -> fc8_source
I0829 16:15:03.910250 16769 net.cpp:380] slicer_fc8 -> fc8_target
I0829 16:15:03.910292 16769 net.cpp:122] Setting up slicer_fc8
I0829 16:15:03.910300 16769 net.cpp:129] Top shape: 256 31 (7936)
I0829 16:15:03.910305 16769 net.cpp:129] Top shape: 128 31 (3968)
I0829 16:15:03.910310 16769 net.cpp:137] Memory required for data: 2922170880
I0829 16:15:03.910315 16769 layer_factory.hpp:77] Creating layer fc8_source/bn
I0829 16:15:03.910326 16769 net.cpp:84] Creating Layer fc8_source/bn
I0829 16:15:03.910334 16769 net.cpp:406] fc8_source/bn <- fc8_source
I0829 16:15:03.910343 16769 net.cpp:380] fc8_source/bn -> fc8_source/bn
I0829 16:15:03.910511 16769 net.cpp:122] Setting up fc8_source/bn
I0829 16:15:03.910518 16769 net.cpp:129] Top shape: 256 31 (7936)
I0829 16:15:03.910522 16769 net.cpp:137] Memory required for data: 2922202624
I0829 16:15:03.910540 16769 layer_factory.hpp:77] Creating layer fc8_target/bn
I0829 16:15:03.910549 16769 net.cpp:84] Creating Layer fc8_target/bn
I0829 16:15:03.910554 16769 net.cpp:406] fc8_target/bn <- fc8_target
I0829 16:15:03.910570 16769 net.cpp:380] fc8_target/bn -> fc8_target/bn
I0829 16:15:03.910743 16769 net.cpp:122] Setting up fc8_target/bn
I0829 16:15:03.910753 16769 net.cpp:129] Top shape: 128 31 (3968)
I0829 16:15:03.910756 16769 net.cpp:137] Memory required for data: 2922218496
I0829 16:15:03.910768 16769 layer_factory.hpp:77] Creating layer concat_wbn_8
I0829 16:15:03.910778 16769 net.cpp:84] Creating Layer concat_wbn_8
I0829 16:15:03.910782 16769 net.cpp:406] concat_wbn_8 <- fc8_source/bn
I0829 16:15:03.910789 16769 net.cpp:406] concat_wbn_8 <- fc8_target/bn
I0829 16:15:03.910801 16769 net.cpp:380] concat_wbn_8 -> fc8/bn
I0829 16:15:03.910823 16769 net.cpp:122] Setting up concat_wbn_8
I0829 16:15:03.910831 16769 net.cpp:129] Top shape: 384 31 (11904)
I0829 16:15:03.910835 16769 net.cpp:137] Memory required for data: 2922266112
I0829 16:15:03.910841 16769 layer_factory.hpp:77] Creating layer fc8_scale
I0829 16:15:03.910852 16769 net.cpp:84] Creating Layer fc8_scale
I0829 16:15:03.910859 16769 net.cpp:406] fc8_scale <- fc8/bn
I0829 16:15:03.910871 16769 net.cpp:380] fc8_scale -> fc8/scale
I0829 16:15:03.910918 16769 layer_factory.hpp:77] Creating layer fc8_scale
I0829 16:15:03.911023 16769 net.cpp:122] Setting up fc8_scale
I0829 16:15:03.911032 16769 net.cpp:129] Top shape: 384 31 (11904)
I0829 16:15:03.911036 16769 net.cpp:137] Memory required for data: 2922313728
I0829 16:15:03.911048 16769 layer_factory.hpp:77] Creating layer slicer_scorer
I0829 16:15:03.911059 16769 net.cpp:84] Creating Layer slicer_scorer
I0829 16:15:03.911065 16769 net.cpp:406] slicer_scorer <- fc8/scale
I0829 16:15:03.911073 16769 net.cpp:380] slicer_scorer -> score_source
I0829 16:15:03.911088 16769 net.cpp:380] slicer_scorer -> score_target
I0829 16:15:03.911125 16769 net.cpp:122] Setting up slicer_scorer
I0829 16:15:03.911134 16769 net.cpp:129] Top shape: 256 31 (7936)
I0829 16:15:03.911137 16769 net.cpp:129] Top shape: 128 31 (3968)
I0829 16:15:03.911142 16769 net.cpp:137] Memory required for data: 2922361344
I0829 16:15:03.911147 16769 layer_factory.hpp:77] Creating layer score_source_slicer_scorer_0_split
I0829 16:15:03.911156 16769 net.cpp:84] Creating Layer score_source_slicer_scorer_0_split
I0829 16:15:03.911164 16769 net.cpp:406] score_source_slicer_scorer_0_split <- score_source
I0829 16:15:03.911176 16769 net.cpp:380] score_source_slicer_scorer_0_split -> score_source_slicer_scorer_0_split_0
I0829 16:15:03.911186 16769 net.cpp:380] score_source_slicer_scorer_0_split -> score_source_slicer_scorer_0_split_1
I0829 16:15:03.911221 16769 net.cpp:122] Setting up score_source_slicer_scorer_0_split
I0829 16:15:03.911236 16769 net.cpp:129] Top shape: 256 31 (7936)
I0829 16:15:03.911242 16769 net.cpp:129] Top shape: 256 31 (7936)
I0829 16:15:03.911247 16769 net.cpp:137] Memory required for data: 2922424832
I0829 16:15:03.911252 16769 layer_factory.hpp:77] Creating layer loss
I0829 16:15:03.911260 16769 net.cpp:84] Creating Layer loss
I0829 16:15:03.911270 16769 net.cpp:406] loss <- score_source_slicer_scorer_0_split_0
I0829 16:15:03.911279 16769 net.cpp:406] loss <- label_label_0_split_0
I0829 16:15:03.911288 16769 net.cpp:380] loss -> loss
…
I0829 16:15:04.340293 16769 net.cpp:294] The NetState phase (1) differed from the phase (0) specified by a rule in layer silence_target
I0829 16:15:04.340468 16769 net.cpp:51] Initializing net from parameters: 
name: "CaffeNet"
state {
  phase: TEST
}
layer {
  name: "data"
  type: "ImageData"
  top: "data"
  top: "label"
  include {
    phase: TEST
  }
  transform_param {
    mirror: false
    crop_size: 224
    mean_value: 104
    mean_value: 117
    mean_value: 123
  }
  image_data_param {
    source: "/home/alfa/Documents/msda/mywork/data/office/office_d.txt"
    batch_size: 1
    shuffle: false
    new_height: 256
    new_width: 256
    is_color: true
  }
}
layer {
  name: "conv1"
  type: "Convolution"
  bottom: "data"
  top: "conv1"
  param {
    lr_mult: 0
    decay_mult: 1
  }
  param {
    lr_mult: 0
    decay_mult: 0
  }
  convolution_param {
    num_output: 96
    kernel_size: 11
    stride: 4
    weight_filler {
      type: "gaussian"
      std: 0.01
    }
    bias_filler {
      type: "constant"
      value: 0
    }
  }
}
layer {
  name: "relu1"
  type: "ReLU"
  bottom: "conv1"
  top: "conv1"
}
layer {
  name: "pool1"
  type: "Pooling"
  bottom: "conv1"
  top: "pool1"
  pooling_param {
    pool: MAX
    kernel_size: 3
    stride: 2
  }
}
layer {
  name: "norm1"
  type: "LRN"
  bottom: "pool1"
  top: "norm1"
  lrn_param {
    local_size: 5
    alpha: 0.0001
    beta: 0.75
  }
}
layer {
  name: "conv2"
  type: "Convolution"
  bottom: "norm1"
  top: "conv2"
  param {
    lr_mult: 0
    decay_mult: 1
  }
  param {
    lr_mult: 0
    decay_mult: 0
  }
  convolution_param {
    num_output: 256
    pad: 2
    kernel_size: 5
    group: 2
    weight_filler {
      type: "gaussian"
      std: 0.01
    }
    bias_filler {
      type: "constant"
      value: 1
    }
  }
}
layer {
  name: "relu2"
  type: "ReLU"
  bottom: "conv2"
  top: "conv2"
}
layer {
  name: "pool2"
  type: "Pooling"
  bottom: "conv2"
  top: "pool2"
  pooling_param {
    pool: MAX
    kernel_size: 3
    stride: 2
  }
}
layer {
  name: "norm2"
  type: "LRN"
  bottom: "pool2"
  top: "norm2"
  lrn_param {
    local_size: 5
    alpha: 0.0001
    beta: 0.75
  }
}
layer {
  name: "conv3"
  type: "Convolution"
  bottom: "norm2"
  top: "conv3"
  param {
    lr_mult: 0
    decay_mult: 1
  }
  param {
    lr_mult: 0
    decay_mult: 0
  }
  convolution_param {
    num_output: 384
    pad: 1
    kernel_size: 3
    weight_filler {
      type: "gaussian"
      std: 0.01
    }
    bias_filler {
      type: "constant"
      value: 0
    }
  }
}
layer {
  name: "relu3"
  type: "ReLU"
  bottom: "conv3"
  top: "conv3"
}
layer {
  name: "conv4"
  type: "Convolution"
  bottom: "conv3"
  top: "conv4"
  param {
    lr_mult: 0
    decay_mult: 1
  }
  param {
    lr_mult: 0
    decay_mult: 0
  }
  convolution_param {
    num_output: 384
    pad: 1
    kernel_size: 3
    group: 2
    weight_filler {
      type: "gaussian"
      std: 0.01
    }
    bias_filler {
      type: "constant"
      value: 1
    }
  }
}
layer {
  name: "relu4"
  type: "ReLU"
  bottom: "conv4"
  top: "conv4"
}
layer {
  name: "conv5"
  type: "Convolution"
  bottom: "conv4"
  top: "conv5"
  param {
    lr_mult: 0
    decay_mult: 1
  }
  param {
    lr_mult: 0
    decay_mult: 0
  }
  convolution_param {
    num_output: 256
    pad: 1
    kernel_size: 3
    group: 2
    weight_filler {
      type: "gaussian"
      std: 0.01
    }
    bias_filler {
      type: "constant"
      value: 1
    }
  }
}
layer {
  name: "relu5"
  type: "ReLU"
  bottom: "conv5"
  top: "conv5"
}
layer {
  name: "pool5"
  type: "Pooling"
  bottom: "conv5"
  top: "pool5"
  pooling_param {
    pool: MAX
    kernel_size: 3
    stride: 2
  }
}
layer {
  name: "fc6"
  type: "InnerProduct"
  bottom: "pool5"
  top: "fc6"
  param {
    lr_mult: 1
    decay_mult: 1
  }
  param {
    lr_mult: 2
    decay_mult: 0
  }
  inner_product_param {
    num_output: 4096
    weight_filler {
      type: "gaussian"
      std: 0.005
    }
    bias_filler {
      type: "constant"
      value: 0
    }
  }
}
layer {
  name: "fc6_target/bn"
  type: "BatchNorm"
  bottom: "fc6"
  top: "fc6/bn"
  param {
    lr_mult: 0
    decay_mult: 0
  }
  param {
    lr_mult: 0
    decay_mult: 0
  }
  param {
    lr_mult: 0
    decay_mult: 0
  }
  include {
    phase: TEST
  }
  batch_norm_param {
    moving_average_fraction: 0.95
  }
}
layer {
  name: "fc6_scale"
  type: "Scale"
  bottom: "fc6/bn"
  top: "fc6/scale"
  param {
    lr_mult: 1
    decay_mult: 0
  }
  param {
    lr_mult: 1
    decay_mult: 0
  }
  scale_param {
    axis: 1
    num_axes: 1
    filler {
      type: "constant"
      value: 1
    }
    bias_term: true
    bias_filler {
      type: "constant"
      value: 0
    }
  }
}
layer {
  name: "relu6"
  type: "ReLU"
  bottom: "fc6/scale"
  top: "fc6/relu"
}
layer {
  name: "drop6"
  type: "Dropout"
  bottom: "fc6/relu"
  top: "fc6/out"
  dropout_param {
    dropout_ratio: 0.5
  }
}
layer {
  name: "fc7"
  type: "InnerProduct"
  bottom: "fc6/out"
  top: "fc7"
  param {
    lr_mult: 1
    decay_mult: 1
  }
  param {
    lr_mult: 2
    decay_mult: 0
  }
  inner_product_param {
    num_output: 4096
    weight_filler {
      type: "gaussian"
      std: 0.005
    }
    bias_filler {
      type: "constant"
      value: 0
    }
  }
}
layer {
  name: "fc7_target/bn"
  type: "BatchNorm"
  bottom: "fc7"
  top: "fc7/bn"
  param {
    lr_mult: 0
    decay_mult: 0
  }
  param {
    lr_mult: 0
    decay_mult: 0
  }
  param {
    lr_mult: 0
    decay_mult: 0
  }
  include {
    phase: TEST
  }
  batch_norm_param {
    moving_average_fraction: 0.95
  }
}
layer {
  name: "fc7_scale"
  type: "Scale"
  bottom: "fc7/bn"
  top: "fc7/scale"
  param {
    lr_mult: 1
    decay_mult: 0
  }
  param {
    lr_mult: 1
    decay_mult: 0
  }
  scale_param {
    axis: 1
    num_axes: 1
    filler {
      type: "constant"
      value: 1
    }
    bias_term: true
    bias_filler {
      type: "constant"
      value: 0
    }
  }
}
layer {
  name: "relu7"
  type: "ReLU"
  bottom: "fc7/scale"
  top: "fc7/relu"
}
layer {
  name: "drop7"
  type: "Dropout"
  bottom: "fc7/relu"
  top: "fc7/out"
  dropout_param {
    dropout_ratio: 0.5
  }
}
layer {
  name: "office-fc8"
  type: "InnerProduct"
  bottom: "fc7/out"
  top: "fc8"
  param {
    lr_mult: 10
    decay_mult: 1
  }
  param {
    lr_mult: 20
    decay_mult: 0
  }
  inner_product_param {
    num_output: 31
    weight_filler {
      type: "gaussian"
      std: 0.01
    }
    bias_filler {
      type: "constant"
      value: 0
    }
  }
}
layer {
  name: "fc8_target/bn"
  type: "BatchNorm"
  bottom: "fc8"
  top: "fc8/bn"
  param {
    lr_mult: 0
    decay_mult: 0
  }
  param {
    lr_mult: 0
    decay_mult: 0
  }
  param {
    lr_mult: 0
    decay_mult: 0
  }
  include {
    phase: TEST
  }
  batch_norm_param {
    moving_average_fraction: 0.95
  }
}
layer {
  name: "fc8_scale"
  type: "Scale"
  bottom: "fc8/bn"
  top: "fc8/scale"
  param {
    lr_mult: 1
    decay_mult: 0
  }
  param {
    lr_mult: 1
    decay_mult: 0
  }
  scale_param {
    axis: 1
    num_axes: 1
    filler {
      type: "constant"
      value: 1
    }
    bias_term: true
    bias_filler {
      type: "constant"
      value: 0
    }
  }
}
layer {
  name: "accuracy"
  type: "Accuracy"
  bottom: "fc8/scale"
  bottom: "label"
  top: "accuracy"
  include {
    phase: TEST
  }
}
I0829 16:15:04.340579 16769 layer_factory.hpp:77] Creating layer data
I0829 16:15:04.340597 16769 net.cpp:84] Creating Layer data
I0829 16:15:04.340605 16769 net.cpp:380] data -> data
I0829 16:15:04.340620 16769 net.cpp:380] data -> label
I0829 16:15:04.340631 16769 image_data_layer.cpp:38] Opening file /home/alfa/Documents/msda/mywork/data/office/office_d.txt
I0829 16:15:04.340886 16769 image_data_layer.cpp:63] A total of 498 images.
I0829 16:15:04.346032 16769 image_data_layer.cpp:90] output data size: 1,3,224,224
I0829 16:15:04.348662 16769 net.cpp:122] Setting up data
I0829 16:15:04.348680 16769 net.cpp:129] Top shape: 1 3 224 224 (150528)
I0829 16:15:04.348686 16769 net.cpp:129] Top shape: 1 (1)
I0829 16:15:04.348691 16769 net.cpp:137] Memory required for data: 602116
I0829 16:15:04.348698 16769 layer_factory.hpp:77] Creating layer conv1
I0829 16:15:04.348721 16769 net.cpp:84] Creating Layer conv1
I0829 16:15:04.348727 16769 net.cpp:406] conv1 <- data
I0829 16:15:04.348738 16769 net.cpp:380] conv1 -> conv1
I0829 16:15:04.350152 16769 net.cpp:122] Setting up conv1
I0829 16:15:04.350165 16769 net.cpp:129] Top shape: 1 96 54 54 (279936)
I0829 16:15:04.350170 16769 net.cpp:137] Memory required for data: 1721860
I0829 16:15:04.350185 16769 layer_factory.hpp:77] Creating layer relu1
I0829 16:15:04.350195 16769 net.cpp:84] Creating Layer relu1
I0829 16:15:04.350203 16769 net.cpp:406] relu1 <- conv1
I0829 16:15:04.350210 16769 net.cpp:367] relu1 -> conv1 (in-place)
I0829 16:15:04.350363 16769 net.cpp:122] Setting up relu1
I0829 16:15:04.350371 16769 net.cpp:129] Top shape: 1 96 54 54 (279936)
I0829 16:15:04.350378 16769 net.cpp:137] Memory required for data: 2841604
I0829 16:15:04.350383 16769 layer_factory.hpp:77] Creating layer pool1
I0829 16:15:04.350392 16769 net.cpp:84] Creating Layer pool1
I0829 16:15:04.350400 16769 net.cpp:406] pool1 <- conv1
I0829 16:15:04.350409 16769 net.cpp:380] pool1 -> pool1
I0829 16:15:04.350451 16769 net.cpp:122] Setting up pool1
I0829 16:15:04.350459 16769 net.cpp:129] Top shape: 1 96 27 27 (69984)
I0829 16:15:04.350463 16769 net.cpp:137] Memory required for data: 3121540
I0829 16:15:04.350482 16769 layer_factory.hpp:77] Creating layer norm1
I0829 16:15:04.350492 16769 net.cpp:84] Creating Layer norm1
I0829 16:15:04.350502 16769 net.cpp:406] norm1 <- pool1
I0829 16:15:04.350508 16769 net.cpp:380] norm1 -> norm1
I0829 16:15:04.351040 16769 net.cpp:122] Setting up norm1
I0829 16:15:04.351052 16769 net.cpp:129] Top shape: 1 96 27 27 (69984)
I0829 16:15:04.351058 16769 net.cpp:137] Memory required for data: 3401476
I0829 16:15:04.351063 16769 layer_factory.hpp:77] Creating layer conv2
I0829 16:15:04.351079 16769 net.cpp:84] Creating Layer conv2
I0829 16:15:04.351086 16769 net.cpp:406] conv2 <- norm1
I0829 16:15:04.351094 16769 net.cpp:380] conv2 -> conv2
I0829 16:15:04.354923 16769 net.cpp:122] Setting up conv2
I0829 16:15:04.354938 16769 net.cpp:129] Top shape: 1 256 27 27 (186624)
I0829 16:15:04.354943 16769 net.cpp:137] Memory required for data: 4147972
I0829 16:15:04.354954 16769 layer_factory.hpp:77] Creating layer relu2
I0829 16:15:04.354965 16769 net.cpp:84] Creating Layer relu2
I0829 16:15:04.354972 16769 net.cpp:406] relu2 <- conv2
I0829 16:15:04.354979 16769 net.cpp:367] relu2 -> conv2 (in-place)
I0829 16:15:04.355135 16769 net.cpp:122] Setting up relu2
I0829 16:15:04.355144 16769 net.cpp:129] Top shape: 1 256 27 27 (186624)
I0829 16:15:04.355149 16769 net.cpp:137] Memory required for data: 4894468
I0829 16:15:04.355154 16769 layer_factory.hpp:77] Creating layer pool2
I0829 16:15:04.355163 16769 net.cpp:84] Creating Layer pool2
I0829 16:15:04.355171 16769 net.cpp:406] pool2 <- conv2
I0829 16:15:04.355180 16769 net.cpp:380] pool2 -> pool2
I0829 16:15:04.355226 16769 net.cpp:122] Setting up pool2
I0829 16:15:04.355233 16769 net.cpp:129] Top shape: 1 256 13 13 (43264)
I0829 16:15:04.355237 16769 net.cpp:137] Memory required for data: 5067524
I0829 16:15:04.355243 16769 layer_factory.hpp:77] Creating layer norm2
I0829 16:15:04.355253 16769 net.cpp:84] Creating Layer norm2
I0829 16:15:04.355259 16769 net.cpp:406] norm2 <- pool2
I0829 16:15:04.355267 16769 net.cpp:380] norm2 -> norm2
I0829 16:15:04.355445 16769 net.cpp:122] Setting up norm2
I0829 16:15:04.355454 16769 net.cpp:129] Top shape: 1 256 13 13 (43264)
I0829 16:15:04.355458 16769 net.cpp:137] Memory required for data: 5240580
I0829 16:15:04.355464 16769 layer_factory.hpp:77] Creating layer conv3
I0829 16:15:04.355480 16769 net.cpp:84] Creating Layer conv3
I0829 16:15:04.355485 16769 net.cpp:406] conv3 <- norm2
I0829 16:15:04.355494 16769 net.cpp:380] conv3 -> conv3
I0829 16:15:04.364003 16769 net.cpp:122] Setting up conv3
I0829 16:15:04.364028 16769 net.cpp:129] Top shape: 1 384 13 13 (64896)
I0829 16:15:04.364032 16769 net.cpp:137] Memory required for data: 5500164
I0829 16:15:04.364049 16769 layer_factory.hpp:77] Creating layer relu3
I0829 16:15:04.364060 16769 net.cpp:84] Creating Layer relu3
I0829 16:15:04.364068 16769 net.cpp:406] relu3 <- conv3
I0829 16:15:04.364075 16769 net.cpp:367] relu3 -> conv3 (in-place)
I0829 16:15:04.364611 16769 net.cpp:122] Setting up relu3
I0829 16:15:04.364624 16769 net.cpp:129] Top shape: 1 384 13 13 (64896)
I0829 16:15:04.364629 16769 net.cpp:137] Memory required for data: 5759748
I0829 16:15:04.364635 16769 layer_factory.hpp:77] Creating layer conv4
I0829 16:15:04.364651 16769 net.cpp:84] Creating Layer conv4
I0829 16:15:04.364658 16769 net.cpp:406] conv4 <- conv3
I0829 16:15:04.364670 16769 net.cpp:380] conv4 -> conv4
I0829 16:15:04.372648 16769 net.cpp:122] Setting up conv4
I0829 16:15:04.372668 16769 net.cpp:129] Top shape: 1 384 13 13 (64896)
I0829 16:15:04.372673 16769 net.cpp:137] Memory required for data: 6019332
I0829 16:15:04.372684 16769 layer_factory.hpp:77] Creating layer relu4
I0829 16:15:04.372695 16769 net.cpp:84] Creating Layer relu4
I0829 16:15:04.372704 16769 net.cpp:406] relu4 <- conv4
I0829 16:15:04.372714 16769 net.cpp:367] relu4 -> conv4 (in-place)
I0829 16:15:04.372875 16769 net.cpp:122] Setting up relu4
I0829 16:15:04.372885 16769 net.cpp:129] Top shape: 1 384 13 13 (64896)
I0829 16:15:04.372889 16769 net.cpp:137] Memory required for data: 6278916
I0829 16:15:04.372910 16769 layer_factory.hpp:77] Creating layer conv5
I0829 16:15:04.372925 16769 net.cpp:84] Creating Layer conv5
I0829 16:15:04.372932 16769 net.cpp:406] conv5 <- conv4
I0829 16:15:04.372941 16769 net.cpp:380] conv5 -> conv5
I0829 16:15:04.378875 16769 net.cpp:122] Setting up conv5
I0829 16:15:04.378895 16769 net.cpp:129] Top shape: 1 256 13 13 (43264)
I0829 16:15:04.378901 16769 net.cpp:137] Memory required for data: 6451972
I0829 16:15:04.378916 16769 layer_factory.hpp:77] Creating layer relu5
I0829 16:15:04.378926 16769 net.cpp:84] Creating Layer relu5
I0829 16:15:04.378933 16769 net.cpp:406] relu5 <- conv5
I0829 16:15:04.378942 16769 net.cpp:367] relu5 -> conv5 (in-place)
I0829 16:15:04.379191 16769 net.cpp:122] Setting up relu5
I0829 16:15:04.379200 16769 net.cpp:129] Top shape: 1 256 13 13 (43264)
I0829 16:15:04.379206 16769 net.cpp:137] Memory required for data: 6625028
I0829 16:15:04.379212 16769 layer_factory.hpp:77] Creating layer pool5
I0829 16:15:04.379223 16769 net.cpp:84] Creating Layer pool5
I0829 16:15:04.379228 16769 net.cpp:406] pool5 <- conv5
I0829 16:15:04.379237 16769 net.cpp:380] pool5 -> pool5
I0829 16:15:04.379289 16769 net.cpp:122] Setting up pool5
I0829 16:15:04.379297 16769 net.cpp:129] Top shape: 1 256 6 6 (9216)
I0829 16:15:04.379302 16769 net.cpp:137] Memory required for data: 6661892
I0829 16:15:04.379307 16769 layer_factory.hpp:77] Creating layer fc6
I0829 16:15:04.379323 16769 net.cpp:84] Creating Layer fc6
I0829 16:15:04.379328 16769 net.cpp:406] fc6 <- pool5
I0829 16:15:04.379336 16769 net.cpp:380] fc6 -> fc6
I0829 16:15:04.657230 16769 net.cpp:122] Setting up fc6
I0829 16:15:04.657256 16769 net.cpp:129] Top shape: 1 4096 (4096)
I0829 16:15:04.657260 16769 net.cpp:137] Memory required for data: 6678276
I0829 16:15:04.657271 16769 layer_factory.hpp:77] Creating layer fc6_target/bn
I0829 16:15:04.657286 16769 net.cpp:84] Creating Layer fc6_target/bn
I0829 16:15:04.657295 16769 net.cpp:406] fc6_target/bn <- fc6
I0829 16:15:04.657307 16769 net.cpp:380] fc6_target/bn -> fc6/bn
I0829 16:15:04.657485 16769 net.cpp:122] Setting up fc6_target/bn
I0829 16:15:04.657493 16769 net.cpp:129] Top shape: 1 4096 (4096)
I0829 16:15:04.657497 16769 net.cpp:137] Memory required for data: 6694660
I0829 16:15:04.657508 16769 layer_factory.hpp:77] Creating layer fc6_scale
I0829 16:15:04.657521 16769 net.cpp:84] Creating Layer fc6_scale
I0829 16:15:04.657526 16769 net.cpp:406] fc6_scale <- fc6/bn
I0829 16:15:04.657536 16769 net.cpp:380] fc6_scale -> fc6/scale
I0829 16:15:04.657575 16769 layer_factory.hpp:77] Creating layer fc6_scale
I0829 16:15:04.657680 16769 net.cpp:122] Setting up fc6_scale
I0829 16:15:04.657688 16769 net.cpp:129] Top shape: 1 4096 (4096)
I0829 16:15:04.657692 16769 net.cpp:137] Memory required for data: 6711044
I0829 16:15:04.657707 16769 layer_factory.hpp:77] Creating layer relu6
I0829 16:15:04.657717 16769 net.cpp:84] Creating Layer relu6
I0829 16:15:04.657724 16769 net.cpp:406] relu6 <- fc6/scale
I0829 16:15:04.657733 16769 net.cpp:380] relu6 -> fc6/relu
I0829 16:15:04.658444 16769 net.cpp:122] Setting up relu6
I0829 16:15:04.658457 16769 net.cpp:129] Top shape: 1 4096 (4096)
I0829 16:15:04.658462 16769 net.cpp:137] Memory required for data: 6727428
I0829 16:15:04.658466 16769 layer_factory.hpp:77] Creating layer drop6
I0829 16:15:04.658476 16769 net.cpp:84] Creating Layer drop6
I0829 16:15:04.658481 16769 net.cpp:406] drop6 <- fc6/relu
I0829 16:15:04.658490 16769 net.cpp:380] drop6 -> fc6/out
I0829 16:15:04.658535 16769 net.cpp:122] Setting up drop6
I0829 16:15:04.658545 16769 net.cpp:129] Top shape: 1 4096 (4096)
I0829 16:15:04.658550 16769 net.cpp:137] Memory required for data: 6743812
I0829 16:15:04.658556 16769 layer_factory.hpp:77] Creating layer fc7
I0829 16:15:04.658569 16769 net.cpp:84] Creating Layer fc7
I0829 16:15:04.658574 16769 net.cpp:406] fc7 <- fc6/out
I0829 16:15:04.658584 16769 net.cpp:380] fc7 -> fc7
I0829 16:15:04.787272 16769 net.cpp:122] Setting up fc7
I0829 16:15:04.787299 16769 net.cpp:129] Top shape: 1 4096 (4096)
I0829 16:15:04.787303 16769 net.cpp:137] Memory required for data: 6760196
I0829 16:15:04.787345 16769 layer_factory.hpp:77] Creating layer fc7_target/bn
I0829 16:15:04.787362 16769 net.cpp:84] Creating Layer fc7_target/bn
I0829 16:15:04.787371 16769 net.cpp:406] fc7_target/bn <- fc7
I0829 16:15:04.787384 16769 net.cpp:380] fc7_target/bn -> fc7/bn
I0829 16:15:04.787564 16769 net.cpp:122] Setting up fc7_target/bn
I0829 16:15:04.787573 16769 net.cpp:129] Top shape: 1 4096 (4096)
I0829 16:15:04.787577 16769 net.cpp:137] Memory required for data: 6776580
I0829 16:15:04.787587 16769 layer_factory.hpp:77] Creating layer fc7_scale
I0829 16:15:04.787600 16769 net.cpp:84] Creating Layer fc7_scale
I0829 16:15:04.787608 16769 net.cpp:406] fc7_scale <- fc7/bn
I0829 16:15:04.787617 16769 net.cpp:380] fc7_scale -> fc7/scale
I0829 16:15:04.787662 16769 layer_factory.hpp:77] Creating layer fc7_scale
I0829 16:15:04.787788 16769 net.cpp:122] Setting up fc7_scale
I0829 16:15:04.787798 16769 net.cpp:129] Top shape: 1 4096 (4096)
I0829 16:15:04.787803 16769 net.cpp:137] Memory required for data: 6792964
I0829 16:15:04.787813 16769 layer_factory.hpp:77] Creating layer relu7
I0829 16:15:04.787823 16769 net.cpp:84] Creating Layer relu7
I0829 16:15:04.787829 16769 net.cpp:406] relu7 <- fc7/scale
I0829 16:15:04.787838 16769 net.cpp:380] relu7 -> fc7/relu
I0829 16:15:04.788074 16769 net.cpp:122] Setting up relu7
I0829 16:15:04.788084 16769 net.cpp:129] Top shape: 1 4096 (4096)
I0829 16:15:04.788089 16769 net.cpp:137] Memory required for data: 6809348
I0829 16:15:04.788094 16769 layer_factory.hpp:77] Creating layer drop7
I0829 16:15:04.788105 16769 net.cpp:84] Creating Layer drop7
I0829 16:15:04.788112 16769 net.cpp:406] drop7 <- fc7/relu
I0829 16:15:04.788122 16769 net.cpp:380] drop7 -> fc7/out
I0829 16:15:04.788167 16769 net.cpp:122] Setting up drop7
I0829 16:15:04.788177 16769 net.cpp:129] Top shape: 1 4096 (4096)
I0829 16:15:04.788180 16769 net.cpp:137] Memory required for data: 6825732
I0829 16:15:04.788187 16769 layer_factory.hpp:77] Creating layer office-fc8
I0829 16:15:04.788198 16769 net.cpp:84] Creating Layer office-fc8
I0829 16:15:04.788206 16769 net.cpp:406] office-fc8 <- fc7/out
I0829 16:15:04.788216 16769 net.cpp:380] office-fc8 -> fc8
I0829 16:15:04.790067 16769 net.cpp:122] Setting up office-fc8
I0829 16:15:04.790081 16769 net.cpp:129] Top shape: 1 31 (31)
I0829 16:15:04.790086 16769 net.cpp:137] Memory required for data: 6825856
I0829 16:15:04.790096 16769 layer_factory.hpp:77] Creating layer fc8_target/bn
I0829 16:15:04.790108 16769 net.cpp:84] Creating Layer fc8_target/bn
I0829 16:15:04.790114 16769 net.cpp:406] fc8_target/bn <- fc8
I0829 16:15:04.790125 16769 net.cpp:380] fc8_target/bn -> fc8/bn
I0829 16:15:04.790305 16769 net.cpp:122] Setting up fc8_target/bn
I0829 16:15:04.790315 16769 net.cpp:129] Top shape: 1 31 (31)
I0829 16:15:04.790320 16769 net.cpp:137] Memory required for data: 6825980
I0829 16:15:04.790333 16769 layer_factory.hpp:77] Creating layer fc8_scale
I0829 16:15:04.790343 16769 net.cpp:84] Creating Layer fc8_scale
I0829 16:15:04.790354 16769 net.cpp:406] fc8_scale <- fc8/bn
I0829 16:15:04.790361 16769 net.cpp:380] fc8_scale -> fc8/scale
I0829 16:15:04.790402 16769 layer_factory.hpp:77] Creating layer fc8_scale
I0829 16:15:04.790504 16769 net.cpp:122] Setting up fc8_scale
I0829 16:15:04.790514 16769 net.cpp:129] Top shape: 1 31 (31)
I0829 16:15:04.790518 16769 net.cpp:137] Memory required for data: 6826104
I0829 16:15:04.790529 16769 layer_factory.hpp:77] Creating layer accuracy
I0829 16:15:04.790539 16769 net.cpp:84] Creating Layer accuracy
I0829 16:15:04.790546 16769 net.cpp:406] accuracy <- fc8/scale
I0829 16:15:04.790554 16769 net.cpp:406] accuracy <- label
I0829 16:15:04.790563 16769 net.cpp:380] accuracy -> accuracy
…
