…
    source: "/home/alfa/Documents/msda/mywork/data/office/office_w.txt"
    batch_size: 128
    shuffle: true
    new_height: 256
    new_width: 256
    is_color: true
  }
}
layer {
  name: "target_data"
  type: "ImageData"
  top: "t_data"
  top: "t_label"
  include {
    phase: TRAIN
  }
  transform_param {
    crop_size: 227
    mean_value: 104
    mean_value: 117
    mean_value: 123
  }
  image_data_param {
    source: "/home/alfa/Documents/msda/mywork/data/office/office_d.txt"
    batch_size: 128
    shuffle: true
    new_height: 256
    new_width: 256
    is_color: true
  }
}
layer {
  name: "data"
  type: "Concat"
  bottom: "s1_data"
  bottom: "s2_data"
  bottom: "t_data"
  top: "data"
  include {
    phase: TRAIN
  }
  concat_param {
    concat_dim: 0
  }
}
layer {
  name: "label"
  type: "Concat"
  bottom: "s1_label"
  bottom: "s2_label"
  top: "label"
  include {
    phase: TRAIN
  }
  concat_param {
    concat_dim: 0
  }
}
layer {
  name: "conv1"
  type: "Convolution"
  bottom: "data"
  top: "conv1"
  param {
    lr_mult: 0
    decay_mult: 1
  }
  param {
    lr_mult: 0
    decay_mult: 0
  }
  convolution_param {
    num_output: 96
    kernel_size: 11
    stride: 4
    weight_filler {
      type: "gaussian"
      std: 0.01
    }
    bias_filler {
      type: "constant"
      value: 0
    }
  }
}
layer {
  name: "relu1"
  type: "ReLU"
  bottom: "conv1"
  top: "conv1"
}
layer {
  name: "pool1"
  type: "Pooling"
  bottom: "conv1"
  top: "pool1"
  pooling_param {
    pool: MAX
    kernel_size: 3
    stride: 2
  }
}
layer {
  name: "norm1"
  type: "LRN"
  bottom: "pool1"
  top: "norm1"
  lrn_param {
    local_size: 5
    alpha: 0.0001
    beta: 0.75
  }
}
layer {
  name: "conv2"
  type: "Convolution"
  bottom: "norm1"
  top: "conv2"
  param {
    lr_mult: 0
    decay_mult: 1
  }
  param {
    lr_mult: 0
    decay_mult: 0
  }
  convolution_param {
    num_output: 256
    pad: 2
    kernel_size: 5
    group: 2
    weight_filler {
      type: "gaussian"
      std: 0.01
    }
    bias_filler {
      type: "constant"
      value: 1
    }
  }
}
layer {
  name: "relu2"
  type: "ReLU"
  bottom: "conv2"
  top: "conv2"
}
layer {
  name: "pool2"
  type: "Pooling"
  bottom: "conv2"
  top: "pool2"
  pooling_param {
    pool: MAX
    kernel_size: 3
    stride: 2
  }
}
layer {
  name: "norm2"
  type: "LRN"
  bottom: "pool2"
  top: "norm2"
  lrn_param {
    local_size: 5
    alpha: 0.0001
    beta: 0.75
  }
}
layer {
  name: "conv3"
  type: "Convolution"
  bottom: "norm2"
  top: "conv3"
  param {
    lr_mult: 0
    decay_mult: 1
  }
  param {
    lr_mult: 0
    decay_mult: 0
  }
  convolution_param {
    num_output: 384
    pad: 1
    kernel_size: 3
    weight_filler {
      type: "gaussian"
      std: 0.01
    }
    bias_filler {
      type: "constant"
      value: 0
    }
  }
}
layer {
  name: "relu3"
  type: "ReLU"
  bottom: "conv3"
  top: "conv3"
}
layer {
  name: "conv4"
  type: "Convolution"
  bottom: "conv3"
  top: "conv4"
  param {
    lr_mult: 0
    decay_mult: 1
  }
  param {
    lr_mult: 0
    decay_mult: 0
  }
  convolution_param {
    num_output: 384
    pad: 1
    kernel_size: 3
    group: 2
    weight_filler {
      type: "gaussian"
      std: 0.01
    }
    bias_filler {
      type: "constant"
      value: 1
    }
  }
}
layer {
  name: "relu4"
  type: "ReLU"
  bottom: "conv4"
  top: "conv4"
}
layer {
  name: "conv5"
  type: "Convolution"
  bottom: "conv4"
  top: "conv5"
  param {
    lr_mult: 0
    decay_mult: 1
  }
  param {
    lr_mult: 0
    decay_mult: 0
  }
  convolution_param {
    num_output: 256
    pad: 1
    kernel_size: 3
    group: 2
    weight_filler {
      type: "gaussian"
      std: 0.01
    }
    bias_filler {
      type: "constant"
      value: 1
    }
  }
}
layer {
  name: "relu5"
  type: "ReLU"
  bottom: "conv5"
  top: "conv5"
}
layer {
  name: "pool5"
  type: "Pooling"
  bottom: "conv5"
  top: "pool5"
  pooling_param {
    pool: MAX
    kernel_size: 3
    stride: 2
  }
}
layer {
  name: "fc6"
  type: "InnerProduct"
  bottom: "pool5"
  top: "fc6"
  param {
    lr_mult: 1
    decay_mult: 1
  }
  param {
    lr_mult: 2
    decay_mult: 0
  }
  inner_product_param {
    num_output: 4096
    weight_filler {
      type: "gaussian"
      std: 0.005
    }
    bias_filler {
      type: "constant"
      value: 0
    }
  }
}
layer {
  name: "slicer_fc6"
  type: "Slice"
  bottom: "fc6"
  top: "fc6_source"
  top: "fc6_target"
  include {
    phase: TRAIN
  }
  slice_param {
    slice_point: 256
    axis: 0
  }
}
layer {
  name: "fc6_source/bn"
  type: "BatchNorm"
  bottom: "fc6_source"
  top: "fc6_source/bn"
  param {
    lr_mult: 0
    decay_mult: 0
  }
  param {
    lr_mult: 0
    decay_mult: 0
  }
  param {
    lr_mult: 0
    decay_mult: 0
  }
  include {
    phase: TRAIN
  }
  batch_norm_param {
    moving_average_fraction: 0.95
  }
}
layer {
  name: "fc6_target/bn"
  type: "BatchNorm"
  bottom: "fc6_target"
  top: "fc6_target/bn"
  param {
    lr_mult: 0
    decay_mult: 0
  }
  param {
    lr_mult: 0
    decay_mult: 0
  }
  param {
    lr_mult: 0
    decay_mult: 0
  }
  include {
    phase: TRAIN
  }
  batch_norm_param {
    moving_average_fraction: 0.95
  }
}
layer {
  name: "concat_wbn_6"
  type: "Concat"
  bottom: "fc6_source/bn"
  bottom: "fc6_target/bn"
  top: "fc6/bn"
  include {
    phase: TRAIN
  }
  concat_param {
    axis: 0
  }
}
layer {
  name: "fc6_scale"
  type: "Scale"
  bottom: "fc6/bn"
  top: "fc6/scale"
  param {
    lr_mult: 1
    decay_mult: 0
  }
  param {
    lr_mult: 1
    decay_mult: 0
  }
  scale_param {
    axis: 1
    num_axes: 1
    filler {
      type: "constant"
      value: 1
    }
    bias_term: true
    bias_filler {
      type: "constant"
      value: 0
    }
  }
}
layer {
  name: "relu6"
  type: "ReLU"
  bottom: "fc6/scale"
  top: "fc6/relu"
}
layer {
  name: "drop6"
  type: "Dropout"
  bottom: "fc6/relu"
  top: "fc6/out"
  dropout_param {
    dropout_ratio: 0.5
  }
}
layer {
  name: "fc7"
  type: "InnerProduct"
  bottom: "fc6/out"
  top: "fc7"
  param {
    lr_mult: 1
    decay_mult: 1
  }
  param {
    lr_mult: 2
    decay_mult: 0
  }
  inner_product_param {
    num_output: 4096
    weight_filler {
      type: "gaussian"
      std: 0.005
    }
    bias_filler {
      type: "constant"
      value: 0
    }
  }
}
layer {
  name: "slicer_fc7"
  type: "Slice"
  bottom: "fc7"
  top: "fc7_source"
  top: "fc7_target"
  include {
    phase: TRAIN
  }
  slice_param {
    slice_point: 256
    axis: 0
  }
}
layer {
  name: "fc7_source/bn"
  type: "BatchNorm"
  bottom: "fc7_source"
  top: "fc7_source/bn"
  param {
    lr_mult: 0
    decay_mult: 0
  }
  param {
    lr_mult: 0
    decay_mult: 0
  }
  param {
    lr_mult: 0
    decay_mult: 0
  }
  include {
    phase: TRAIN
  }
  batch_norm_param {
    moving_average_fraction: 0.95
  }
}
layer {
  name: "fc7_target/bn"
  type: "BatchNorm"
  bottom: "fc7_target"
  top: "fc7_target/bn"
  param {
    lr_mult: 0
    decay_mult: 0
  }
  param {
    lr_mult: 0
    decay_mult: 0
  }
  param {
    lr_mult: 0
    decay_mult: 0
  }
  include {
    phase: TRAIN
  }
  batch_norm_param {
    moving_average_fraction: 0.95
  }
}
layer {
  name: "concat_wbn_7"
  type: "Concat"
  bottom: "fc7_source/bn"
  bottom: "fc7_target/bn"
  top: "fc7/bn"
  include {
    phase: TRAIN
  }
  concat_param {
    axis: 0
  }
}
layer {
  name: "fc7_scale"
  type: "Scale"
  bottom: "fc7/bn"
  top: "fc7/scale"
  param {
    lr_mult: 1
    decay_mult: 0
  }
  param {
    lr_mult: 1
    decay_mult: 0
  }
  scale_param {
    axis: 1
    num_axes: 1
    filler {
      type: "constant"
      value: 1
    }
    bias_term: true
    bias_filler {
      type: "constant"
      value: 0
    }
  }
}
layer {
  name: "relu7"
  type: "ReLU"
  bottom: "fc7/scale"
  top: "fc7/relu"
}
layer {
  name: "drop7"
  type: "Dropout"
  bottom: "fc7/relu"
  top: "fc7/out"
  dropout_param {
    dropout_ratio: 0.5
  }
}
layer {
  name: "office-fc8"
  type: "InnerProduct"
  bottom: "fc7/out"
  top: "fc8"
  param {
    lr_mult: 10
    decay_mult: 1
  }
  param {
    lr_mult: 20
    decay_mult: 0
  }
  inner_product_param {
    num_output: 31
    weight_filler {
      type: "gaussian"
      std: 0.01
    }
    bias_filler {
      type: "constant"
      value: 0
    }
  }
}
layer {
  name: "slicer_fc8"
  type: "Slice"
  bottom: "fc8"
  top: "fc8_source"
  top: "fc8_target"
  include {
    phase: TRAIN
  }
  slice_param {
    slice_point: 256
    axis: 0
  }
}
layer {
  name: "fc8_source/bn"
  type: "BatchNorm"
  bottom: "fc8_source"
  top: "fc8_source/bn"
  param {
    lr_mult: 0
    decay_mult: 0
  }
  param {
    lr_mult: 0
    decay_mult: 0
  }
  param {
    lr_mult: 0
    decay_mult: 0
  }
  include {
    phase: TRAIN
  }
  batch_norm_param {
    moving_average_fraction: 0.95
  }
}
layer {
  name: "fc8_target/bn"
  type: "BatchNorm"
  bottom: "fc8_target"
  top: "fc8_target/bn"
  param {
    lr_mult: 0
    decay_mult: 0
  }
  param {
    lr_mult: 0
    decay_mult: 0
  }
  param {
    lr_mult: 0
    decay_mult: 0
  }
  include {
    phase: TRAIN
  }
  batch_norm_param {
    moving_average_fraction: 0.95
  }
}
layer {
  name: "concat_wbn_8"
  type: "Concat"
  bottom: "fc8_source/bn"
  bottom: "fc8_target/bn"
  top: "fc8/bn"
  include {
    phase: TRAIN
  }
  concat_param {
    axis: 0
  }
}
layer {
  name: "fc8_scale"
  type: "Scale"
  bottom: "fc8/bn"
  top: "fc8/scale"
  param {
    lr_mult: 1
    decay_mult: 0
  }
  param {
    lr_mult: 1
    decay_mult: 0
  }
  scale_param {
    axis: 1
    num_axes: 1
    filler {
      type: "constant"
      value: 1
    }
    bias_term: true
    bias_filler {
      type: "constant"
      value: 0
    }
  }
}
layer {
  name: "slicer_scorer"
  type: "Slice"
  bottom: "fc8/scale"
  top: "score_source"
  top: "score_target"
  include {
    phase: TRAIN
  }
  slice_param {
    slice_point: 256
    axis: 0
  }
}
layer {
  name: "loss"
  type: "SoftmaxWithLoss"
  bottom: "score_source"
  bottom: "label"
  top: "loss"
  loss_weight: 1
  include {
    phase: TRAIN
  }
}
layer {
  name: "entropy"
  type: "EntropyLoss"
  bottom: "score_target"
  top: "entropy"
  loss_weight: 0.4
  include {
    phase: TRAIN
  }
}
layer {
  name: "accuracy"
  type: "Accuracy"
  bottom: "score_source"
  bottom: "label"
  top: "accuracy"
  include {
    phase: TRAIN
  }
}
layer {
  name: "silence_target"
  type: "Silence"
  bottom: "t_label"
  include {
    phase: TRAIN
  }
}
I0830 17:52:18.647106 18689 layer_factory.hpp:77] Creating layer s1_data
I0830 17:52:18.647133 18689 net.cpp:84] Creating Layer s1_data
I0830 17:52:18.647140 18689 net.cpp:380] s1_data -> s1_data
I0830 17:52:18.647159 18689 net.cpp:380] s1_data -> s1_label
I0830 17:52:18.647466 18689 image_data_layer.cpp:38] Opening file /home/alfa/Documents/msda/mywork/data/office/office_a.txt
I0830 17:52:18.648886 18689 image_data_layer.cpp:53] Shuffling data
I0830 17:52:18.649365 18689 image_data_layer.cpp:63] A total of 2817 images.
I0830 17:52:18.655612 18689 image_data_layer.cpp:90] output data size: 128,3,227,227
I0830 17:52:18.780688 18689 net.cpp:122] Setting up s1_data
I0830 17:52:18.780716 18689 net.cpp:129] Top shape: 128 3 227 227 (19787136)
I0830 17:52:18.780725 18689 net.cpp:129] Top shape: 128 (128)
I0830 17:52:18.780727 18689 net.cpp:137] Memory required for data: 79149056
I0830 17:52:18.780735 18689 layer_factory.hpp:77] Creating layer s2_data
I0830 17:52:18.780756 18689 net.cpp:84] Creating Layer s2_data
I0830 17:52:18.780764 18689 net.cpp:380] s2_data -> s2_data
I0830 17:52:18.780777 18689 net.cpp:380] s2_data -> s2_label
I0830 17:52:18.780788 18689 image_data_layer.cpp:38] Opening file /home/alfa/Documents/msda/mywork/data/office/office_w.txt
I0830 17:52:18.781189 18689 image_data_layer.cpp:53] Shuffling data
I0830 17:52:18.781322 18689 image_data_layer.cpp:63] A total of 795 images.
I0830 17:52:18.783691 18689 image_data_layer.cpp:90] output data size: 128,3,227,227
I0830 17:52:18.908373 18689 net.cpp:122] Setting up s2_data
I0830 17:52:18.908401 18689 net.cpp:129] Top shape: 128 3 227 227 (19787136)
I0830 17:52:18.908404 18689 net.cpp:129] Top shape: 128 (128)
I0830 17:52:18.908407 18689 net.cpp:137] Memory required for data: 158298112
I0830 17:52:18.908413 18689 layer_factory.hpp:77] Creating layer target_data
I0830 17:52:18.908437 18689 net.cpp:84] Creating Layer target_data
I0830 17:52:18.908445 18689 net.cpp:380] target_data -> t_data
I0830 17:52:18.908457 18689 net.cpp:380] target_data -> t_label
I0830 17:52:18.908470 18689 image_data_layer.cpp:38] Opening file /home/alfa/Documents/msda/mywork/data/office/office_d.txt
I0830 17:52:18.908692 18689 image_data_layer.cpp:53] Shuffling data
I0830 17:52:18.908776 18689 image_data_layer.cpp:63] A total of 498 images.
I0830 17:52:18.913902 18689 image_data_layer.cpp:90] output data size: 128,3,227,227
I0830 17:52:19.039116 18689 net.cpp:122] Setting up target_data
I0830 17:52:19.039141 18689 net.cpp:129] Top shape: 128 3 227 227 (19787136)
I0830 17:52:19.039149 18689 net.cpp:129] Top shape: 128 (128)
I0830 17:52:19.039152 18689 net.cpp:137] Memory required for data: 237447168
I0830 17:52:19.039157 18689 layer_factory.hpp:77] Creating layer data
I0830 17:52:19.039170 18689 net.cpp:84] Creating Layer data
I0830 17:52:19.039177 18689 net.cpp:406] data <- s1_data
I0830 17:52:19.039192 18689 net.cpp:406] data <- s2_data
I0830 17:52:19.039198 18689 net.cpp:406] data <- t_data
I0830 17:52:19.039206 18689 net.cpp:380] data -> data
I0830 17:52:19.039307 18689 net.cpp:122] Setting up data
I0830 17:52:19.039315 18689 net.cpp:129] Top shape: 384 3 227 227 (59361408)
I0830 17:52:19.039319 18689 net.cpp:137] Memory required for data: 474892800
I0830 17:52:19.039324 18689 layer_factory.hpp:77] Creating layer label
I0830 17:52:19.039336 18689 net.cpp:84] Creating Layer label
I0830 17:52:19.039341 18689 net.cpp:406] label <- s1_label
I0830 17:52:19.039361 18689 net.cpp:406] label <- s2_label
I0830 17:52:19.039369 18689 net.cpp:380] label -> label
I0830 17:52:19.039398 18689 net.cpp:122] Setting up label
I0830 17:52:19.039407 18689 net.cpp:129] Top shape: 256 (256)
I0830 17:52:19.039410 18689 net.cpp:137] Memory required for data: 474893824
I0830 17:52:19.039414 18689 layer_factory.hpp:77] Creating layer label_label_0_split
I0830 17:52:19.039422 18689 net.cpp:84] Creating Layer label_label_0_split
I0830 17:52:19.039428 18689 net.cpp:406] label_label_0_split <- label
I0830 17:52:19.039438 18689 net.cpp:380] label_label_0_split -> label_label_0_split_0
I0830 17:52:19.039448 18689 net.cpp:380] label_label_0_split -> label_label_0_split_1
I0830 17:52:19.039477 18689 net.cpp:122] Setting up label_label_0_split
I0830 17:52:19.039484 18689 net.cpp:129] Top shape: 256 (256)
I0830 17:52:19.039489 18689 net.cpp:129] Top shape: 256 (256)
I0830 17:52:19.039491 18689 net.cpp:137] Memory required for data: 474895872
I0830 17:52:19.039495 18689 layer_factory.hpp:77] Creating layer conv1
I0830 17:52:19.039511 18689 net.cpp:84] Creating Layer conv1
I0830 17:52:19.039516 18689 net.cpp:406] conv1 <- data
I0830 17:52:19.039525 18689 net.cpp:380] conv1 -> conv1
I0830 17:52:19.518389 18689 net.cpp:122] Setting up conv1
I0830 17:52:19.518414 18689 net.cpp:129] Top shape: 384 96 55 55 (111513600)
I0830 17:52:19.518419 18689 net.cpp:137] Memory required for data: 920950272
I0830 17:52:19.518437 18689 layer_factory.hpp:77] Creating layer relu1
I0830 17:52:19.518450 18689 net.cpp:84] Creating Layer relu1
I0830 17:52:19.518455 18689 net.cpp:406] relu1 <- conv1
I0830 17:52:19.518460 18689 net.cpp:367] relu1 -> conv1 (in-place)
I0830 17:52:19.518622 18689 net.cpp:122] Setting up relu1
I0830 17:52:19.518631 18689 net.cpp:129] Top shape: 384 96 55 55 (111513600)
I0830 17:52:19.518635 18689 net.cpp:137] Memory required for data: 1367004672
I0830 17:52:19.518640 18689 layer_factory.hpp:77] Creating layer pool1
I0830 17:52:19.518649 18689 net.cpp:84] Creating Layer pool1
I0830 17:52:19.518654 18689 net.cpp:406] pool1 <- conv1
I0830 17:52:19.518661 18689 net.cpp:380] pool1 -> pool1
I0830 17:52:19.518704 18689 net.cpp:122] Setting up pool1
I0830 17:52:19.518712 18689 net.cpp:129] Top shape: 384 96 27 27 (26873856)
I0830 17:52:19.518715 18689 net.cpp:137] Memory required for data: 1474500096
I0830 17:52:19.518718 18689 layer_factory.hpp:77] Creating layer norm1
I0830 17:52:19.518728 18689 net.cpp:84] Creating Layer norm1
I0830 17:52:19.518733 18689 net.cpp:406] norm1 <- pool1
I0830 17:52:19.518738 18689 net.cpp:380] norm1 -> norm1
I0830 17:52:19.518906 18689 net.cpp:122] Setting up norm1
I0830 17:52:19.518914 18689 net.cpp:129] Top shape: 384 96 27 27 (26873856)
I0830 17:52:19.518918 18689 net.cpp:137] Memory required for data: 1581995520
I0830 17:52:19.518923 18689 layer_factory.hpp:77] Creating layer conv2
I0830 17:52:19.518934 18689 net.cpp:84] Creating Layer conv2
I0830 17:52:19.518939 18689 net.cpp:406] conv2 <- norm1
I0830 17:52:19.518945 18689 net.cpp:380] conv2 -> conv2
I0830 17:52:19.524204 18689 net.cpp:122] Setting up conv2
I0830 17:52:19.524222 18689 net.cpp:129] Top shape: 384 256 27 27 (71663616)
I0830 17:52:19.524226 18689 net.cpp:137] Memory required for data: 1868649984
I0830 17:52:19.524237 18689 layer_factory.hpp:77] Creating layer relu2
I0830 17:52:19.524246 18689 net.cpp:84] Creating Layer relu2
I0830 17:52:19.524252 18689 net.cpp:406] relu2 <- conv2
I0830 17:52:19.524258 18689 net.cpp:367] relu2 -> conv2 (in-place)
I0830 17:52:19.524749 18689 net.cpp:122] Setting up relu2
I0830 17:52:19.524761 18689 net.cpp:129] Top shape: 384 256 27 27 (71663616)
I0830 17:52:19.524766 18689 net.cpp:137] Memory required for data: 2155304448
I0830 17:52:19.524770 18689 layer_factory.hpp:77] Creating layer pool2
I0830 17:52:19.524778 18689 net.cpp:84] Creating Layer pool2
I0830 17:52:19.524785 18689 net.cpp:406] pool2 <- conv2
I0830 17:52:19.524791 18689 net.cpp:380] pool2 -> pool2
I0830 17:52:19.524827 18689 net.cpp:122] Setting up pool2
I0830 17:52:19.524835 18689 net.cpp:129] Top shape: 384 256 13 13 (16613376)
I0830 17:52:19.524852 18689 net.cpp:137] Memory required for data: 2221757952
I0830 17:52:19.524855 18689 layer_factory.hpp:77] Creating layer norm2
I0830 17:52:19.524863 18689 net.cpp:84] Creating Layer norm2
I0830 17:52:19.524869 18689 net.cpp:406] norm2 <- pool2
I0830 17:52:19.524874 18689 net.cpp:380] norm2 -> norm2
I0830 17:52:19.525038 18689 net.cpp:122] Setting up norm2
I0830 17:52:19.525046 18689 net.cpp:129] Top shape: 384 256 13 13 (16613376)
I0830 17:52:19.525050 18689 net.cpp:137] Memory required for data: 2288211456
I0830 17:52:19.525055 18689 layer_factory.hpp:77] Creating layer conv3
I0830 17:52:19.525066 18689 net.cpp:84] Creating Layer conv3
I0830 17:52:19.525071 18689 net.cpp:406] conv3 <- norm2
I0830 17:52:19.525079 18689 net.cpp:380] conv3 -> conv3
I0830 17:52:19.533259 18689 net.cpp:122] Setting up conv3
I0830 17:52:19.533282 18689 net.cpp:129] Top shape: 384 384 13 13 (24920064)
I0830 17:52:19.533285 18689 net.cpp:137] Memory required for data: 2387891712
I0830 17:52:19.533296 18689 layer_factory.hpp:77] Creating layer relu3
I0830 17:52:19.533306 18689 net.cpp:84] Creating Layer relu3
I0830 17:52:19.533313 18689 net.cpp:406] relu3 <- conv3
I0830 17:52:19.533318 18689 net.cpp:367] relu3 -> conv3 (in-place)
I0830 17:52:19.533468 18689 net.cpp:122] Setting up relu3
I0830 17:52:19.533475 18689 net.cpp:129] Top shape: 384 384 13 13 (24920064)
I0830 17:52:19.533478 18689 net.cpp:137] Memory required for data: 2487571968
I0830 17:52:19.533484 18689 layer_factory.hpp:77] Creating layer conv4
I0830 17:52:19.533498 18689 net.cpp:84] Creating Layer conv4
I0830 17:52:19.533502 18689 net.cpp:406] conv4 <- conv3
I0830 17:52:19.533509 18689 net.cpp:380] conv4 -> conv4
I0830 17:52:19.540823 18689 net.cpp:122] Setting up conv4
I0830 17:52:19.540844 18689 net.cpp:129] Top shape: 384 384 13 13 (24920064)
I0830 17:52:19.540848 18689 net.cpp:137] Memory required for data: 2587252224
I0830 17:52:19.540855 18689 layer_factory.hpp:77] Creating layer relu4
I0830 17:52:19.540865 18689 net.cpp:84] Creating Layer relu4
I0830 17:52:19.540872 18689 net.cpp:406] relu4 <- conv4
I0830 17:52:19.540877 18689 net.cpp:367] relu4 -> conv4 (in-place)
I0830 17:52:19.541374 18689 net.cpp:122] Setting up relu4
I0830 17:52:19.541385 18689 net.cpp:129] Top shape: 384 384 13 13 (24920064)
I0830 17:52:19.541391 18689 net.cpp:137] Memory required for data: 2686932480
I0830 17:52:19.541396 18689 layer_factory.hpp:77] Creating layer conv5
I0830 17:52:19.541409 18689 net.cpp:84] Creating Layer conv5
I0830 17:52:19.541414 18689 net.cpp:406] conv5 <- conv4
I0830 17:52:19.541420 18689 net.cpp:380] conv5 -> conv5
I0830 17:52:19.550400 18689 net.cpp:122] Setting up conv5
I0830 17:52:19.550417 18689 net.cpp:129] Top shape: 384 256 13 13 (16613376)
I0830 17:52:19.550422 18689 net.cpp:137] Memory required for data: 2753385984
I0830 17:52:19.550436 18689 layer_factory.hpp:77] Creating layer relu5
I0830 17:52:19.550447 18689 net.cpp:84] Creating Layer relu5
I0830 17:52:19.550453 18689 net.cpp:406] relu5 <- conv5
I0830 17:52:19.550460 18689 net.cpp:367] relu5 -> conv5 (in-place)
I0830 17:52:19.550618 18689 net.cpp:122] Setting up relu5
I0830 17:52:19.550627 18689 net.cpp:129] Top shape: 384 256 13 13 (16613376)
I0830 17:52:19.550631 18689 net.cpp:137] Memory required for data: 2819839488
I0830 17:52:19.550638 18689 layer_factory.hpp:77] Creating layer pool5
I0830 17:52:19.550647 18689 net.cpp:84] Creating Layer pool5
I0830 17:52:19.550652 18689 net.cpp:406] pool5 <- conv5
I0830 17:52:19.550658 18689 net.cpp:380] pool5 -> pool5
I0830 17:52:19.550700 18689 net.cpp:122] Setting up pool5
I0830 17:52:19.550709 18689 net.cpp:129] Top shape: 384 256 6 6 (3538944)
I0830 17:52:19.550711 18689 net.cpp:137] Memory required for data: 2833995264
I0830 17:52:19.550717 18689 layer_factory.hpp:77] Creating layer fc6
I0830 17:52:19.550725 18689 net.cpp:84] Creating Layer fc6
I0830 17:52:19.550732 18689 net.cpp:406] fc6 <- pool5
I0830 17:52:19.550740 18689 net.cpp:380] fc6 -> fc6
I0830 17:52:19.828603 18689 net.cpp:122] Setting up fc6
I0830 17:52:19.828625 18689 net.cpp:129] Top shape: 384 4096 (1572864)
I0830 17:52:19.828650 18689 net.cpp:137] Memory required for data: 2840286720
I0830 17:52:19.828660 18689 layer_factory.hpp:77] Creating layer slicer_fc6
I0830 17:52:19.828671 18689 net.cpp:84] Creating Layer slicer_fc6
I0830 17:52:19.828677 18689 net.cpp:406] slicer_fc6 <- fc6
I0830 17:52:19.828686 18689 net.cpp:380] slicer_fc6 -> fc6_source
I0830 17:52:19.828699 18689 net.cpp:380] slicer_fc6 -> fc6_target
I0830 17:52:19.828737 18689 net.cpp:122] Setting up slicer_fc6
I0830 17:52:19.828742 18689 net.cpp:129] Top shape: 256 4096 (1048576)
I0830 17:52:19.828747 18689 net.cpp:129] Top shape: 128 4096 (524288)
I0830 17:52:19.828752 18689 net.cpp:137] Memory required for data: 2846578176
I0830 17:52:19.828757 18689 layer_factory.hpp:77] Creating layer fc6_source/bn
I0830 17:52:19.828764 18689 net.cpp:84] Creating Layer fc6_source/bn
I0830 17:52:19.828771 18689 net.cpp:406] fc6_source/bn <- fc6_source
I0830 17:52:19.828778 18689 net.cpp:380] fc6_source/bn -> fc6_source/bn
I0830 17:52:19.828929 18689 net.cpp:122] Setting up fc6_source/bn
I0830 17:52:19.828936 18689 net.cpp:129] Top shape: 256 4096 (1048576)
I0830 17:52:19.828940 18689 net.cpp:137] Memory required for data: 2850772480
I0830 17:52:19.828950 18689 layer_factory.hpp:77] Creating layer fc6_target/bn
I0830 17:52:19.828958 18689 net.cpp:84] Creating Layer fc6_target/bn
I0830 17:52:19.828963 18689 net.cpp:406] fc6_target/bn <- fc6_target
I0830 17:52:19.828969 18689 net.cpp:380] fc6_target/bn -> fc6_target/bn
I0830 17:52:19.829116 18689 net.cpp:122] Setting up fc6_target/bn
I0830 17:52:19.829123 18689 net.cpp:129] Top shape: 128 4096 (524288)
I0830 17:52:19.829126 18689 net.cpp:137] Memory required for data: 2852869632
I0830 17:52:19.829138 18689 layer_factory.hpp:77] Creating layer concat_wbn_6
I0830 17:52:19.829145 18689 net.cpp:84] Creating Layer concat_wbn_6
I0830 17:52:19.829151 18689 net.cpp:406] concat_wbn_6 <- fc6_source/bn
I0830 17:52:19.829156 18689 net.cpp:406] concat_wbn_6 <- fc6_target/bn
I0830 17:52:19.829162 18689 net.cpp:380] concat_wbn_6 -> fc6/bn
I0830 17:52:19.829180 18689 net.cpp:122] Setting up concat_wbn_6
I0830 17:52:19.829185 18689 net.cpp:129] Top shape: 384 4096 (1572864)
I0830 17:52:19.829190 18689 net.cpp:137] Memory required for data: 2859161088
I0830 17:52:19.829195 18689 layer_factory.hpp:77] Creating layer fc6_scale
I0830 17:52:19.829205 18689 net.cpp:84] Creating Layer fc6_scale
I0830 17:52:19.829210 18689 net.cpp:406] fc6_scale <- fc6/bn
I0830 17:52:19.829216 18689 net.cpp:380] fc6_scale -> fc6/scale
I0830 17:52:19.829252 18689 layer_factory.hpp:77] Creating layer fc6_scale
I0830 17:52:19.829341 18689 net.cpp:122] Setting up fc6_scale
I0830 17:52:19.829349 18689 net.cpp:129] Top shape: 384 4096 (1572864)
I0830 17:52:19.829352 18689 net.cpp:137] Memory required for data: 2865452544
I0830 17:52:19.829360 18689 layer_factory.hpp:77] Creating layer relu6
I0830 17:52:19.829366 18689 net.cpp:84] Creating Layer relu6
I0830 17:52:19.829370 18689 net.cpp:406] relu6 <- fc6/scale
I0830 17:52:19.829375 18689 net.cpp:380] relu6 -> fc6/relu
I0830 17:52:19.829601 18689 net.cpp:122] Setting up relu6
I0830 17:52:19.829608 18689 net.cpp:129] Top shape: 384 4096 (1572864)
I0830 17:52:19.829614 18689 net.cpp:137] Memory required for data: 2871744000
I0830 17:52:19.829618 18689 layer_factory.hpp:77] Creating layer drop6
I0830 17:52:19.829627 18689 net.cpp:84] Creating Layer drop6
I0830 17:52:19.829632 18689 net.cpp:406] drop6 <- fc6/relu
I0830 17:52:19.829638 18689 net.cpp:380] drop6 -> fc6/out
I0830 17:52:19.829672 18689 net.cpp:122] Setting up drop6
I0830 17:52:19.829679 18689 net.cpp:129] Top shape: 384 4096 (1572864)
I0830 17:52:19.829682 18689 net.cpp:137] Memory required for data: 2878035456
I0830 17:52:19.829685 18689 layer_factory.hpp:77] Creating layer fc7
I0830 17:52:19.829694 18689 net.cpp:84] Creating Layer fc7
I0830 17:52:19.829701 18689 net.cpp:406] fc7 <- fc6/out
I0830 17:52:19.829707 18689 net.cpp:380] fc7 -> fc7
I0830 17:52:19.953411 18689 net.cpp:122] Setting up fc7
I0830 17:52:19.953433 18689 net.cpp:129] Top shape: 384 4096 (1572864)
I0830 17:52:19.953454 18689 net.cpp:137] Memory required for data: 2884326912
I0830 17:52:19.953464 18689 layer_factory.hpp:77] Creating layer slicer_fc7
I0830 17:52:19.953476 18689 net.cpp:84] Creating Layer slicer_fc7
I0830 17:52:19.953482 18689 net.cpp:406] slicer_fc7 <- fc7
I0830 17:52:19.953490 18689 net.cpp:380] slicer_fc7 -> fc7_source
I0830 17:52:19.953500 18689 net.cpp:380] slicer_fc7 -> fc7_target
I0830 17:52:19.953536 18689 net.cpp:122] Setting up slicer_fc7
I0830 17:52:19.953541 18689 net.cpp:129] Top shape: 256 4096 (1048576)
I0830 17:52:19.953547 18689 net.cpp:129] Top shape: 128 4096 (524288)
I0830 17:52:19.953550 18689 net.cpp:137] Memory required for data: 2890618368
I0830 17:52:19.953555 18689 layer_factory.hpp:77] Creating layer fc7_source/bn
I0830 17:52:19.953563 18689 net.cpp:84] Creating Layer fc7_source/bn
I0830 17:52:19.953569 18689 net.cpp:406] fc7_source/bn <- fc7_source
I0830 17:52:19.953574 18689 net.cpp:380] fc7_source/bn -> fc7_source/bn
I0830 17:52:19.953730 18689 net.cpp:122] Setting up fc7_source/bn
I0830 17:52:19.953737 18689 net.cpp:129] Top shape: 256 4096 (1048576)
I0830 17:52:19.953744 18689 net.cpp:137] Memory required for data: 2894812672
I0830 17:52:19.953752 18689 layer_factory.hpp:77] Creating layer fc7_target/bn
I0830 17:52:19.953761 18689 net.cpp:84] Creating Layer fc7_target/bn
I0830 17:52:19.953768 18689 net.cpp:406] fc7_target/bn <- fc7_target
I0830 17:52:19.953774 18689 net.cpp:380] fc7_target/bn -> fc7_target/bn
I0830 17:52:19.953917 18689 net.cpp:122] Setting up fc7_target/bn
I0830 17:52:19.953924 18689 net.cpp:129] Top shape: 128 4096 (524288)
I0830 17:52:19.953927 18689 net.cpp:137] Memory required for data: 2896909824
I0830 17:52:19.953935 18689 layer_factory.hpp:77] Creating layer concat_wbn_7
I0830 17:52:19.953943 18689 net.cpp:84] Creating Layer concat_wbn_7
I0830 17:52:19.953948 18689 net.cpp:406] concat_wbn_7 <- fc7_source/bn
I0830 17:52:19.953953 18689 net.cpp:406] concat_wbn_7 <- fc7_target/bn
I0830 17:52:19.953959 18689 net.cpp:380] concat_wbn_7 -> fc7/bn
I0830 17:52:19.953975 18689 net.cpp:122] Setting up concat_wbn_7
I0830 17:52:19.953981 18689 net.cpp:129] Top shape: 384 4096 (1572864)
I0830 17:52:19.953985 18689 net.cpp:137] Memory required for data: 2903201280
I0830 17:52:19.953990 18689 layer_factory.hpp:77] Creating layer fc7_scale
I0830 17:52:19.953999 18689 net.cpp:84] Creating Layer fc7_scale
I0830 17:52:19.954005 18689 net.cpp:406] fc7_scale <- fc7/bn
I0830 17:52:19.954010 18689 net.cpp:380] fc7_scale -> fc7/scale
I0830 17:52:19.954041 18689 layer_factory.hpp:77] Creating layer fc7_scale
I0830 17:52:19.954126 18689 net.cpp:122] Setting up fc7_scale
I0830 17:52:19.954133 18689 net.cpp:129] Top shape: 384 4096 (1572864)
I0830 17:52:19.954136 18689 net.cpp:137] Memory required for data: 2909492736
I0830 17:52:19.954144 18689 layer_factory.hpp:77] Creating layer relu7
I0830 17:52:19.954150 18689 net.cpp:84] Creating Layer relu7
I0830 17:52:19.954155 18689 net.cpp:406] relu7 <- fc7/scale
I0830 17:52:19.954160 18689 net.cpp:380] relu7 -> fc7/relu
I0830 17:52:19.954835 18689 net.cpp:122] Setting up relu7
I0830 17:52:19.954846 18689 net.cpp:129] Top shape: 384 4096 (1572864)
I0830 17:52:19.954851 18689 net.cpp:137] Memory required for data: 2915784192
I0830 17:52:19.954855 18689 layer_factory.hpp:77] Creating layer drop7
I0830 17:52:19.954864 18689 net.cpp:84] Creating Layer drop7
I0830 17:52:19.954870 18689 net.cpp:406] drop7 <- fc7/relu
I0830 17:52:19.954877 18689 net.cpp:380] drop7 -> fc7/out
I0830 17:52:19.954911 18689 net.cpp:122] Setting up drop7
I0830 17:52:19.954918 18689 net.cpp:129] Top shape: 384 4096 (1572864)
I0830 17:52:19.954922 18689 net.cpp:137] Memory required for data: 2922075648
I0830 17:52:19.954926 18689 layer_factory.hpp:77] Creating layer office-fc8
I0830 17:52:19.954936 18689 net.cpp:84] Creating Layer office-fc8
I0830 17:52:19.954941 18689 net.cpp:406] office-fc8 <- fc7/out
I0830 17:52:19.954947 18689 net.cpp:380] office-fc8 -> fc8
I0830 17:52:19.955878 18689 net.cpp:122] Setting up office-fc8
I0830 17:52:19.955895 18689 net.cpp:129] Top shape: 384 31 (11904)
I0830 17:52:19.955899 18689 net.cpp:137] Memory required for data: 2922123264
I0830 17:52:19.955906 18689 layer_factory.hpp:77] Creating layer slicer_fc8
I0830 17:52:19.955914 18689 net.cpp:84] Creating Layer slicer_fc8
I0830 17:52:19.955919 18689 net.cpp:406] slicer_fc8 <- fc8
I0830 17:52:19.955926 18689 net.cpp:380] slicer_fc8 -> fc8_source
I0830 17:52:19.955935 18689 net.cpp:380] slicer_fc8 -> fc8_target
I0830 17:52:19.955966 18689 net.cpp:122] Setting up slicer_fc8
I0830 17:52:19.955973 18689 net.cpp:129] Top shape: 256 31 (7936)
I0830 17:52:19.955977 18689 net.cpp:129] Top shape: 128 31 (3968)
I0830 17:52:19.955982 18689 net.cpp:137] Memory required for data: 2922170880
I0830 17:52:19.955987 18689 layer_factory.hpp:77] Creating layer fc8_source/bn
I0830 17:52:19.955993 18689 net.cpp:84] Creating Layer fc8_source/bn
I0830 17:52:19.955999 18689 net.cpp:406] fc8_source/bn <- fc8_source
I0830 17:52:19.956004 18689 net.cpp:380] fc8_source/bn -> fc8_source/bn
I0830 17:52:19.956161 18689 net.cpp:122] Setting up fc8_source/bn
I0830 17:52:19.956167 18689 net.cpp:129] Top shape: 256 31 (7936)
I0830 17:52:19.956171 18689 net.cpp:137] Memory required for data: 2922202624
I0830 17:52:19.956182 18689 layer_factory.hpp:77] Creating layer fc8_target/bn
I0830 17:52:19.956189 18689 net.cpp:84] Creating Layer fc8_target/bn
I0830 17:52:19.956192 18689 net.cpp:406] fc8_target/bn <- fc8_target
I0830 17:52:19.956200 18689 net.cpp:380] fc8_target/bn -> fc8_target/bn
I0830 17:52:19.956352 18689 net.cpp:122] Setting up fc8_target/bn
I0830 17:52:19.956358 18689 net.cpp:129] Top shape: 128 31 (3968)
I0830 17:52:19.956362 18689 net.cpp:137] Memory required for data: 2922218496
I0830 17:52:19.956369 18689 layer_factory.hpp:77] Creating layer concat_wbn_8
I0830 17:52:19.956377 18689 net.cpp:84] Creating Layer concat_wbn_8
I0830 17:52:19.956380 18689 net.cpp:406] concat_wbn_8 <- fc8_source/bn
I0830 17:52:19.956387 18689 net.cpp:406] concat_wbn_8 <- fc8_target/bn
I0830 17:52:19.956391 18689 net.cpp:380] concat_wbn_8 -> fc8/bn
I0830 17:52:19.956410 18689 net.cpp:122] Setting up concat_wbn_8
I0830 17:52:19.956415 18689 net.cpp:129] Top shape: 384 31 (11904)
I0830 17:52:19.956418 18689 net.cpp:137] Memory required for data: 2922266112
I0830 17:52:19.956424 18689 layer_factory.hpp:77] Creating layer fc8_scale
I0830 17:52:19.956434 18689 net.cpp:84] Creating Layer fc8_scale
I0830 17:52:19.956437 18689 net.cpp:406] fc8_scale <- fc8/bn
I0830 17:52:19.956444 18689 net.cpp:380] fc8_scale -> fc8/scale
I0830 17:52:19.956477 18689 layer_factory.hpp:77] Creating layer fc8_scale
I0830 17:52:19.956565 18689 net.cpp:122] Setting up fc8_scale
I0830 17:52:19.956571 18689 net.cpp:129] Top shape: 384 31 (11904)
I0830 17:52:19.956574 18689 net.cpp:137] Memory required for data: 2922313728
I0830 17:52:19.956583 18689 layer_factory.hpp:77] Creating layer slicer_scorer
I0830 17:52:19.956590 18689 net.cpp:84] Creating Layer slicer_scorer
I0830 17:52:19.956594 18689 net.cpp:406] slicer_scorer <- fc8/scale
I0830 17:52:19.956601 18689 net.cpp:380] slicer_scorer -> score_source
I0830 17:52:19.956609 18689 net.cpp:380] slicer_scorer -> score_target
I0830 17:52:19.956640 18689 net.cpp:122] Setting up slicer_scorer
I0830 17:52:19.956645 18689 net.cpp:129] Top shape: 256 31 (7936)
I0830 17:52:19.956650 18689 net.cpp:129] Top shape: 128 31 (3968)
I0830 17:52:19.956655 18689 net.cpp:137] Memory required for data: 2922361344
I0830 17:52:19.956660 18689 layer_factory.hpp:77] Creating layer score_source_slicer_scorer_0_split
I0830 17:52:19.956665 18689 net.cpp:84] Creating Layer score_source_slicer_scorer_0_split
I0830 17:52:19.956671 18689 net.cpp:406] score_source_slicer_scorer_0_split <- score_source
I0830 17:52:19.956677 18689 net.cpp:380] score_source_slicer_scorer_0_split -> score_source_slicer_scorer_0_split_0
I0830 17:52:19.956684 18689 net.cpp:380] score_source_slicer_scorer_0_split -> score_source_slicer_scorer_0_split_1
I0830 17:52:19.956712 18689 net.cpp:122] Setting up score_source_slicer_scorer_0_split
I0830 17:52:19.956723 18689 net.cpp:129] Top shape: 256 31 (7936)
I0830 17:52:19.956727 18689 net.cpp:129] Top shape: 256 31 (7936)
I0830 17:52:19.956732 18689 net.cpp:137] Memory required for data: 2922424832
I0830 17:52:19.956735 18689 layer_factory.hpp:77] Creating layer loss
I0830 17:52:19.956745 18689 net.cpp:84] Creating Layer loss
I0830 17:52:19.956753 18689 net.cpp:406] loss <- score_source_slicer_scorer_0_split_0
I0830 17:52:19.956758 18689 net.cpp:406] loss <- label_label_0_split_0
I0830 17:52:19.956766 18689 net.cpp:380] loss -> loss
…
I0830 17:52:20.371639 18689 net.cpp:294] The NetState phase (1) differed from the phase (0) specified by a rule in layer silence_target
I0830 17:52:20.371824 18689 net.cpp:51] Initializing net from parameters: 
name: "CaffeNet"
state {
  phase: TEST
}
layer {
  name: "data"
  type: "ImageData"
  top: "data"
  top: "label"
  include {
    phase: TEST
  }
  transform_param {
    mirror: false
    crop_size: 224
    mean_value: 104
    mean_value: 117
    mean_value: 123
  }
  image_data_param {
    source: "/home/alfa/Documents/msda/mywork/data/office/office_d.txt"
    batch_size: 1
    shuffle: false
    new_height: 256
    new_width: 256
    is_color: true
  }
}
layer {
  name: "conv1"
  type: "Convolution"
  bottom: "data"
  top: "conv1"
  param {
    lr_mult: 0
    decay_mult: 1
  }
  param {
    lr_mult: 0
    decay_mult: 0
  }
  convolution_param {
    num_output: 96
    kernel_size: 11
    stride: 4
    weight_filler {
      type: "gaussian"
      std: 0.01
    }
    bias_filler {
      type: "constant"
      value: 0
    }
  }
}
layer {
  name: "relu1"
  type: "ReLU"
  bottom: "conv1"
  top: "conv1"
}
layer {
  name: "pool1"
  type: "Pooling"
  bottom: "conv1"
  top: "pool1"
  pooling_param {
    pool: MAX
    kernel_size: 3
    stride: 2
  }
}
layer {
  name: "norm1"
  type: "LRN"
  bottom: "pool1"
  top: "norm1"
  lrn_param {
    local_size: 5
    alpha: 0.0001
    beta: 0.75
  }
}
layer {
  name: "conv2"
  type: "Convolution"
  bottom: "norm1"
  top: "conv2"
  param {
    lr_mult: 0
    decay_mult: 1
  }
  param {
    lr_mult: 0
    decay_mult: 0
  }
  convolution_param {
    num_output: 256
    pad: 2
    kernel_size: 5
    group: 2
    weight_filler {
      type: "gaussian"
      std: 0.01
    }
    bias_filler {
      type: "constant"
      value: 1
    }
  }
}
layer {
  name: "relu2"
  type: "ReLU"
  bottom: "conv2"
  top: "conv2"
}
layer {
  name: "pool2"
  type: "Pooling"
  bottom: "conv2"
  top: "pool2"
  pooling_param {
    pool: MAX
    kernel_size: 3
    stride: 2
  }
}
layer {
  name: "norm2"
  type: "LRN"
  bottom: "pool2"
  top: "norm2"
  lrn_param {
    local_size: 5
    alpha: 0.0001
    beta: 0.75
  }
}
layer {
  name: "conv3"
  type: "Convolution"
  bottom: "norm2"
  top: "conv3"
  param {
    lr_mult: 0
    decay_mult: 1
  }
  param {
    lr_mult: 0
    decay_mult: 0
  }
  convolution_param {
    num_output: 384
    pad: 1
    kernel_size: 3
    weight_filler {
      type: "gaussian"
      std: 0.01
    }
    bias_filler {
      type: "constant"
      value: 0
    }
  }
}
layer {
  name: "relu3"
  type: "ReLU"
  bottom: "conv3"
  top: "conv3"
}
layer {
  name: "conv4"
  type: "Convolution"
  bottom: "conv3"
  top: "conv4"
  param {
    lr_mult: 0
    decay_mult: 1
  }
  param {
    lr_mult: 0
    decay_mult: 0
  }
  convolution_param {
    num_output: 384
    pad: 1
    kernel_size: 3
    group: 2
    weight_filler {
      type: "gaussian"
      std: 0.01
    }
    bias_filler {
      type: "constant"
      value: 1
    }
  }
}
layer {
  name: "relu4"
  type: "ReLU"
  bottom: "conv4"
  top: "conv4"
}
layer {
  name: "conv5"
  type: "Convolution"
  bottom: "conv4"
  top: "conv5"
  param {
    lr_mult: 0
    decay_mult: 1
  }
  param {
    lr_mult: 0
    decay_mult: 0
  }
  convolution_param {
    num_output: 256
    pad: 1
    kernel_size: 3
    group: 2
    weight_filler {
      type: "gaussian"
      std: 0.01
    }
    bias_filler {
      type: "constant"
      value: 1
    }
  }
}
layer {
  name: "relu5"
  type: "ReLU"
  bottom: "conv5"
  top: "conv5"
}
layer {
  name: "pool5"
  type: "Pooling"
  bottom: "conv5"
  top: "pool5"
  pooling_param {
    pool: MAX
    kernel_size: 3
    stride: 2
  }
}
layer {
  name: "fc6"
  type: "InnerProduct"
  bottom: "pool5"
  top: "fc6"
  param {
    lr_mult: 1
    decay_mult: 1
  }
  param {
    lr_mult: 2
    decay_mult: 0
  }
  inner_product_param {
    num_output: 4096
    weight_filler {
      type: "gaussian"
      std: 0.005
    }
    bias_filler {
      type: "constant"
      value: 0
    }
  }
}
layer {
  name: "fc6_target/bn"
  type: "BatchNorm"
  bottom: "fc6"
  top: "fc6/bn"
  param {
    lr_mult: 0
    decay_mult: 0
  }
  param {
    lr_mult: 0
    decay_mult: 0
  }
  param {
    lr_mult: 0
    decay_mult: 0
  }
  include {
    phase: TEST
  }
  batch_norm_param {
    moving_average_fraction: 0.95
  }
}
layer {
  name: "fc6_scale"
  type: "Scale"
  bottom: "fc6/bn"
  top: "fc6/scale"
  param {
    lr_mult: 1
    decay_mult: 0
  }
  param {
    lr_mult: 1
    decay_mult: 0
  }
  scale_param {
    axis: 1
    num_axes: 1
    filler {
      type: "constant"
      value: 1
    }
    bias_term: true
    bias_filler {
      type: "constant"
      value: 0
    }
  }
}
layer {
  name: "relu6"
  type: "ReLU"
  bottom: "fc6/scale"
  top: "fc6/relu"
}
layer {
  name: "drop6"
  type: "Dropout"
  bottom: "fc6/relu"
  top: "fc6/out"
  dropout_param {
    dropout_ratio: 0.5
  }
}
layer {
  name: "fc7"
  type: "InnerProduct"
  bottom: "fc6/out"
  top: "fc7"
  param {
    lr_mult: 1
    decay_mult: 1
  }
  param {
    lr_mult: 2
    decay_mult: 0
  }
  inner_product_param {
    num_output: 4096
    weight_filler {
      type: "gaussian"
      std: 0.005
    }
    bias_filler {
      type: "constant"
      value: 0
    }
  }
}
layer {
  name: "fc7_target/bn"
  type: "BatchNorm"
  bottom: "fc7"
  top: "fc7/bn"
  param {
    lr_mult: 0
    decay_mult: 0
  }
  param {
    lr_mult: 0
    decay_mult: 0
  }
  param {
    lr_mult: 0
    decay_mult: 0
  }
  include {
    phase: TEST
  }
  batch_norm_param {
    moving_average_fraction: 0.95
  }
}
layer {
  name: "fc7_scale"
  type: "Scale"
  bottom: "fc7/bn"
  top: "fc7/scale"
  param {
    lr_mult: 1
    decay_mult: 0
  }
  param {
    lr_mult: 1
    decay_mult: 0
  }
  scale_param {
    axis: 1
    num_axes: 1
    filler {
      type: "constant"
      value: 1
    }
    bias_term: true
    bias_filler {
      type: "constant"
      value: 0
    }
  }
}
layer {
  name: "relu7"
  type: "ReLU"
  bottom: "fc7/scale"
  top: "fc7/relu"
}
layer {
  name: "drop7"
  type: "Dropout"
  bottom: "fc7/relu"
  top: "fc7/out"
  dropout_param {
    dropout_ratio: 0.5
  }
}
layer {
  name: "office-fc8"
  type: "InnerProduct"
  bottom: "fc7/out"
  top: "fc8"
  param {
    lr_mult: 10
    decay_mult: 1
  }
  param {
    lr_mult: 20
    decay_mult: 0
  }
  inner_product_param {
    num_output: 31
    weight_filler {
      type: "gaussian"
      std: 0.01
    }
    bias_filler {
      type: "constant"
      value: 0
    }
  }
}
layer {
  name: "fc8_target/bn"
  type: "BatchNorm"
  bottom: "fc8"
  top: "fc8/bn"
  param {
    lr_mult: 0
    decay_mult: 0
  }
  param {
    lr_mult: 0
    decay_mult: 0
  }
  param {
    lr_mult: 0
    decay_mult: 0
  }
  include {
    phase: TEST
  }
  batch_norm_param {
    moving_average_fraction: 0.95
  }
}
layer {
  name: "fc8_scale"
  type: "Scale"
  bottom: "fc8/bn"
  top: "fc8/scale"
  param {
    lr_mult: 1
    decay_mult: 0
  }
  param {
    lr_mult: 1
    decay_mult: 0
  }
  scale_param {
    axis: 1
    num_axes: 1
    filler {
      type: "constant"
      value: 1
    }
    bias_term: true
    bias_filler {
      type: "constant"
      value: 0
    }
  }
}
layer {
  name: "accuracy"
  type: "Accuracy"
  bottom: "fc8/scale"
  bottom: "label"
  top: "accuracy"
  include {
    phase: TEST
  }
}
I0830 17:52:20.371903 18689 layer_factory.hpp:77] Creating layer data
I0830 17:52:20.371917 18689 net.cpp:84] Creating Layer data
I0830 17:52:20.371922 18689 net.cpp:380] data -> data
I0830 17:52:20.371929 18689 net.cpp:380] data -> label
I0830 17:52:20.371937 18689 image_data_layer.cpp:38] Opening file /home/alfa/Documents/msda/mywork/data/office/office_d.txt
I0830 17:52:20.372133 18689 image_data_layer.cpp:63] A total of 498 images.
I0830 17:52:20.377331 18689 image_data_layer.cpp:90] output data size: 1,3,224,224
I0830 17:52:20.379940 18689 net.cpp:122] Setting up data
I0830 17:52:20.379954 18689 net.cpp:129] Top shape: 1 3 224 224 (150528)
I0830 17:52:20.379961 18689 net.cpp:129] Top shape: 1 (1)
I0830 17:52:20.379964 18689 net.cpp:137] Memory required for data: 602116
I0830 17:52:20.379969 18689 layer_factory.hpp:77] Creating layer conv1
I0830 17:52:20.379984 18689 net.cpp:84] Creating Layer conv1
I0830 17:52:20.379989 18689 net.cpp:406] conv1 <- data
I0830 17:52:20.379997 18689 net.cpp:380] conv1 -> conv1
I0830 17:52:20.381511 18689 net.cpp:122] Setting up conv1
I0830 17:52:20.381525 18689 net.cpp:129] Top shape: 1 96 54 54 (279936)
I0830 17:52:20.381527 18689 net.cpp:137] Memory required for data: 1721860
I0830 17:52:20.381538 18689 layer_factory.hpp:77] Creating layer relu1
I0830 17:52:20.381546 18689 net.cpp:84] Creating Layer relu1
I0830 17:52:20.381551 18689 net.cpp:406] relu1 <- conv1
I0830 17:52:20.381557 18689 net.cpp:367] relu1 -> conv1 (in-place)
I0830 17:52:20.381745 18689 net.cpp:122] Setting up relu1
I0830 17:52:20.381753 18689 net.cpp:129] Top shape: 1 96 54 54 (279936)
I0830 17:52:20.381759 18689 net.cpp:137] Memory required for data: 2841604
I0830 17:52:20.381763 18689 layer_factory.hpp:77] Creating layer pool1
I0830 17:52:20.381770 18689 net.cpp:84] Creating Layer pool1
I0830 17:52:20.381775 18689 net.cpp:406] pool1 <- conv1
I0830 17:52:20.381780 18689 net.cpp:380] pool1 -> pool1
I0830 17:52:20.381819 18689 net.cpp:122] Setting up pool1
I0830 17:52:20.381825 18689 net.cpp:129] Top shape: 1 96 27 27 (69984)
I0830 17:52:20.381829 18689 net.cpp:137] Memory required for data: 3121540
I0830 17:52:20.381844 18689 layer_factory.hpp:77] Creating layer norm1
I0830 17:52:20.381852 18689 net.cpp:84] Creating Layer norm1
I0830 17:52:20.381857 18689 net.cpp:406] norm1 <- pool1
I0830 17:52:20.381861 18689 net.cpp:380] norm1 -> norm1
I0830 17:52:20.382401 18689 net.cpp:122] Setting up norm1
I0830 17:52:20.382412 18689 net.cpp:129] Top shape: 1 96 27 27 (69984)
I0830 17:52:20.382416 18689 net.cpp:137] Memory required for data: 3401476
I0830 17:52:20.382421 18689 layer_factory.hpp:77] Creating layer conv2
I0830 17:52:20.382431 18689 net.cpp:84] Creating Layer conv2
I0830 17:52:20.382436 18689 net.cpp:406] conv2 <- norm1
I0830 17:52:20.382442 18689 net.cpp:380] conv2 -> conv2
I0830 17:52:20.386193 18689 net.cpp:122] Setting up conv2
I0830 17:52:20.386206 18689 net.cpp:129] Top shape: 1 256 27 27 (186624)
I0830 17:52:20.386210 18689 net.cpp:137] Memory required for data: 4147972
I0830 17:52:20.386219 18689 layer_factory.hpp:77] Creating layer relu2
I0830 17:52:20.386226 18689 net.cpp:84] Creating Layer relu2
I0830 17:52:20.386232 18689 net.cpp:406] relu2 <- conv2
I0830 17:52:20.386238 18689 net.cpp:367] relu2 -> conv2 (in-place)
I0830 17:52:20.386389 18689 net.cpp:122] Setting up relu2
I0830 17:52:20.386397 18689 net.cpp:129] Top shape: 1 256 27 27 (186624)
I0830 17:52:20.386401 18689 net.cpp:137] Memory required for data: 4894468
I0830 17:52:20.386406 18689 layer_factory.hpp:77] Creating layer pool2
I0830 17:52:20.386412 18689 net.cpp:84] Creating Layer pool2
I0830 17:52:20.386418 18689 net.cpp:406] pool2 <- conv2
I0830 17:52:20.386425 18689 net.cpp:380] pool2 -> pool2
I0830 17:52:20.386461 18689 net.cpp:122] Setting up pool2
I0830 17:52:20.386467 18689 net.cpp:129] Top shape: 1 256 13 13 (43264)
I0830 17:52:20.386471 18689 net.cpp:137] Memory required for data: 5067524
I0830 17:52:20.386476 18689 layer_factory.hpp:77] Creating layer norm2
I0830 17:52:20.386483 18689 net.cpp:84] Creating Layer norm2
I0830 17:52:20.386488 18689 net.cpp:406] norm2 <- pool2
I0830 17:52:20.386493 18689 net.cpp:380] norm2 -> norm2
I0830 17:52:20.386662 18689 net.cpp:122] Setting up norm2
I0830 17:52:20.386669 18689 net.cpp:129] Top shape: 1 256 13 13 (43264)
I0830 17:52:20.386672 18689 net.cpp:137] Memory required for data: 5240580
I0830 17:52:20.386677 18689 layer_factory.hpp:77] Creating layer conv3
I0830 17:52:20.386687 18689 net.cpp:84] Creating Layer conv3
I0830 17:52:20.386692 18689 net.cpp:406] conv3 <- norm2
I0830 17:52:20.386698 18689 net.cpp:380] conv3 -> conv3
I0830 17:52:20.394837 18689 net.cpp:122] Setting up conv3
I0830 17:52:20.394855 18689 net.cpp:129] Top shape: 1 384 13 13 (64896)
I0830 17:52:20.394860 18689 net.cpp:137] Memory required for data: 5500164
I0830 17:52:20.394868 18689 layer_factory.hpp:77] Creating layer relu3
I0830 17:52:20.394876 18689 net.cpp:84] Creating Layer relu3
I0830 17:52:20.394882 18689 net.cpp:406] relu3 <- conv3
I0830 17:52:20.394887 18689 net.cpp:367] relu3 -> conv3 (in-place)
I0830 17:52:20.395401 18689 net.cpp:122] Setting up relu3
I0830 17:52:20.395412 18689 net.cpp:129] Top shape: 1 384 13 13 (64896)
I0830 17:52:20.395417 18689 net.cpp:137] Memory required for data: 5759748
I0830 17:52:20.395421 18689 layer_factory.hpp:77] Creating layer conv4
I0830 17:52:20.395432 18689 net.cpp:84] Creating Layer conv4
I0830 17:52:20.395437 18689 net.cpp:406] conv4 <- conv3
I0830 17:52:20.395445 18689 net.cpp:380] conv4 -> conv4
I0830 17:52:20.403221 18689 net.cpp:122] Setting up conv4
I0830 17:52:20.403237 18689 net.cpp:129] Top shape: 1 384 13 13 (64896)
I0830 17:52:20.403240 18689 net.cpp:137] Memory required for data: 6019332
I0830 17:52:20.403249 18689 layer_factory.hpp:77] Creating layer relu4
I0830 17:52:20.403256 18689 net.cpp:84] Creating Layer relu4
I0830 17:52:20.403260 18689 net.cpp:406] relu4 <- conv4
I0830 17:52:20.403267 18689 net.cpp:367] relu4 -> conv4 (in-place)
I0830 17:52:20.403427 18689 net.cpp:122] Setting up relu4
I0830 17:52:20.403435 18689 net.cpp:129] Top shape: 1 384 13 13 (64896)
I0830 17:52:20.403439 18689 net.cpp:137] Memory required for data: 6278916
I0830 17:52:20.403456 18689 layer_factory.hpp:77] Creating layer conv5
I0830 17:52:20.403468 18689 net.cpp:84] Creating Layer conv5
I0830 17:52:20.403475 18689 net.cpp:406] conv5 <- conv4
I0830 17:52:20.403481 18689 net.cpp:380] conv5 -> conv5
I0830 17:52:20.409374 18689 net.cpp:122] Setting up conv5
I0830 17:52:20.409389 18689 net.cpp:129] Top shape: 1 256 13 13 (43264)
I0830 17:52:20.409394 18689 net.cpp:137] Memory required for data: 6451972
I0830 17:52:20.409404 18689 layer_factory.hpp:77] Creating layer relu5
I0830 17:52:20.409411 18689 net.cpp:84] Creating Layer relu5
I0830 17:52:20.409417 18689 net.cpp:406] relu5 <- conv5
I0830 17:52:20.409423 18689 net.cpp:367] relu5 -> conv5 (in-place)
I0830 17:52:20.409579 18689 net.cpp:122] Setting up relu5
I0830 17:52:20.409587 18689 net.cpp:129] Top shape: 1 256 13 13 (43264)
I0830 17:52:20.409593 18689 net.cpp:137] Memory required for data: 6625028
I0830 17:52:20.409596 18689 layer_factory.hpp:77] Creating layer pool5
I0830 17:52:20.409605 18689 net.cpp:84] Creating Layer pool5
I0830 17:52:20.409610 18689 net.cpp:406] pool5 <- conv5
I0830 17:52:20.409616 18689 net.cpp:380] pool5 -> pool5
I0830 17:52:20.409659 18689 net.cpp:122] Setting up pool5
I0830 17:52:20.409667 18689 net.cpp:129] Top shape: 1 256 6 6 (9216)
I0830 17:52:20.409669 18689 net.cpp:137] Memory required for data: 6661892
I0830 17:52:20.409674 18689 layer_factory.hpp:77] Creating layer fc6
I0830 17:52:20.409684 18689 net.cpp:84] Creating Layer fc6
I0830 17:52:20.409689 18689 net.cpp:406] fc6 <- pool5
I0830 17:52:20.409695 18689 net.cpp:380] fc6 -> fc6
I0830 17:52:20.687518 18689 net.cpp:122] Setting up fc6
I0830 17:52:20.687542 18689 net.cpp:129] Top shape: 1 4096 (4096)
I0830 17:52:20.687546 18689 net.cpp:137] Memory required for data: 6678276
I0830 17:52:20.687554 18689 layer_factory.hpp:77] Creating layer fc6_target/bn
I0830 17:52:20.687567 18689 net.cpp:84] Creating Layer fc6_target/bn
I0830 17:52:20.687574 18689 net.cpp:406] fc6_target/bn <- fc6
I0830 17:52:20.687582 18689 net.cpp:380] fc6_target/bn -> fc6/bn
I0830 17:52:20.687767 18689 net.cpp:122] Setting up fc6_target/bn
I0830 17:52:20.687775 18689 net.cpp:129] Top shape: 1 4096 (4096)
I0830 17:52:20.687778 18689 net.cpp:137] Memory required for data: 6694660
I0830 17:52:20.687785 18689 layer_factory.hpp:77] Creating layer fc6_scale
I0830 17:52:20.687794 18689 net.cpp:84] Creating Layer fc6_scale
I0830 17:52:20.687801 18689 net.cpp:406] fc6_scale <- fc6/bn
I0830 17:52:20.687808 18689 net.cpp:380] fc6_scale -> fc6/scale
I0830 17:52:20.687841 18689 layer_factory.hpp:77] Creating layer fc6_scale
I0830 17:52:20.687937 18689 net.cpp:122] Setting up fc6_scale
I0830 17:52:20.687944 18689 net.cpp:129] Top shape: 1 4096 (4096)
I0830 17:52:20.687947 18689 net.cpp:137] Memory required for data: 6711044
I0830 17:52:20.687958 18689 layer_factory.hpp:77] Creating layer relu6
I0830 17:52:20.687963 18689 net.cpp:84] Creating Layer relu6
I0830 17:52:20.687968 18689 net.cpp:406] relu6 <- fc6/scale
I0830 17:52:20.687973 18689 net.cpp:380] relu6 -> fc6/relu
I0830 17:52:20.688684 18689 net.cpp:122] Setting up relu6
I0830 17:52:20.688696 18689 net.cpp:129] Top shape: 1 4096 (4096)
I0830 17:52:20.688701 18689 net.cpp:137] Memory required for data: 6727428
I0830 17:52:20.688705 18689 layer_factory.hpp:77] Creating layer drop6
I0830 17:52:20.688714 18689 net.cpp:84] Creating Layer drop6
I0830 17:52:20.688719 18689 net.cpp:406] drop6 <- fc6/relu
I0830 17:52:20.688724 18689 net.cpp:380] drop6 -> fc6/out
I0830 17:52:20.688765 18689 net.cpp:122] Setting up drop6
I0830 17:52:20.688771 18689 net.cpp:129] Top shape: 1 4096 (4096)
I0830 17:52:20.688774 18689 net.cpp:137] Memory required for data: 6743812
I0830 17:52:20.688781 18689 layer_factory.hpp:77] Creating layer fc7
I0830 17:52:20.688788 18689 net.cpp:84] Creating Layer fc7
I0830 17:52:20.688793 18689 net.cpp:406] fc7 <- fc6/out
I0830 17:52:20.688799 18689 net.cpp:380] fc7 -> fc7
I0830 17:52:20.812541 18689 net.cpp:122] Setting up fc7
I0830 17:52:20.812564 18689 net.cpp:129] Top shape: 1 4096 (4096)
I0830 17:52:20.812568 18689 net.cpp:137] Memory required for data: 6760196
I0830 17:52:20.812599 18689 layer_factory.hpp:77] Creating layer fc7_target/bn
I0830 17:52:20.812611 18689 net.cpp:84] Creating Layer fc7_target/bn
I0830 17:52:20.812618 18689 net.cpp:406] fc7_target/bn <- fc7
I0830 17:52:20.812624 18689 net.cpp:380] fc7_target/bn -> fc7/bn
I0830 17:52:20.812798 18689 net.cpp:122] Setting up fc7_target/bn
I0830 17:52:20.812806 18689 net.cpp:129] Top shape: 1 4096 (4096)
I0830 17:52:20.812809 18689 net.cpp:137] Memory required for data: 6776580
I0830 17:52:20.812816 18689 layer_factory.hpp:77] Creating layer fc7_scale
I0830 17:52:20.812826 18689 net.cpp:84] Creating Layer fc7_scale
I0830 17:52:20.812834 18689 net.cpp:406] fc7_scale <- fc7/bn
I0830 17:52:20.812839 18689 net.cpp:380] fc7_scale -> fc7/scale
I0830 17:52:20.812875 18689 layer_factory.hpp:77] Creating layer fc7_scale
I0830 17:52:20.812971 18689 net.cpp:122] Setting up fc7_scale
I0830 17:52:20.812979 18689 net.cpp:129] Top shape: 1 4096 (4096)
I0830 17:52:20.812983 18689 net.cpp:137] Memory required for data: 6792964
I0830 17:52:20.812988 18689 layer_factory.hpp:77] Creating layer relu7
I0830 17:52:20.812996 18689 net.cpp:84] Creating Layer relu7
I0830 17:52:20.813004 18689 net.cpp:406] relu7 <- fc7/scale
I0830 17:52:20.813009 18689 net.cpp:380] relu7 -> fc7/relu
I0830 17:52:20.813230 18689 net.cpp:122] Setting up relu7
I0830 17:52:20.813238 18689 net.cpp:129] Top shape: 1 4096 (4096)
I0830 17:52:20.813242 18689 net.cpp:137] Memory required for data: 6809348
I0830 17:52:20.813246 18689 layer_factory.hpp:77] Creating layer drop7
I0830 17:52:20.813256 18689 net.cpp:84] Creating Layer drop7
I0830 17:52:20.813261 18689 net.cpp:406] drop7 <- fc7/relu
I0830 17:52:20.813266 18689 net.cpp:380] drop7 -> fc7/out
I0830 17:52:20.813302 18689 net.cpp:122] Setting up drop7
I0830 17:52:20.813308 18689 net.cpp:129] Top shape: 1 4096 (4096)
I0830 17:52:20.813313 18689 net.cpp:137] Memory required for data: 6825732
I0830 17:52:20.813318 18689 layer_factory.hpp:77] Creating layer office-fc8
I0830 17:52:20.813325 18689 net.cpp:84] Creating Layer office-fc8
I0830 17:52:20.813331 18689 net.cpp:406] office-fc8 <- fc7/out
I0830 17:52:20.813338 18689 net.cpp:380] office-fc8 -> fc8
I0830 17:52:20.815168 18689 net.cpp:122] Setting up office-fc8
I0830 17:52:20.815179 18689 net.cpp:129] Top shape: 1 31 (31)
I0830 17:52:20.815183 18689 net.cpp:137] Memory required for data: 6825856
I0830 17:52:20.815191 18689 layer_factory.hpp:77] Creating layer fc8_target/bn
I0830 17:52:20.815201 18689 net.cpp:84] Creating Layer fc8_target/bn
I0830 17:52:20.815207 18689 net.cpp:406] fc8_target/bn <- fc8
I0830 17:52:20.815213 18689 net.cpp:380] fc8_target/bn -> fc8/bn
I0830 17:52:20.815387 18689 net.cpp:122] Setting up fc8_target/bn
I0830 17:52:20.815394 18689 net.cpp:129] Top shape: 1 31 (31)
I0830 17:52:20.815397 18689 net.cpp:137] Memory required for data: 6825980
I0830 17:52:20.815404 18689 layer_factory.hpp:77] Creating layer fc8_scale
I0830 17:52:20.815412 18689 net.cpp:84] Creating Layer fc8_scale
I0830 17:52:20.815418 18689 net.cpp:406] fc8_scale <- fc8/bn
I0830 17:52:20.815423 18689 net.cpp:380] fc8_scale -> fc8/scale
I0830 17:52:20.815459 18689 layer_factory.hpp:77] Creating layer fc8_scale
I0830 17:52:20.815556 18689 net.cpp:122] Setting up fc8_scale
I0830 17:52:20.815563 18689 net.cpp:129] Top shape: 1 31 (31)
I0830 17:52:20.815567 18689 net.cpp:137] Memory required for data: 6826104
I0830 17:52:20.815572 18689 layer_factory.hpp:77] Creating layer accuracy
I0830 17:52:20.815582 18689 net.cpp:84] Creating Layer accuracy
I0830 17:52:20.815588 18689 net.cpp:406] accuracy <- fc8/scale
I0830 17:52:20.815593 18689 net.cpp:406] accuracy <- label
I0830 17:52:20.815598 18689 net.cpp:380] accuracy -> accuracy
…
