…
    new_width: 256
    is_color: true
  }
}
layer {
  name: "source_domain_labels"
  type: "DummyData"
  top: "source_domain_labels"
  include {
    phase: TRAIN
  }
  dummy_data_param {
    data_filler {
      type: "constant"
      value: 0
    }
    num: 128
    channels: 1
    height: 1
    width: 1
  }
}
layer {
  name: "target_domain_labels"
  type: "DummyData"
  top: "target_domain_labels"
  include {
    phase: TRAIN
  }
  dummy_data_param {
    data_filler {
      type: "constant"
      value: 1
    }
    num: 128
    channels: 1
    height: 1
    width: 1
  }
}
layer {
  name: "data"
  type: "Concat"
  bottom: "s1_data"
  bottom: "s2_data"
  bottom: "t_data"
  top: "data"
  include {
    phase: TRAIN
  }
  concat_param {
    concat_dim: 0
  }
}
layer {
  name: "label"
  type: "Concat"
  bottom: "s1_label"
  bottom: "s2_label"
  top: "label"
  include {
    phase: TRAIN
  }
  concat_param {
    concat_dim: 0
  }
}
layer {
  name: "concat_domain_labels"
  type: "Concat"
  bottom: "source_domain_labels"
  bottom: "target_domain_labels"
  top: "domain_labels"
  include {
    phase: TRAIN
  }
  concat_param {
    concat_dim: 0
  }
}
layer {
  name: "conv1"
  type: "Convolution"
  bottom: "data"
  top: "conv1"
  param {
    lr_mult: 1
    decay_mult: 1
  }
  param {
    lr_mult: 2
    decay_mult: 0
  }
  convolution_param {
    num_output: 96
    kernel_size: 11
    stride: 4
    weight_filler {
      type: "gaussian"
      std: 0.01
    }
    bias_filler {
      type: "constant"
      value: 0
    }
  }
}
layer {
  name: "relu1"
  type: "ReLU"
  bottom: "conv1"
  top: "conv1"
}
layer {
  name: "pool1"
  type: "Pooling"
  bottom: "conv1"
  top: "pool1"
  pooling_param {
    pool: MAX
    kernel_size: 3
    stride: 2
  }
}
layer {
  name: "norm1"
  type: "LRN"
  bottom: "pool1"
  top: "norm1"
  lrn_param {
    local_size: 5
    alpha: 0.0001
    beta: 0.75
  }
}
layer {
  name: "conv2"
  type: "Convolution"
  bottom: "norm1"
  top: "conv2"
  param {
    lr_mult: 1
    decay_mult: 1
  }
  param {
    lr_mult: 2
    decay_mult: 0
  }
  convolution_param {
    num_output: 256
    pad: 2
    kernel_size: 5
    group: 2
    weight_filler {
      type: "gaussian"
      std: 0.01
    }
    bias_filler {
      type: "constant"
      value: 1
    }
  }
}
layer {
  name: "relu2"
  type: "ReLU"
  bottom: "conv2"
  top: "conv2"
}
layer {
  name: "pool2"
  type: "Pooling"
  bottom: "conv2"
  top: "pool2"
  pooling_param {
    pool: MAX
    kernel_size: 3
    stride: 2
  }
}
layer {
  name: "norm2"
  type: "LRN"
  bottom: "pool2"
  top: "norm2"
  lrn_param {
    local_size: 5
    alpha: 0.0001
    beta: 0.75
  }
}
layer {
  name: "conv3"
  type: "Convolution"
  bottom: "norm2"
  top: "conv3"
  param {
    lr_mult: 1
    decay_mult: 1
  }
  param {
    lr_mult: 2
    decay_mult: 0
  }
  convolution_param {
    num_output: 384
    pad: 1
    kernel_size: 3
    weight_filler {
      type: "gaussian"
      std: 0.01
    }
    bias_filler {
      type: "constant"
      value: 0
    }
  }
}
layer {
  name: "relu3"
  type: "ReLU"
  bottom: "conv3"
  top: "conv3"
}
layer {
  name: "conv4"
  type: "Convolution"
  bottom: "conv3"
  top: "conv4"
  param {
    lr_mult: 1
    decay_mult: 1
  }
  param {
    lr_mult: 2
    decay_mult: 0
  }
  convolution_param {
    num_output: 384
    pad: 1
    kernel_size: 3
    group: 2
    weight_filler {
      type: "gaussian"
      std: 0.01
    }
    bias_filler {
      type: "constant"
      value: 1
    }
  }
}
layer {
  name: "relu4"
  type: "ReLU"
  bottom: "conv4"
  top: "conv4"
}
layer {
  name: "conv5"
  type: "Convolution"
  bottom: "conv4"
  top: "conv5"
  param {
    lr_mult: 1
    decay_mult: 1
  }
  param {
    lr_mult: 2
    decay_mult: 0
  }
  convolution_param {
    num_output: 256
    pad: 1
    kernel_size: 3
    group: 2
    weight_filler {
      type: "gaussian"
      std: 0.01
    }
    bias_filler {
      type: "constant"
      value: 1
    }
  }
}
layer {
  name: "relu5"
  type: "ReLU"
  bottom: "conv5"
  top: "conv5"
}
layer {
  name: "pool5"
  type: "Pooling"
  bottom: "conv5"
  top: "pool5"
  pooling_param {
    pool: MAX
    kernel_size: 3
    stride: 2
  }
}
layer {
  name: "fc6"
  type: "InnerProduct"
  bottom: "pool5"
  top: "fc6"
  param {
    lr_mult: 1
    decay_mult: 1
  }
  param {
    lr_mult: 2
    decay_mult: 0
  }
  inner_product_param {
    num_output: 4096
    weight_filler {
      type: "gaussian"
      std: 0.005
    }
    bias_filler {
      type: "constant"
      value: 0
    }
  }
}
layer {
  name: "slicer_fc6"
  type: "Slice"
  bottom: "fc6"
  top: "fc6_source"
  top: "fc6_target"
  include {
    phase: TRAIN
  }
  slice_param {
    slice_point: 256
    axis: 0
  }
}
layer {
  name: "fc6_source/bn"
  type: "BatchNorm"
  bottom: "fc6_source"
  top: "fc6_source/bn"
  param {
    lr_mult: 0
    decay_mult: 0
  }
  param {
    lr_mult: 0
    decay_mult: 0
  }
  param {
    lr_mult: 0
    decay_mult: 0
  }
  include {
    phase: TRAIN
  }
  batch_norm_param {
    moving_average_fraction: 0.95
  }
}
layer {
  name: "fc6_target/bn"
  type: "BatchNorm"
  bottom: "fc6_target"
  top: "fc6_target/bn"
  param {
    lr_mult: 0
    decay_mult: 0
  }
  param {
    lr_mult: 0
    decay_mult: 0
  }
  param {
    lr_mult: 0
    decay_mult: 0
  }
  include {
    phase: TRAIN
  }
  batch_norm_param {
    moving_average_fraction: 0.95
  }
}
layer {
  name: "concat_wbn_6"
  type: "Concat"
  bottom: "fc6_source/bn"
  bottom: "fc6_target/bn"
  top: "fc6/bn"
  include {
    phase: TRAIN
  }
  concat_param {
    axis: 0
  }
}
layer {
  name: "fc6_scale"
  type: "Scale"
  bottom: "fc6/bn"
  top: "fc6/scale"
  param {
    lr_mult: 1
    decay_mult: 0
  }
  param {
    lr_mult: 1
    decay_mult: 0
  }
  scale_param {
    axis: 1
    num_axes: 1
    filler {
      type: "constant"
      value: 1
    }
    bias_term: true
    bias_filler {
      type: "constant"
      value: 0
    }
  }
}
layer {
  name: "relu6"
  type: "ReLU"
  bottom: "fc6/scale"
  top: "fc6/relu"
}
layer {
  name: "drop6"
  type: "Dropout"
  bottom: "fc6/relu"
  top: "fc6/out"
  dropout_param {
    dropout_ratio: 0.5
  }
}
layer {
  name: "fc7"
  type: "InnerProduct"
  bottom: "fc6/out"
  top: "fc7"
  param {
    lr_mult: 10
    decay_mult: 1
  }
  param {
    lr_mult: 20
    decay_mult: 0
  }
  inner_product_param {
    num_output: 4096
    weight_filler {
      type: "gaussian"
      std: 0.005
    }
    bias_filler {
      type: "constant"
      value: 0
    }
  }
}
layer {
  name: "slicer_fc7"
  type: "Slice"
  bottom: "fc7"
  top: "fc7_source"
  top: "fc7_target"
  include {
    phase: TRAIN
  }
  slice_param {
    slice_point: 256
    axis: 0
  }
}
layer {
  name: "fc7_source/bn"
  type: "BatchNorm"
  bottom: "fc7_source"
  top: "fc7_source/bn"
  param {
    lr_mult: 0
    decay_mult: 0
  }
  param {
    lr_mult: 0
    decay_mult: 0
  }
  param {
    lr_mult: 0
    decay_mult: 0
  }
  include {
    phase: TRAIN
  }
  batch_norm_param {
    moving_average_fraction: 0.95
  }
}
layer {
  name: "fc7_target/bn"
  type: "BatchNorm"
  bottom: "fc7_target"
  top: "fc7_target/bn"
  param {
    lr_mult: 0
    decay_mult: 0
  }
  param {
    lr_mult: 0
    decay_mult: 0
  }
  param {
    lr_mult: 0
    decay_mult: 0
  }
  include {
    phase: TRAIN
  }
  batch_norm_param {
    moving_average_fraction: 0.95
  }
}
layer {
  name: "concat_wbn_7"
  type: "Concat"
  bottom: "fc7_source/bn"
  bottom: "fc7_target/bn"
  top: "fc7/bn"
  include {
    phase: TRAIN
  }
  concat_param {
    axis: 0
  }
}
layer {
  name: "fc7_scale"
  type: "Scale"
  bottom: "fc7/bn"
  top: "fc7/scale"
  param {
    lr_mult: 1
    decay_mult: 0
  }
  param {
    lr_mult: 1
    decay_mult: 0
  }
  scale_param {
    axis: 1
    num_axes: 1
    filler {
      type: "constant"
      value: 1
    }
    bias_term: true
    bias_filler {
      type: "constant"
      value: 0
    }
  }
}
layer {
  name: "relu7"
  type: "ReLU"
  bottom: "fc7/scale"
  top: "fc7/relu"
}
layer {
  name: "drop7"
  type: "Dropout"
  bottom: "fc7/relu"
  top: "fc7/out"
  dropout_param {
    dropout_ratio: 0.5
  }
}
layer {
  name: "bottleneck"
  type: "InnerProduct"
  bottom: "fc7/out"
  top: "bottleneck"
  param {
    lr_mult: 10
    decay_mult: 1
  }
  param {
    lr_mult: 20
    decay_mult: 0
  }
  inner_product_param {
    num_output: 256
    weight_filler {
      type: "gaussian"
      std: 0.005
    }
    bias_filler {
      type: "constant"
      value: 0
    }
  }
}
layer {
  name: "slicer_bottle"
  type: "Slice"
  bottom: "bottleneck"
  top: "bottleneck_source"
  top: "bottleneck_target"
  include {
    phase: TRAIN
  }
  slice_param {
    slice_point: 256
    axis: 0
  }
}
layer {
  name: "silence_target_feature"
  type: "Silence"
  bottom: "bottleneck_target"
  include {
    phase: TRAIN
  }
}
layer {
  name: "grl"
  type: "GradientScaler"
  bottom: "bottleneck_source"
  top: "grl"
  include {
    phase: TRAIN
  }
  gradient_scaler_param {
    lower_bound: 0.7
    upper_bound: 1
    alpha: 10
    max_iter: 1000
  }
}
layer {
  name: "dc_ip1"
  type: "InnerProduct"
  bottom: "grl"
  top: "dc_ip1"
  param {
    lr_mult: 10
  }
  param {
    lr_mult: 20
  }
  include {
    phase: TRAIN
  }
  inner_product_param {
    num_output: 1024
    weight_filler {
      type: "gaussian"
      std: 0.01
    }
    bias_filler {
      type: "constant"
    }
  }
}
layer {
  name: "dc_relu1"
  type: "ReLU"
  bottom: "dc_ip1"
  top: "dc_ip1"
  include {
    phase: TRAIN
  }
}
layer {
  name: "dc_drop1"
  type: "Dropout"
  bottom: "dc_ip1"
  top: "dc_ip1"
  include {
    phase: TRAIN
  }
  dropout_param {
    dropout_ratio: 0.5
  }
}
layer {
  name: "dc_ip2"
  type: "InnerProduct"
  bottom: "dc_ip1"
  top: "dc_ip2"
  param {
    lr_mult: 10
  }
  param {
    lr_mult: 20
  }
  include {
    phase: TRAIN
  }
  inner_product_param {
    num_output: 1024
    weight_filler {
      type: "gaussian"
      std: 0.01
    }
    bias_filler {
      type: "constant"
    }
  }
}
layer {
  name: "dc_relu2"
  type: "ReLU"
  bottom: "dc_ip2"
  top: "dc_ip2"
  include {
    phase: TRAIN
  }
}
layer {
  name: "dc_drop2"
  type: "Dropout"
  bottom: "dc_ip2"
  top: "dc_ip2"
  include {
    phase: TRAIN
  }
  dropout_param {
    dropout_ratio: 0.5
  }
}
layer {
  name: "dc_ip3"
  type: "InnerProduct"
  bottom: "dc_ip2"
  top: "dc_ip3"
  param {
    lr_mult: 10
  }
  param {
    lr_mult: 20
  }
  include {
    phase: TRAIN
  }
  inner_product_param {
    num_output: 1
    weight_filler {
      type: "gaussian"
      std: 0.3
    }
    bias_filler {
      type: "constant"
    }
  }
}
layer {
  name: "dc_loss"
  type: "SigmoidCrossEntropyLoss"
  bottom: "dc_ip3"
  bottom: "domain_labels"
  top: "dc_loss"
  loss_weight: 0.3
  include {
    phase: TRAIN
  }
}
layer {
  name: "dc_accuracy"
  type: "Accuracy"
  bottom: "dc_ip3"
  bottom: "domain_labels"
  top: "domain_accuracy"
  include {
    phase: TRAIN
  }
}
layer {
  name: "office-fc8"
  type: "InnerProduct"
  bottom: "bottleneck"
  top: "fc8"
  param {
    lr_mult: 10
    decay_mult: 1
  }
  param {
    lr_mult: 20
    decay_mult: 0
  }
  inner_product_param {
    num_output: 31
    weight_filler {
      type: "gaussian"
      std: 0.01
    }
    bias_filler {
      type: "constant"
      value: 0
    }
  }
}
layer {
  name: "slicer_fc8"
  type: "Slice"
  bottom: "fc8"
  top: "fc8_source"
  top: "fc8_target"
  include {
    phase: TRAIN
  }
  slice_param {
    slice_point: 256
    axis: 0
  }
}
layer {
  name: "fc8_source/bn"
  type: "BatchNorm"
  bottom: "fc8_source"
  top: "fc8_source/bn"
  param {
    lr_mult: 0
    decay_mult: 0
  }
  param {
    lr_mult: 0
    decay_mult: 0
  }
  param {
    lr_mult: 0
    decay_mult: 0
  }
  include {
    phase: TRAIN
  }
  batch_norm_param {
    moving_average_fraction: 0.95
  }
}
layer {
  name: "fc8_target/bn"
  type: "BatchNorm"
  bottom: "fc8_target"
  top: "fc8_target/bn"
  param {
    lr_mult: 0
    decay_mult: 0
  }
  param {
    lr_mult: 0
    decay_mult: 0
  }
  param {
    lr_mult: 0
    decay_mult: 0
  }
  include {
    phase: TRAIN
  }
  batch_norm_param {
    moving_average_fraction: 0.95
  }
}
layer {
  name: "concat_wbn_8"
  type: "Concat"
  bottom: "fc8_source/bn"
  bottom: "fc8_target/bn"
  top: "fc8/bn"
  include {
    phase: TRAIN
  }
  concat_param {
    axis: 0
  }
}
layer {
  name: "fc8_scale"
  type: "Scale"
  bottom: "fc8/bn"
  top: "fc8/scale"
  param {
    lr_mult: 1
    decay_mult: 0
  }
  param {
    lr_mult: 1
    decay_mult: 0
  }
  scale_param {
    axis: 1
    num_axes: 1
    filler {
      type: "constant"
      value: 1
    }
    bias_term: true
    bias_filler {
      type: "constant"
      value: 0
    }
  }
}
layer {
  name: "slicer_scorer"
  type: "Slice"
  bottom: "fc8/scale"
  top: "score_source"
  top: "score_target"
  include {
    phase: TRAIN
  }
  slice_param {
    slice_point: 256
    axis: 0
  }
}
layer {
  name: "loss"
  type: "SoftmaxWithLoss"
  bottom: "score_source"
  bottom: "label"
  top: "loss"
  loss_weight: 1
  include {
    phase: TRAIN
  }
}
layer {
  name: "entropy"
  type: "EntropyLoss"
  bottom: "score_target"
  top: "entropy"
  loss_weight: 0.8
  include {
    phase: TRAIN
  }
}
layer {
  name: "accuracy"
  type: "Accuracy"
  bottom: "score_source"
  bottom: "label"
  top: "accuracy"
  include {
    phase: TRAIN
  }
}
layer {
  name: "silence_target"
  type: "Silence"
  bottom: "t_label"
  include {
    phase: TRAIN
  }
}
I0829 16:18:15.008397 16790 layer_factory.hpp:77] Creating layer s1_data
I0829 16:18:15.008421 16790 net.cpp:84] Creating Layer s1_data
I0829 16:18:15.008430 16790 net.cpp:380] s1_data -> s1_data
I0829 16:18:15.008447 16790 net.cpp:380] s1_data -> s1_label
I0829 16:18:15.008733 16790 image_data_layer.cpp:38] Opening file /home/alfa/Documents/msda/mywork/data/office/office_a.txt
I0829 16:18:15.010069 16790 image_data_layer.cpp:53] Shuffling data
I0829 16:18:15.010526 16790 image_data_layer.cpp:63] A total of 2817 images.
I0829 16:18:15.016443 16790 image_data_layer.cpp:90] output data size: 128,3,227,227
I0829 16:18:15.130096 16790 net.cpp:122] Setting up s1_data
I0829 16:18:15.130122 16790 net.cpp:129] Top shape: 128 3 227 227 (19787136)
I0829 16:18:15.130127 16790 net.cpp:129] Top shape: 128 (128)
I0829 16:18:15.130131 16790 net.cpp:137] Memory required for data: 79149056
I0829 16:18:15.130138 16790 layer_factory.hpp:77] Creating layer s2_data
I0829 16:18:15.130157 16790 net.cpp:84] Creating Layer s2_data
I0829 16:18:15.130165 16790 net.cpp:380] s2_data -> s2_data
I0829 16:18:15.130175 16790 net.cpp:380] s2_data -> s2_label
I0829 16:18:15.130187 16790 image_data_layer.cpp:38] Opening file /home/alfa/Documents/msda/mywork/data/office/office_w.txt
I0829 16:18:15.130578 16790 image_data_layer.cpp:53] Shuffling data
I0829 16:18:15.130707 16790 image_data_layer.cpp:63] A total of 795 images.
I0829 16:18:15.138214 16790 image_data_layer.cpp:90] output data size: 128,3,227,227
I0829 16:18:15.254525 16790 net.cpp:122] Setting up s2_data
I0829 16:18:15.254549 16790 net.cpp:129] Top shape: 128 3 227 227 (19787136)
I0829 16:18:15.254552 16790 net.cpp:129] Top shape: 128 (128)
I0829 16:18:15.254555 16790 net.cpp:137] Memory required for data: 158298112
I0829 16:18:15.254561 16790 layer_factory.hpp:77] Creating layer target_data
I0829 16:18:15.254581 16790 net.cpp:84] Creating Layer target_data
I0829 16:18:15.254590 16790 net.cpp:380] target_data -> t_data
I0829 16:18:15.254600 16790 net.cpp:380] target_data -> t_label
I0829 16:18:15.254611 16790 image_data_layer.cpp:38] Opening file /home/alfa/Documents/msda/mywork/data/office/office_d.txt
I0829 16:18:15.254827 16790 image_data_layer.cpp:53] Shuffling data
I0829 16:18:15.254909 16790 image_data_layer.cpp:63] A total of 498 images.
I0829 16:18:15.264140 16790 image_data_layer.cpp:90] output data size: 128,3,227,227
I0829 16:18:15.380978 16790 net.cpp:122] Setting up target_data
I0829 16:18:15.381005 16790 net.cpp:129] Top shape: 128 3 227 227 (19787136)
I0829 16:18:15.381011 16790 net.cpp:129] Top shape: 128 (128)
I0829 16:18:15.381014 16790 net.cpp:137] Memory required for data: 237447168
I0829 16:18:15.381022 16790 layer_factory.hpp:77] Creating layer source_domain_labels
I0829 16:18:15.381040 16790 net.cpp:84] Creating Layer source_domain_labels
I0829 16:18:15.381049 16790 net.cpp:380] source_domain_labels -> source_domain_labels
I0829 16:18:15.381137 16790 net.cpp:122] Setting up source_domain_labels
I0829 16:18:15.381146 16790 net.cpp:129] Top shape: 128 1 1 1 (128)
I0829 16:18:15.381151 16790 net.cpp:137] Memory required for data: 237447680
I0829 16:18:15.381156 16790 layer_factory.hpp:77] Creating layer target_domain_labels
I0829 16:18:15.381170 16790 net.cpp:84] Creating Layer target_domain_labels
I0829 16:18:15.381178 16790 net.cpp:380] target_domain_labels -> target_domain_labels
I0829 16:18:15.381224 16790 net.cpp:122] Setting up target_domain_labels
I0829 16:18:15.381254 16790 net.cpp:129] Top shape: 128 1 1 1 (128)
I0829 16:18:15.381270 16790 net.cpp:137] Memory required for data: 237448192
I0829 16:18:15.381286 16790 layer_factory.hpp:77] Creating layer data
I0829 16:18:15.381310 16790 net.cpp:84] Creating Layer data
I0829 16:18:15.381320 16790 net.cpp:406] data <- s1_data
I0829 16:18:15.381335 16790 net.cpp:406] data <- s2_data
I0829 16:18:15.381342 16790 net.cpp:406] data <- t_data
I0829 16:18:15.381381 16790 net.cpp:380] data -> data
I0829 16:18:15.381433 16790 net.cpp:122] Setting up data
I0829 16:18:15.381458 16790 net.cpp:129] Top shape: 384 3 227 227 (59361408)
I0829 16:18:15.381475 16790 net.cpp:137] Memory required for data: 474893824
I0829 16:18:15.381491 16790 layer_factory.hpp:77] Creating layer label
I0829 16:18:15.381511 16790 net.cpp:84] Creating Layer label
I0829 16:18:15.381518 16790 net.cpp:406] label <- s1_label
I0829 16:18:15.381525 16790 net.cpp:406] label <- s2_label
I0829 16:18:15.381534 16790 net.cpp:380] label -> label
I0829 16:18:15.381569 16790 net.cpp:122] Setting up label
I0829 16:18:15.381582 16790 net.cpp:129] Top shape: 256 (256)
I0829 16:18:15.381587 16790 net.cpp:137] Memory required for data: 474894848
I0829 16:18:15.381593 16790 layer_factory.hpp:77] Creating layer label_label_0_split
I0829 16:18:15.381609 16790 net.cpp:84] Creating Layer label_label_0_split
I0829 16:18:15.381633 16790 net.cpp:406] label_label_0_split <- label
I0829 16:18:15.381659 16790 net.cpp:380] label_label_0_split -> label_label_0_split_0
I0829 16:18:15.381683 16790 net.cpp:380] label_label_0_split -> label_label_0_split_1
I0829 16:18:15.381736 16790 net.cpp:122] Setting up label_label_0_split
I0829 16:18:15.381749 16790 net.cpp:129] Top shape: 256 (256)
I0829 16:18:15.381755 16790 net.cpp:129] Top shape: 256 (256)
I0829 16:18:15.381760 16790 net.cpp:137] Memory required for data: 474896896
I0829 16:18:15.381765 16790 layer_factory.hpp:77] Creating layer concat_domain_labels
I0829 16:18:15.381778 16790 net.cpp:84] Creating Layer concat_domain_labels
I0829 16:18:15.381783 16790 net.cpp:406] concat_domain_labels <- source_domain_labels
I0829 16:18:15.381793 16790 net.cpp:406] concat_domain_labels <- target_domain_labels
I0829 16:18:15.381821 16790 net.cpp:380] concat_domain_labels -> domain_labels
I0829 16:18:15.381866 16790 net.cpp:122] Setting up concat_domain_labels
I0829 16:18:15.381876 16790 net.cpp:129] Top shape: 256 1 1 1 (256)
I0829 16:18:15.381880 16790 net.cpp:137] Memory required for data: 474897920
I0829 16:18:15.381886 16790 layer_factory.hpp:77] Creating layer domain_labels_concat_domain_labels_0_split
I0829 16:18:15.381894 16790 net.cpp:84] Creating Layer domain_labels_concat_domain_labels_0_split
I0829 16:18:15.381899 16790 net.cpp:406] domain_labels_concat_domain_labels_0_split <- domain_labels
I0829 16:18:15.381909 16790 net.cpp:380] domain_labels_concat_domain_labels_0_split -> domain_labels_concat_domain_labels_0_split_0
I0829 16:18:15.381920 16790 net.cpp:380] domain_labels_concat_domain_labels_0_split -> domain_labels_concat_domain_labels_0_split_1
I0829 16:18:15.381979 16790 net.cpp:122] Setting up domain_labels_concat_domain_labels_0_split
I0829 16:18:15.381990 16790 net.cpp:129] Top shape: 256 1 1 1 (256)
I0829 16:18:15.381996 16790 net.cpp:129] Top shape: 256 1 1 1 (256)
I0829 16:18:15.382001 16790 net.cpp:137] Memory required for data: 474899968
I0829 16:18:15.382006 16790 layer_factory.hpp:77] Creating layer conv1
I0829 16:18:15.382023 16790 net.cpp:84] Creating Layer conv1
I0829 16:18:15.382048 16790 net.cpp:406] conv1 <- data
I0829 16:18:15.382073 16790 net.cpp:380] conv1 -> conv1
I0829 16:18:15.870782 16790 net.cpp:122] Setting up conv1
I0829 16:18:15.870807 16790 net.cpp:129] Top shape: 384 96 55 55 (111513600)
I0829 16:18:15.870812 16790 net.cpp:137] Memory required for data: 920954368
I0829 16:18:15.870831 16790 layer_factory.hpp:77] Creating layer relu1
I0829 16:18:15.870839 16790 net.cpp:84] Creating Layer relu1
I0829 16:18:15.870844 16790 net.cpp:406] relu1 <- conv1
I0829 16:18:15.870851 16790 net.cpp:367] relu1 -> conv1 (in-place)
I0829 16:18:15.871019 16790 net.cpp:122] Setting up relu1
I0829 16:18:15.871028 16790 net.cpp:129] Top shape: 384 96 55 55 (111513600)
I0829 16:18:15.871031 16790 net.cpp:137] Memory required for data: 1367008768
I0829 16:18:15.871035 16790 layer_factory.hpp:77] Creating layer pool1
I0829 16:18:15.871042 16790 net.cpp:84] Creating Layer pool1
I0829 16:18:15.871045 16790 net.cpp:406] pool1 <- conv1
I0829 16:18:15.871050 16790 net.cpp:380] pool1 -> pool1
I0829 16:18:15.871107 16790 net.cpp:122] Setting up pool1
I0829 16:18:15.871129 16790 net.cpp:129] Top shape: 384 96 27 27 (26873856)
I0829 16:18:15.871132 16790 net.cpp:137] Memory required for data: 1474504192
I0829 16:18:15.871135 16790 layer_factory.hpp:77] Creating layer norm1
I0829 16:18:15.871145 16790 net.cpp:84] Creating Layer norm1
I0829 16:18:15.871150 16790 net.cpp:406] norm1 <- pool1
I0829 16:18:15.871155 16790 net.cpp:380] norm1 -> norm1
I0829 16:18:15.871330 16790 net.cpp:122] Setting up norm1
I0829 16:18:15.871340 16790 net.cpp:129] Top shape: 384 96 27 27 (26873856)
I0829 16:18:15.871343 16790 net.cpp:137] Memory required for data: 1581999616
I0829 16:18:15.871346 16790 layer_factory.hpp:77] Creating layer conv2
I0829 16:18:15.871356 16790 net.cpp:84] Creating Layer conv2
I0829 16:18:15.871362 16790 net.cpp:406] conv2 <- norm1
I0829 16:18:15.871368 16790 net.cpp:380] conv2 -> conv2
I0829 16:18:15.880234 16790 net.cpp:122] Setting up conv2
I0829 16:18:15.880254 16790 net.cpp:129] Top shape: 384 256 27 27 (71663616)
I0829 16:18:15.880259 16790 net.cpp:137] Memory required for data: 1868654080
I0829 16:18:15.880271 16790 layer_factory.hpp:77] Creating layer relu2
I0829 16:18:15.880282 16790 net.cpp:84] Creating Layer relu2
I0829 16:18:15.880290 16790 net.cpp:406] relu2 <- conv2
I0829 16:18:15.880296 16790 net.cpp:367] relu2 -> conv2 (in-place)
I0829 16:18:15.880797 16790 net.cpp:122] Setting up relu2
I0829 16:18:15.880808 16790 net.cpp:129] Top shape: 384 256 27 27 (71663616)
I0829 16:18:15.880811 16790 net.cpp:137] Memory required for data: 2155308544
I0829 16:18:15.880816 16790 layer_factory.hpp:77] Creating layer pool2
I0829 16:18:15.880827 16790 net.cpp:84] Creating Layer pool2
I0829 16:18:15.880832 16790 net.cpp:406] pool2 <- conv2
I0829 16:18:15.880839 16790 net.cpp:380] pool2 -> pool2
I0829 16:18:15.880885 16790 net.cpp:122] Setting up pool2
I0829 16:18:15.880892 16790 net.cpp:129] Top shape: 384 256 13 13 (16613376)
I0829 16:18:15.880895 16790 net.cpp:137] Memory required for data: 2221762048
I0829 16:18:15.880899 16790 layer_factory.hpp:77] Creating layer norm2
I0829 16:18:15.880906 16790 net.cpp:84] Creating Layer norm2
I0829 16:18:15.880909 16790 net.cpp:406] norm2 <- pool2
I0829 16:18:15.880914 16790 net.cpp:380] norm2 -> norm2
I0829 16:18:15.881079 16790 net.cpp:122] Setting up norm2
I0829 16:18:15.881088 16790 net.cpp:129] Top shape: 384 256 13 13 (16613376)
I0829 16:18:15.881091 16790 net.cpp:137] Memory required for data: 2288215552
I0829 16:18:15.881095 16790 layer_factory.hpp:77] Creating layer conv3
I0829 16:18:15.881105 16790 net.cpp:84] Creating Layer conv3
I0829 16:18:15.881111 16790 net.cpp:406] conv3 <- norm2
I0829 16:18:15.881117 16790 net.cpp:380] conv3 -> conv3
I0829 16:18:15.889767 16790 net.cpp:122] Setting up conv3
I0829 16:18:15.889788 16790 net.cpp:129] Top shape: 384 384 13 13 (24920064)
I0829 16:18:15.889793 16790 net.cpp:137] Memory required for data: 2387895808
I0829 16:18:15.889806 16790 layer_factory.hpp:77] Creating layer relu3
I0829 16:18:15.889817 16790 net.cpp:84] Creating Layer relu3
I0829 16:18:15.889823 16790 net.cpp:406] relu3 <- conv3
I0829 16:18:15.889832 16790 net.cpp:367] relu3 -> conv3 (in-place)
I0829 16:18:15.889982 16790 net.cpp:122] Setting up relu3
I0829 16:18:15.889991 16790 net.cpp:129] Top shape: 384 384 13 13 (24920064)
I0829 16:18:15.889994 16790 net.cpp:137] Memory required for data: 2487576064
I0829 16:18:15.889998 16790 layer_factory.hpp:77] Creating layer conv4
I0829 16:18:15.890009 16790 net.cpp:84] Creating Layer conv4
I0829 16:18:15.890014 16790 net.cpp:406] conv4 <- conv3
I0829 16:18:15.890020 16790 net.cpp:380] conv4 -> conv4
I0829 16:18:15.899458 16790 net.cpp:122] Setting up conv4
I0829 16:18:15.899479 16790 net.cpp:129] Top shape: 384 384 13 13 (24920064)
I0829 16:18:15.899482 16790 net.cpp:137] Memory required for data: 2587256320
I0829 16:18:15.899492 16790 layer_factory.hpp:77] Creating layer relu4
I0829 16:18:15.899500 16790 net.cpp:84] Creating Layer relu4
I0829 16:18:15.899505 16790 net.cpp:406] relu4 <- conv4
I0829 16:18:15.899511 16790 net.cpp:367] relu4 -> conv4 (in-place)
I0829 16:18:15.906146 16790 net.cpp:122] Setting up relu4
I0829 16:18:15.906165 16790 net.cpp:129] Top shape: 384 384 13 13 (24920064)
I0829 16:18:15.906169 16790 net.cpp:137] Memory required for data: 2686936576
I0829 16:18:15.906174 16790 layer_factory.hpp:77] Creating layer conv5
I0829 16:18:15.906189 16790 net.cpp:84] Creating Layer conv5
I0829 16:18:15.906196 16790 net.cpp:406] conv5 <- conv4
I0829 16:18:15.906205 16790 net.cpp:380] conv5 -> conv5
I0829 16:18:15.912242 16790 net.cpp:122] Setting up conv5
I0829 16:18:15.912263 16790 net.cpp:129] Top shape: 384 256 13 13 (16613376)
I0829 16:18:15.912267 16790 net.cpp:137] Memory required for data: 2753390080
I0829 16:18:15.912281 16790 layer_factory.hpp:77] Creating layer relu5
I0829 16:18:15.912290 16790 net.cpp:84] Creating Layer relu5
I0829 16:18:15.912297 16790 net.cpp:406] relu5 <- conv5
I0829 16:18:15.912303 16790 net.cpp:367] relu5 -> conv5 (in-place)
I0829 16:18:15.912456 16790 net.cpp:122] Setting up relu5
I0829 16:18:15.912464 16790 net.cpp:129] Top shape: 384 256 13 13 (16613376)
I0829 16:18:15.912467 16790 net.cpp:137] Memory required for data: 2819843584
I0829 16:18:15.912472 16790 layer_factory.hpp:77] Creating layer pool5
I0829 16:18:15.912478 16790 net.cpp:84] Creating Layer pool5
I0829 16:18:15.912483 16790 net.cpp:406] pool5 <- conv5
I0829 16:18:15.912489 16790 net.cpp:380] pool5 -> pool5
I0829 16:18:15.912529 16790 net.cpp:122] Setting up pool5
I0829 16:18:15.912536 16790 net.cpp:129] Top shape: 384 256 6 6 (3538944)
I0829 16:18:15.912539 16790 net.cpp:137] Memory required for data: 2833999360
I0829 16:18:15.912542 16790 layer_factory.hpp:77] Creating layer fc6
I0829 16:18:15.912551 16790 net.cpp:84] Creating Layer fc6
I0829 16:18:15.912557 16790 net.cpp:406] fc6 <- pool5
I0829 16:18:15.912564 16790 net.cpp:380] fc6 -> fc6
I0829 16:18:16.200742 16790 net.cpp:122] Setting up fc6
I0829 16:18:16.200764 16790 net.cpp:129] Top shape: 384 4096 (1572864)
I0829 16:18:16.200767 16790 net.cpp:137] Memory required for data: 2840290816
I0829 16:18:16.200775 16790 layer_factory.hpp:77] Creating layer slicer_fc6
I0829 16:18:16.200788 16790 net.cpp:84] Creating Layer slicer_fc6
I0829 16:18:16.200793 16790 net.cpp:406] slicer_fc6 <- fc6
I0829 16:18:16.200800 16790 net.cpp:380] slicer_fc6 -> fc6_source
I0829 16:18:16.200810 16790 net.cpp:380] slicer_fc6 -> fc6_target
I0829 16:18:16.200844 16790 net.cpp:122] Setting up slicer_fc6
I0829 16:18:16.200851 16790 net.cpp:129] Top shape: 256 4096 (1048576)
I0829 16:18:16.200855 16790 net.cpp:129] Top shape: 128 4096 (524288)
I0829 16:18:16.200858 16790 net.cpp:137] Memory required for data: 2846582272
I0829 16:18:16.200861 16790 layer_factory.hpp:77] Creating layer fc6_source/bn
I0829 16:18:16.200870 16790 net.cpp:84] Creating Layer fc6_source/bn
I0829 16:18:16.200873 16790 net.cpp:406] fc6_source/bn <- fc6_source
I0829 16:18:16.200879 16790 net.cpp:380] fc6_source/bn -> fc6_source/bn
I0829 16:18:16.201033 16790 net.cpp:122] Setting up fc6_source/bn
I0829 16:18:16.201041 16790 net.cpp:129] Top shape: 256 4096 (1048576)
I0829 16:18:16.201045 16790 net.cpp:137] Memory required for data: 2850776576
I0829 16:18:16.201051 16790 layer_factory.hpp:77] Creating layer fc6_target/bn
I0829 16:18:16.201057 16790 net.cpp:84] Creating Layer fc6_target/bn
I0829 16:18:16.201061 16790 net.cpp:406] fc6_target/bn <- fc6_target
I0829 16:18:16.201066 16790 net.cpp:380] fc6_target/bn -> fc6_target/bn
I0829 16:18:16.201211 16790 net.cpp:122] Setting up fc6_target/bn
I0829 16:18:16.201218 16790 net.cpp:129] Top shape: 128 4096 (524288)
I0829 16:18:16.201223 16790 net.cpp:137] Memory required for data: 2852873728
I0829 16:18:16.201233 16790 layer_factory.hpp:77] Creating layer concat_wbn_6
I0829 16:18:16.201241 16790 net.cpp:84] Creating Layer concat_wbn_6
I0829 16:18:16.201244 16790 net.cpp:406] concat_wbn_6 <- fc6_source/bn
I0829 16:18:16.201248 16790 net.cpp:406] concat_wbn_6 <- fc6_target/bn
I0829 16:18:16.201253 16790 net.cpp:380] concat_wbn_6 -> fc6/bn
I0829 16:18:16.201270 16790 net.cpp:122] Setting up concat_wbn_6
I0829 16:18:16.201293 16790 net.cpp:129] Top shape: 384 4096 (1572864)
I0829 16:18:16.201297 16790 net.cpp:137] Memory required for data: 2859165184
I0829 16:18:16.201300 16790 layer_factory.hpp:77] Creating layer fc6_scale
I0829 16:18:16.201308 16790 net.cpp:84] Creating Layer fc6_scale
I0829 16:18:16.201311 16790 net.cpp:406] fc6_scale <- fc6/bn
I0829 16:18:16.201318 16790 net.cpp:380] fc6_scale -> fc6/scale
I0829 16:18:16.201352 16790 layer_factory.hpp:77] Creating layer fc6_scale
I0829 16:18:16.201447 16790 net.cpp:122] Setting up fc6_scale
I0829 16:18:16.201454 16790 net.cpp:129] Top shape: 384 4096 (1572864)
I0829 16:18:16.201457 16790 net.cpp:137] Memory required for data: 2865456640
I0829 16:18:16.201462 16790 layer_factory.hpp:77] Creating layer relu6
I0829 16:18:16.201468 16790 net.cpp:84] Creating Layer relu6
I0829 16:18:16.201472 16790 net.cpp:406] relu6 <- fc6/scale
I0829 16:18:16.201478 16790 net.cpp:380] relu6 -> fc6/relu
I0829 16:18:16.201704 16790 net.cpp:122] Setting up relu6
I0829 16:18:16.201712 16790 net.cpp:129] Top shape: 384 4096 (1572864)
I0829 16:18:16.201715 16790 net.cpp:137] Memory required for data: 2871748096
I0829 16:18:16.201720 16790 layer_factory.hpp:77] Creating layer drop6
I0829 16:18:16.201730 16790 net.cpp:84] Creating Layer drop6
I0829 16:18:16.201733 16790 net.cpp:406] drop6 <- fc6/relu
I0829 16:18:16.201738 16790 net.cpp:380] drop6 -> fc6/out
I0829 16:18:16.201774 16790 net.cpp:122] Setting up drop6
I0829 16:18:16.201781 16790 net.cpp:129] Top shape: 384 4096 (1572864)
I0829 16:18:16.201784 16790 net.cpp:137] Memory required for data: 2878039552
I0829 16:18:16.201788 16790 layer_factory.hpp:77] Creating layer fc7
I0829 16:18:16.201797 16790 net.cpp:84] Creating Layer fc7
I0829 16:18:16.201800 16790 net.cpp:406] fc7 <- fc6/out
I0829 16:18:16.201805 16790 net.cpp:380] fc7 -> fc7
I0829 16:18:16.333298 16790 net.cpp:122] Setting up fc7
I0829 16:18:16.333324 16790 net.cpp:129] Top shape: 384 4096 (1572864)
I0829 16:18:16.333328 16790 net.cpp:137] Memory required for data: 2884331008
I0829 16:18:16.333338 16790 layer_factory.hpp:77] Creating layer slicer_fc7
I0829 16:18:16.333351 16790 net.cpp:84] Creating Layer slicer_fc7
I0829 16:18:16.333358 16790 net.cpp:406] slicer_fc7 <- fc7
I0829 16:18:16.333365 16790 net.cpp:380] slicer_fc7 -> fc7_source
I0829 16:18:16.333375 16790 net.cpp:380] slicer_fc7 -> fc7_target
I0829 16:18:16.333412 16790 net.cpp:122] Setting up slicer_fc7
I0829 16:18:16.333420 16790 net.cpp:129] Top shape: 256 4096 (1048576)
I0829 16:18:16.333425 16790 net.cpp:129] Top shape: 128 4096 (524288)
I0829 16:18:16.333428 16790 net.cpp:137] Memory required for data: 2890622464
I0829 16:18:16.333433 16790 layer_factory.hpp:77] Creating layer fc7_source/bn
I0829 16:18:16.333441 16790 net.cpp:84] Creating Layer fc7_source/bn
I0829 16:18:16.333446 16790 net.cpp:406] fc7_source/bn <- fc7_source
I0829 16:18:16.333452 16790 net.cpp:380] fc7_source/bn -> fc7_source/bn
I0829 16:18:16.333606 16790 net.cpp:122] Setting up fc7_source/bn
I0829 16:18:16.333616 16790 net.cpp:129] Top shape: 256 4096 (1048576)
I0829 16:18:16.333619 16790 net.cpp:137] Memory required for data: 2894816768
I0829 16:18:16.333627 16790 layer_factory.hpp:77] Creating layer fc7_target/bn
I0829 16:18:16.333633 16790 net.cpp:84] Creating Layer fc7_target/bn
I0829 16:18:16.333637 16790 net.cpp:406] fc7_target/bn <- fc7_target
I0829 16:18:16.333642 16790 net.cpp:380] fc7_target/bn -> fc7_target/bn
I0829 16:18:16.333789 16790 net.cpp:122] Setting up fc7_target/bn
I0829 16:18:16.333797 16790 net.cpp:129] Top shape: 128 4096 (524288)
I0829 16:18:16.333802 16790 net.cpp:137] Memory required for data: 2896913920
I0829 16:18:16.333809 16790 layer_factory.hpp:77] Creating layer concat_wbn_7
I0829 16:18:16.333817 16790 net.cpp:84] Creating Layer concat_wbn_7
I0829 16:18:16.333822 16790 net.cpp:406] concat_wbn_7 <- fc7_source/bn
I0829 16:18:16.333827 16790 net.cpp:406] concat_wbn_7 <- fc7_target/bn
I0829 16:18:16.333830 16790 net.cpp:380] concat_wbn_7 -> fc7/bn
I0829 16:18:16.333848 16790 net.cpp:122] Setting up concat_wbn_7
I0829 16:18:16.333873 16790 net.cpp:129] Top shape: 384 4096 (1572864)
I0829 16:18:16.333876 16790 net.cpp:137] Memory required for data: 2903205376
I0829 16:18:16.333880 16790 layer_factory.hpp:77] Creating layer fc7_scale
I0829 16:18:16.333887 16790 net.cpp:84] Creating Layer fc7_scale
I0829 16:18:16.333894 16790 net.cpp:406] fc7_scale <- fc7/bn
I0829 16:18:16.333899 16790 net.cpp:380] fc7_scale -> fc7/scale
I0829 16:18:16.333933 16790 layer_factory.hpp:77] Creating layer fc7_scale
I0829 16:18:16.334022 16790 net.cpp:122] Setting up fc7_scale
I0829 16:18:16.334029 16790 net.cpp:129] Top shape: 384 4096 (1572864)
I0829 16:18:16.334034 16790 net.cpp:137] Memory required for data: 2909496832
I0829 16:18:16.334039 16790 layer_factory.hpp:77] Creating layer relu7
I0829 16:18:16.334046 16790 net.cpp:84] Creating Layer relu7
I0829 16:18:16.334049 16790 net.cpp:406] relu7 <- fc7/scale
I0829 16:18:16.334055 16790 net.cpp:380] relu7 -> fc7/relu
I0829 16:18:16.334800 16790 net.cpp:122] Setting up relu7
I0829 16:18:16.334812 16790 net.cpp:129] Top shape: 384 4096 (1572864)
I0829 16:18:16.334816 16790 net.cpp:137] Memory required for data: 2915788288
I0829 16:18:16.334821 16790 layer_factory.hpp:77] Creating layer drop7
I0829 16:18:16.334830 16790 net.cpp:84] Creating Layer drop7
I0829 16:18:16.334832 16790 net.cpp:406] drop7 <- fc7/relu
I0829 16:18:16.334838 16790 net.cpp:380] drop7 -> fc7/out
I0829 16:18:16.334873 16790 net.cpp:122] Setting up drop7
I0829 16:18:16.334880 16790 net.cpp:129] Top shape: 384 4096 (1572864)
I0829 16:18:16.334885 16790 net.cpp:137] Memory required for data: 2922079744
I0829 16:18:16.334889 16790 layer_factory.hpp:77] Creating layer bottleneck
I0829 16:18:16.334897 16790 net.cpp:84] Creating Layer bottleneck
I0829 16:18:16.334902 16790 net.cpp:406] bottleneck <- fc7/out
I0829 16:18:16.334906 16790 net.cpp:380] bottleneck -> bottleneck
I0829 16:18:16.347044 16790 net.cpp:122] Setting up bottleneck
I0829 16:18:16.347076 16790 net.cpp:129] Top shape: 384 256 (98304)
I0829 16:18:16.347081 16790 net.cpp:137] Memory required for data: 2922472960
I0829 16:18:16.347092 16790 layer_factory.hpp:77] Creating layer bottleneck_bottleneck_0_split
I0829 16:18:16.347105 16790 net.cpp:84] Creating Layer bottleneck_bottleneck_0_split
I0829 16:18:16.347111 16790 net.cpp:406] bottleneck_bottleneck_0_split <- bottleneck
I0829 16:18:16.347121 16790 net.cpp:380] bottleneck_bottleneck_0_split -> bottleneck_bottleneck_0_split_0
I0829 16:18:16.347132 16790 net.cpp:380] bottleneck_bottleneck_0_split -> bottleneck_bottleneck_0_split_1
I0829 16:18:16.347179 16790 net.cpp:122] Setting up bottleneck_bottleneck_0_split
I0829 16:18:16.347190 16790 net.cpp:129] Top shape: 384 256 (98304)
I0829 16:18:16.347195 16790 net.cpp:129] Top shape: 384 256 (98304)
I0829 16:18:16.347200 16790 net.cpp:137] Memory required for data: 2923259392
I0829 16:18:16.347205 16790 layer_factory.hpp:77] Creating layer slicer_bottle
I0829 16:18:16.347216 16790 net.cpp:84] Creating Layer slicer_bottle
I0829 16:18:16.347221 16790 net.cpp:406] slicer_bottle <- bottleneck_bottleneck_0_split_0
I0829 16:18:16.347229 16790 net.cpp:380] slicer_bottle -> bottleneck_source
I0829 16:18:16.347239 16790 net.cpp:380] slicer_bottle -> bottleneck_target
I0829 16:18:16.347283 16790 net.cpp:122] Setting up slicer_bottle
I0829 16:18:16.347292 16790 net.cpp:129] Top shape: 256 256 (65536)
I0829 16:18:16.347298 16790 net.cpp:129] Top shape: 128 256 (32768)
I0829 16:18:16.347302 16790 net.cpp:137] Memory required for data: 2923652608
I0829 16:18:16.347307 16790 layer_factory.hpp:77] Creating layer silence_target_feature
I0829 16:18:16.347314 16790 net.cpp:84] Creating Layer silence_target_feature
I0829 16:18:16.347319 16790 net.cpp:406] silence_target_feature <- bottleneck_target
I0829 16:18:16.347324 16790 net.cpp:122] Setting up silence_target_feature
I0829 16:18:16.347331 16790 net.cpp:137] Memory required for data: 2923652608
I0829 16:18:16.347334 16790 layer_factory.hpp:77] Creating layer grl
I0829 16:18:16.347342 16790 net.cpp:84] Creating Layer grl
I0829 16:18:16.347347 16790 net.cpp:406] grl <- bottleneck_source
I0829 16:18:16.347376 16790 net.cpp:380] grl -> grl
I0829 16:18:16.347388 16790 messenger.hpp:36] Adding listener for message SOLVER_ITER_CHANGED
I0829 16:18:16.347421 16790 net.cpp:122] Setting up grl
I0829 16:18:16.347430 16790 net.cpp:129] Top shape: 256 256 (65536)
I0829 16:18:16.347435 16790 net.cpp:137] Memory required for data: 2923914752
I0829 16:18:16.347441 16790 layer_factory.hpp:77] Creating layer dc_ip1
I0829 16:18:16.347450 16790 net.cpp:84] Creating Layer dc_ip1
I0829 16:18:16.347455 16790 net.cpp:406] dc_ip1 <- grl
I0829 16:18:16.347463 16790 net.cpp:380] dc_ip1 -> dc_ip1
I0829 16:18:16.351759 16790 net.cpp:122] Setting up dc_ip1
I0829 16:18:16.351783 16790 net.cpp:129] Top shape: 256 1024 (262144)
I0829 16:18:16.351788 16790 net.cpp:137] Memory required for data: 2924963328
I0829 16:18:16.351806 16790 layer_factory.hpp:77] Creating layer dc_relu1
I0829 16:18:16.351820 16790 net.cpp:84] Creating Layer dc_relu1
I0829 16:18:16.351828 16790 net.cpp:406] dc_relu1 <- dc_ip1
I0829 16:18:16.351837 16790 net.cpp:367] dc_relu1 -> dc_ip1 (in-place)
I0829 16:18:16.352110 16790 net.cpp:122] Setting up dc_relu1
I0829 16:18:16.352121 16790 net.cpp:129] Top shape: 256 1024 (262144)
I0829 16:18:16.352125 16790 net.cpp:137] Memory required for data: 2926011904
I0829 16:18:16.352130 16790 layer_factory.hpp:77] Creating layer dc_drop1
I0829 16:18:16.352140 16790 net.cpp:84] Creating Layer dc_drop1
I0829 16:18:16.352145 16790 net.cpp:406] dc_drop1 <- dc_ip1
I0829 16:18:16.352152 16790 net.cpp:367] dc_drop1 -> dc_ip1 (in-place)
I0829 16:18:16.352183 16790 net.cpp:122] Setting up dc_drop1
I0829 16:18:16.352193 16790 net.cpp:129] Top shape: 256 1024 (262144)
I0829 16:18:16.352198 16790 net.cpp:137] Memory required for data: 2927060480
I0829 16:18:16.352202 16790 layer_factory.hpp:77] Creating layer dc_ip2
I0829 16:18:16.352212 16790 net.cpp:84] Creating Layer dc_ip2
I0829 16:18:16.352219 16790 net.cpp:406] dc_ip2 <- dc_ip1
I0829 16:18:16.352228 16790 net.cpp:380] dc_ip2 -> dc_ip2
I0829 16:18:16.365739 16790 net.cpp:122] Setting up dc_ip2
I0829 16:18:16.365772 16790 net.cpp:129] Top shape: 256 1024 (262144)
I0829 16:18:16.365778 16790 net.cpp:137] Memory required for data: 2928109056
I0829 16:18:16.365790 16790 layer_factory.hpp:77] Creating layer dc_relu2
I0829 16:18:16.365804 16790 net.cpp:84] Creating Layer dc_relu2
I0829 16:18:16.365815 16790 net.cpp:406] dc_relu2 <- dc_ip2
I0829 16:18:16.365826 16790 net.cpp:367] dc_relu2 -> dc_ip2 (in-place)
I0829 16:18:16.366122 16790 net.cpp:122] Setting up dc_relu2
I0829 16:18:16.366134 16790 net.cpp:129] Top shape: 256 1024 (262144)
I0829 16:18:16.366139 16790 net.cpp:137] Memory required for data: 2929157632
I0829 16:18:16.366145 16790 layer_factory.hpp:77] Creating layer dc_drop2
I0829 16:18:16.366155 16790 net.cpp:84] Creating Layer dc_drop2
I0829 16:18:16.366163 16790 net.cpp:406] dc_drop2 <- dc_ip2
I0829 16:18:16.366171 16790 net.cpp:367] dc_drop2 -> dc_ip2 (in-place)
I0829 16:18:16.366204 16790 net.cpp:122] Setting up dc_drop2
I0829 16:18:16.366214 16790 net.cpp:129] Top shape: 256 1024 (262144)
I0829 16:18:16.366219 16790 net.cpp:137] Memory required for data: 2930206208
I0829 16:18:16.366225 16790 layer_factory.hpp:77] Creating layer dc_ip3
I0829 16:18:16.366235 16790 net.cpp:84] Creating Layer dc_ip3
I0829 16:18:16.366242 16790 net.cpp:406] dc_ip3 <- dc_ip2
I0829 16:18:16.366250 16790 net.cpp:380] dc_ip3 -> dc_ip3
I0829 16:18:16.366384 16790 net.cpp:122] Setting up dc_ip3
I0829 16:18:16.366395 16790 net.cpp:129] Top shape: 256 1 (256)
I0829 16:18:16.366400 16790 net.cpp:137] Memory required for data: 2930207232
I0829 16:18:16.366407 16790 layer_factory.hpp:77] Creating layer dc_ip3_dc_ip3_0_split
I0829 16:18:16.366415 16790 net.cpp:84] Creating Layer dc_ip3_dc_ip3_0_split
I0829 16:18:16.366421 16790 net.cpp:406] dc_ip3_dc_ip3_0_split <- dc_ip3
I0829 16:18:16.366428 16790 net.cpp:380] dc_ip3_dc_ip3_0_split -> dc_ip3_dc_ip3_0_split_0
I0829 16:18:16.366439 16790 net.cpp:380] dc_ip3_dc_ip3_0_split -> dc_ip3_dc_ip3_0_split_1
I0829 16:18:16.366479 16790 net.cpp:122] Setting up dc_ip3_dc_ip3_0_split
I0829 16:18:16.366504 16790 net.cpp:129] Top shape: 256 1 (256)
I0829 16:18:16.366510 16790 net.cpp:129] Top shape: 256 1 (256)
I0829 16:18:16.366515 16790 net.cpp:137] Memory required for data: 2930209280
I0829 16:18:16.366520 16790 layer_factory.hpp:77] Creating layer dc_loss
I0829 16:18:16.366533 16790 net.cpp:84] Creating Layer dc_loss
I0829 16:18:16.366539 16790 net.cpp:406] dc_loss <- dc_ip3_dc_ip3_0_split_0
I0829 16:18:16.366546 16790 net.cpp:406] dc_loss <- domain_labels_concat_domain_labels_0_split_0
I0829 16:18:16.366556 16790 net.cpp:380] dc_loss -> dc_loss
…
I0829 16:18:16.366694 16790 net.cpp:380] dc_accuracy -> domain_accuracy
I0829 16:18:16.366705 16790 net.cpp:122] Setting up dc_accuracy
I0829 16:18:16.366713 16790 net.cpp:129] Top shape: (1)
I0829 16:18:16.366717 16790 net.cpp:137] Memory required for data: 2930209288
I0829 16:18:16.366722 16790 layer_factory.hpp:77] Creating layer office-fc8
I0829 16:18:16.366730 16790 net.cpp:84] Creating Layer office-fc8
I0829 16:18:16.366739 16790 net.cpp:406] office-fc8 <- bottleneck_bottleneck_0_split_1
I0829 16:18:16.366746 16790 net.cpp:380] office-fc8 -> fc8
I0829 16:18:16.368264 16790 net.cpp:122] Setting up office-fc8
I0829 16:18:16.368281 16790 net.cpp:129] Top shape: 384 31 (11904)
I0829 16:18:16.368286 16790 net.cpp:137] Memory required for data: 2930256904
I0829 16:18:16.368296 16790 layer_factory.hpp:77] Creating layer slicer_fc8
I0829 16:18:16.368309 16790 net.cpp:84] Creating Layer slicer_fc8
I0829 16:18:16.368316 16790 net.cpp:406] slicer_fc8 <- fc8
I0829 16:18:16.368325 16790 net.cpp:380] slicer_fc8 -> fc8_source
I0829 16:18:16.368335 16790 net.cpp:380] slicer_fc8 -> fc8_target
I0829 16:18:16.368384 16790 net.cpp:122] Setting up slicer_fc8
I0829 16:18:16.368393 16790 net.cpp:129] Top shape: 256 31 (7936)
I0829 16:18:16.368399 16790 net.cpp:129] Top shape: 128 31 (3968)
I0829 16:18:16.368403 16790 net.cpp:137] Memory required for data: 2930304520
I0829 16:18:16.368408 16790 layer_factory.hpp:77] Creating layer fc8_source/bn
I0829 16:18:16.368418 16790 net.cpp:84] Creating Layer fc8_source/bn
I0829 16:18:16.368425 16790 net.cpp:406] fc8_source/bn <- fc8_source
I0829 16:18:16.368433 16790 net.cpp:380] fc8_source/bn -> fc8_source/bn
I0829 16:18:16.368672 16790 net.cpp:122] Setting up fc8_source/bn
I0829 16:18:16.368682 16790 net.cpp:129] Top shape: 256 31 (7936)
I0829 16:18:16.368687 16790 net.cpp:137] Memory required for data: 2930336264
I0829 16:18:16.368697 16790 layer_factory.hpp:77] Creating layer fc8_target/bn
I0829 16:18:16.368710 16790 net.cpp:84] Creating Layer fc8_target/bn
I0829 16:18:16.368715 16790 net.cpp:406] fc8_target/bn <- fc8_target
I0829 16:18:16.368721 16790 net.cpp:380] fc8_target/bn -> fc8_target/bn
I0829 16:18:16.368950 16790 net.cpp:122] Setting up fc8_target/bn
I0829 16:18:16.368962 16790 net.cpp:129] Top shape: 128 31 (3968)
I0829 16:18:16.368966 16790 net.cpp:137] Memory required for data: 2930352136
I0829 16:18:16.368976 16790 layer_factory.hpp:77] Creating layer concat_wbn_8
I0829 16:18:16.368988 16790 net.cpp:84] Creating Layer concat_wbn_8
I0829 16:18:16.368994 16790 net.cpp:406] concat_wbn_8 <- fc8_source/bn
I0829 16:18:16.369000 16790 net.cpp:406] concat_wbn_8 <- fc8_target/bn
I0829 16:18:16.369007 16790 net.cpp:380] concat_wbn_8 -> fc8/bn
I0829 16:18:16.369035 16790 net.cpp:122] Setting up concat_wbn_8
I0829 16:18:16.369045 16790 net.cpp:129] Top shape: 384 31 (11904)
I0829 16:18:16.369050 16790 net.cpp:137] Memory required for data: 2930399752
I0829 16:18:16.369069 16790 layer_factory.hpp:77] Creating layer fc8_scale
I0829 16:18:16.369079 16790 net.cpp:84] Creating Layer fc8_scale
I0829 16:18:16.369087 16790 net.cpp:406] fc8_scale <- fc8/bn
I0829 16:18:16.369096 16790 net.cpp:380] fc8_scale -> fc8/scale
I0829 16:18:16.369148 16790 layer_factory.hpp:77] Creating layer fc8_scale
I0829 16:18:16.369284 16790 net.cpp:122] Setting up fc8_scale
I0829 16:18:16.369295 16790 net.cpp:129] Top shape: 384 31 (11904)
I0829 16:18:16.369300 16790 net.cpp:137] Memory required for data: 2930447368
I0829 16:18:16.369308 16790 layer_factory.hpp:77] Creating layer slicer_scorer
I0829 16:18:16.369315 16790 net.cpp:84] Creating Layer slicer_scorer
I0829 16:18:16.369325 16790 net.cpp:406] slicer_scorer <- fc8/scale
I0829 16:18:16.369333 16790 net.cpp:380] slicer_scorer -> score_source
I0829 16:18:16.369343 16790 net.cpp:380] slicer_scorer -> score_target
I0829 16:18:16.369400 16790 net.cpp:122] Setting up slicer_scorer
I0829 16:18:16.369410 16790 net.cpp:129] Top shape: 256 31 (7936)
I0829 16:18:16.369416 16790 net.cpp:129] Top shape: 128 31 (3968)
I0829 16:18:16.369421 16790 net.cpp:137] Memory required for data: 2930494984
I0829 16:18:16.369427 16790 layer_factory.hpp:77] Creating layer score_source_slicer_scorer_0_split
I0829 16:18:16.369437 16790 net.cpp:84] Creating Layer score_source_slicer_scorer_0_split
I0829 16:18:16.369442 16790 net.cpp:406] score_source_slicer_scorer_0_split <- score_source
I0829 16:18:16.369451 16790 net.cpp:380] score_source_slicer_scorer_0_split -> score_source_slicer_scorer_0_split_0
I0829 16:18:16.369458 16790 net.cpp:380] score_source_slicer_scorer_0_split -> score_source_slicer_scorer_0_split_1
I0829 16:18:16.369503 16790 net.cpp:122] Setting up score_source_slicer_scorer_0_split
I0829 16:18:16.369513 16790 net.cpp:129] Top shape: 256 31 (7936)
I0829 16:18:16.369519 16790 net.cpp:129] Top shape: 256 31 (7936)
I0829 16:18:16.369524 16790 net.cpp:137] Memory required for data: 2930558472
I0829 16:18:16.369529 16790 layer_factory.hpp:77] Creating layer loss
I0829 16:18:16.369544 16790 net.cpp:84] Creating Layer loss
I0829 16:18:16.369552 16790 net.cpp:406] loss <- score_source_slicer_scorer_0_split_0
I0829 16:18:16.369559 16790 net.cpp:406] loss <- label_label_0_split_0
I0829 16:18:16.369570 16790 net.cpp:380] loss -> loss
…
I0829 16:18:16.827788 16790 net.cpp:294] The NetState phase (1) differed from the phase (0) specified by a rule in layer silence_target
I0829 16:18:16.827981 16790 net.cpp:51] Initializing net from parameters: 
name: "CaffeNet"
state {
  phase: TEST
}
layer {
  name: "data"
  type: "ImageData"
  top: "data"
  top: "label"
  include {
    phase: TEST
  }
  transform_param {
    mirror: false
    crop_size: 224
    mean_value: 104
    mean_value: 117
    mean_value: 123
  }
  image_data_param {
    source: "/home/alfa/Documents/msda/mywork/data/office/office_d.txt"
    batch_size: 1
    shuffle: false
    new_height: 256
    new_width: 256
    is_color: true
  }
}
layer {
  name: "conv1"
  type: "Convolution"
  bottom: "data"
  top: "conv1"
  param {
    lr_mult: 1
    decay_mult: 1
  }
  param {
    lr_mult: 2
    decay_mult: 0
  }
  convolution_param {
    num_output: 96
    kernel_size: 11
    stride: 4
    weight_filler {
      type: "gaussian"
      std: 0.01
    }
    bias_filler {
      type: "constant"
      value: 0
    }
  }
}
layer {
  name: "relu1"
  type: "ReLU"
  bottom: "conv1"
  top: "conv1"
}
layer {
  name: "pool1"
  type: "Pooling"
  bottom: "conv1"
  top: "pool1"
  pooling_param {
    pool: MAX
    kernel_size: 3
    stride: 2
  }
}
layer {
  name: "norm1"
  type: "LRN"
  bottom: "pool1"
  top: "norm1"
  lrn_param {
    local_size: 5
    alpha: 0.0001
    beta: 0.75
  }
}
layer {
  name: "conv2"
  type: "Convolution"
  bottom: "norm1"
  top: "conv2"
  param {
    lr_mult: 1
    decay_mult: 1
  }
  param {
    lr_mult: 2
    decay_mult: 0
  }
  convolution_param {
    num_output: 256
    pad: 2
    kernel_size: 5
    group: 2
    weight_filler {
      type: "gaussian"
      std: 0.01
    }
    bias_filler {
      type: "constant"
      value: 1
    }
  }
}
layer {
  name: "relu2"
  type: "ReLU"
  bottom: "conv2"
  top: "conv2"
}
layer {
  name: "pool2"
  type: "Pooling"
  bottom: "conv2"
  top: "pool2"
  pooling_param {
    pool: MAX
    kernel_size: 3
    stride: 2
  }
}
layer {
  name: "norm2"
  type: "LRN"
  bottom: "pool2"
  top: "norm2"
  lrn_param {
    local_size: 5
    alpha: 0.0001
    beta: 0.75
  }
}
layer {
  name: "conv3"
  type: "Convolution"
  bottom: "norm2"
  top: "conv3"
  param {
    lr_mult: 1
    decay_mult: 1
  }
  param {
    lr_mult: 2
    decay_mult: 0
  }
  convolution_param {
    num_output: 384
    pad: 1
    kernel_size: 3
    weight_filler {
      type: "gaussian"
      std: 0.01
    }
    bias_filler {
      type: "constant"
      value: 0
    }
  }
}
layer {
  name: "relu3"
  type: "ReLU"
  bottom: "conv3"
  top: "conv3"
}
layer {
  name: "conv4"
  type: "Convolution"
  bottom: "conv3"
  top: "conv4"
  param {
    lr_mult: 1
    decay_mult: 1
  }
  param {
    lr_mult: 2
    decay_mult: 0
  }
  convolution_param {
    num_output: 384
    pad: 1
    kernel_size: 3
    group: 2
    weight_filler {
      type: "gaussian"
      std: 0.01
    }
    bias_filler {
      type: "constant"
      value: 1
    }
  }
}
layer {
  name: "relu4"
  type: "ReLU"
  bottom: "conv4"
  top: "conv4"
}
layer {
  name: "conv5"
  type: "Convolution"
  bottom: "conv4"
  top: "conv5"
  param {
    lr_mult: 1
    decay_mult: 1
  }
  param {
    lr_mult: 2
    decay_mult: 0
  }
  convolution_param {
    num_output: 256
    pad: 1
    kernel_size: 3
    group: 2
    weight_filler {
      type: "gaussian"
      std: 0.01
    }
    bias_filler {
      type: "constant"
      value: 1
    }
  }
}
layer {
  name: "relu5"
  type: "ReLU"
  bottom: "conv5"
  top: "conv5"
}
layer {
  name: "pool5"
  type: "Pooling"
  bottom: "conv5"
  top: "pool5"
  pooling_param {
    pool: MAX
    kernel_size: 3
    stride: 2
  }
}
layer {
  name: "fc6"
  type: "InnerProduct"
  bottom: "pool5"
  top: "fc6"
  param {
    lr_mult: 1
    decay_mult: 1
  }
  param {
    lr_mult: 2
    decay_mult: 0
  }
  inner_product_param {
    num_output: 4096
    weight_filler {
      type: "gaussian"
      std: 0.005
    }
    bias_filler {
      type: "constant"
      value: 0
    }
  }
}
layer {
  name: "fc6_target/bn"
  type: "BatchNorm"
  bottom: "fc6"
  top: "fc6/bn"
  param {
    lr_mult: 0
    decay_mult: 0
  }
  param {
    lr_mult: 0
    decay_mult: 0
  }
  param {
    lr_mult: 0
    decay_mult: 0
  }
  include {
    phase: TEST
  }
  batch_norm_param {
    moving_average_fraction: 0.95
  }
}
layer {
  name: "fc6_scale"
  type: "Scale"
  bottom: "fc6/bn"
  top: "fc6/scale"
  param {
    lr_mult: 1
    decay_mult: 0
  }
  param {
    lr_mult: 1
    decay_mult: 0
  }
  scale_param {
    axis: 1
    num_axes: 1
    filler {
      type: "constant"
      value: 1
    }
    bias_term: true
    bias_filler {
      type: "constant"
      value: 0
    }
  }
}
layer {
  name: "relu6"
  type: "ReLU"
  bottom: "fc6/scale"
  top: "fc6/relu"
}
layer {
  name: "drop6"
  type: "Dropout"
  bottom: "fc6/relu"
  top: "fc6/out"
  dropout_param {
    dropout_ratio: 0.5
  }
}
layer {
  name: "fc7"
  type: "InnerProduct"
  bottom: "fc6/out"
  top: "fc7"
  param {
    lr_mult: 10
    decay_mult: 1
  }
  param {
    lr_mult: 20
    decay_mult: 0
  }
  inner_product_param {
    num_output: 4096
    weight_filler {
      type: "gaussian"
      std: 0.005
    }
    bias_filler {
      type: "constant"
      value: 0
    }
  }
}
layer {
  name: "fc7_target/bn"
  type: "BatchNorm"
  bottom: "fc7"
  top: "fc7/bn"
  param {
    lr_mult: 0
    decay_mult: 0
  }
  param {
    lr_mult: 0
    decay_mult: 0
  }
  param {
    lr_mult: 0
    decay_mult: 0
  }
  include {
    phase: TEST
  }
  batch_norm_param {
    moving_average_fraction: 0.95
  }
}
layer {
  name: "fc7_scale"
  type: "Scale"
  bottom: "fc7/bn"
  top: "fc7/scale"
  param {
    lr_mult: 1
    decay_mult: 0
  }
  param {
    lr_mult: 1
    decay_mult: 0
  }
  scale_param {
    axis: 1
    num_axes: 1
    filler {
      type: "constant"
      value: 1
    }
    bias_term: true
    bias_filler {
      type: "constant"
      value: 0
    }
  }
}
layer {
  name: "relu7"
  type: "ReLU"
  bottom: "fc7/scale"
  top: "fc7/relu"
}
layer {
  name: "drop7"
  type: "Dropout"
  bottom: "fc7/relu"
  top: "fc7/out"
  dropout_param {
    dropout_ratio: 0.5
  }
}
layer {
  name: "bottleneck"
  type: "InnerProduct"
  bottom: "fc7/out"
  top: "bottleneck"
  param {
    lr_mult: 10
    decay_mult: 1
  }
  param {
    lr_mult: 20
    decay_mult: 0
  }
  inner_product_param {
    num_output: 256
    weight_filler {
      type: "gaussian"
      std: 0.005
    }
    bias_filler {
      type: "constant"
      value: 0
    }
  }
}
layer {
  name: "office-fc8"
  type: "InnerProduct"
  bottom: "bottleneck"
  top: "fc8"
  param {
    lr_mult: 10
    decay_mult: 1
  }
  param {
    lr_mult: 20
    decay_mult: 0
  }
  inner_product_param {
    num_output: 31
    weight_filler {
      type: "gaussian"
      std: 0.01
    }
    bias_filler {
      type: "constant"
      value: 0
    }
  }
}
layer {
  name: "fc8_target/bn"
  type: "BatchNorm"
  bottom: "fc8"
  top: "fc8/bn"
  param {
    lr_mult: 0
    decay_mult: 0
  }
  param {
    lr_mult: 0
    decay_mult: 0
  }
  param {
    lr_mult: 0
    decay_mult: 0
  }
  include {
    phase: TEST
  }
  batch_norm_param {
    moving_average_fraction: 0.95
  }
}
layer {
  name: "fc8_scale"
  type: "Scale"
  bottom: "fc8/bn"
  top: "fc8/scale"
  param {
    lr_mult: 1
    decay_mult: 0
  }
  param {
    lr_mult: 1
    decay_mult: 0
  }
  scale_param {
    axis: 1
    num_axes: 1
    filler {
      type: "constant"
      value: 1
    }
    bias_term: true
    bias_filler {
      type: "constant"
      value: 0
    }
  }
}
layer {
  name: "accuracy"
  type: "Accuracy"
  bottom: "fc8/scale"
  bottom: "label"
  top: "accuracy"
  include {
    phase: TEST
  }
}
I0829 16:18:16.828058 16790 layer_factory.hpp:77] Creating layer data
I0829 16:18:16.828071 16790 net.cpp:84] Creating Layer data
I0829 16:18:16.828078 16790 net.cpp:380] data -> data
I0829 16:18:16.828085 16790 net.cpp:380] data -> label
I0829 16:18:16.828094 16790 image_data_layer.cpp:38] Opening file /home/alfa/Documents/msda/mywork/data/office/office_d.txt
I0829 16:18:16.828290 16790 image_data_layer.cpp:63] A total of 498 images.
I0829 16:18:16.833596 16790 image_data_layer.cpp:90] output data size: 1,3,224,224
I0829 16:18:16.835597 16790 net.cpp:122] Setting up data
I0829 16:18:16.835614 16790 net.cpp:129] Top shape: 1 3 224 224 (150528)
I0829 16:18:16.835619 16790 net.cpp:129] Top shape: 1 (1)
I0829 16:18:16.835623 16790 net.cpp:137] Memory required for data: 602116
I0829 16:18:16.835629 16790 layer_factory.hpp:77] Creating layer conv1
I0829 16:18:16.835646 16790 net.cpp:84] Creating Layer conv1
I0829 16:18:16.835652 16790 net.cpp:406] conv1 <- data
I0829 16:18:16.835661 16790 net.cpp:380] conv1 -> conv1
I0829 16:18:16.837168 16790 net.cpp:122] Setting up conv1
I0829 16:18:16.837182 16790 net.cpp:129] Top shape: 1 96 54 54 (279936)
I0829 16:18:16.837188 16790 net.cpp:137] Memory required for data: 1721860
I0829 16:18:16.837199 16790 layer_factory.hpp:77] Creating layer relu1
I0829 16:18:16.837209 16790 net.cpp:84] Creating Layer relu1
I0829 16:18:16.837213 16790 net.cpp:406] relu1 <- conv1
I0829 16:18:16.837218 16790 net.cpp:367] relu1 -> conv1 (in-place)
I0829 16:18:16.837368 16790 net.cpp:122] Setting up relu1
I0829 16:18:16.837376 16790 net.cpp:129] Top shape: 1 96 54 54 (279936)
I0829 16:18:16.837379 16790 net.cpp:137] Memory required for data: 2841604
I0829 16:18:16.837383 16790 layer_factory.hpp:77] Creating layer pool1
I0829 16:18:16.837391 16790 net.cpp:84] Creating Layer pool1
I0829 16:18:16.837396 16790 net.cpp:406] pool1 <- conv1
I0829 16:18:16.837401 16790 net.cpp:380] pool1 -> pool1
I0829 16:18:16.837440 16790 net.cpp:122] Setting up pool1
I0829 16:18:16.837446 16790 net.cpp:129] Top shape: 1 96 27 27 (69984)
I0829 16:18:16.837450 16790 net.cpp:137] Memory required for data: 3121540
I0829 16:18:16.837455 16790 layer_factory.hpp:77] Creating layer norm1
I0829 16:18:16.837462 16790 net.cpp:84] Creating Layer norm1
I0829 16:18:16.837468 16790 net.cpp:406] norm1 <- pool1
I0829 16:18:16.837474 16790 net.cpp:380] norm1 -> norm1
I0829 16:18:16.837640 16790 net.cpp:122] Setting up norm1
I0829 16:18:16.837647 16790 net.cpp:129] Top shape: 1 96 27 27 (69984)
I0829 16:18:16.837651 16790 net.cpp:137] Memory required for data: 3401476
I0829 16:18:16.837656 16790 layer_factory.hpp:77] Creating layer conv2
I0829 16:18:16.837666 16790 net.cpp:84] Creating Layer conv2
I0829 16:18:16.837671 16790 net.cpp:406] conv2 <- norm1
I0829 16:18:16.837677 16790 net.cpp:380] conv2 -> conv2
I0829 16:18:16.842520 16790 net.cpp:122] Setting up conv2
I0829 16:18:16.842541 16790 net.cpp:129] Top shape: 1 256 27 27 (186624)
I0829 16:18:16.842545 16790 net.cpp:137] Memory required for data: 4147972
I0829 16:18:16.842558 16790 layer_factory.hpp:77] Creating layer relu2
I0829 16:18:16.842569 16790 net.cpp:84] Creating Layer relu2
I0829 16:18:16.842576 16790 net.cpp:406] relu2 <- conv2
I0829 16:18:16.842583 16790 net.cpp:367] relu2 -> conv2 (in-place)
I0829 16:18:16.843138 16790 net.cpp:122] Setting up relu2
I0829 16:18:16.843149 16790 net.cpp:129] Top shape: 1 256 27 27 (186624)
I0829 16:18:16.843154 16790 net.cpp:137] Memory required for data: 4894468
I0829 16:18:16.843161 16790 layer_factory.hpp:77] Creating layer pool2
I0829 16:18:16.843170 16790 net.cpp:84] Creating Layer pool2
I0829 16:18:16.843174 16790 net.cpp:406] pool2 <- conv2
I0829 16:18:16.843183 16790 net.cpp:380] pool2 -> pool2
I0829 16:18:16.843252 16790 net.cpp:122] Setting up pool2
I0829 16:18:16.843262 16790 net.cpp:129] Top shape: 1 256 13 13 (43264)
I0829 16:18:16.843268 16790 net.cpp:137] Memory required for data: 5067524
I0829 16:18:16.843273 16790 layer_factory.hpp:77] Creating layer norm2
I0829 16:18:16.843286 16790 net.cpp:84] Creating Layer norm2
I0829 16:18:16.843292 16790 net.cpp:406] norm2 <- pool2
I0829 16:18:16.843297 16790 net.cpp:380] norm2 -> norm2
I0829 16:18:16.843480 16790 net.cpp:122] Setting up norm2
I0829 16:18:16.843488 16790 net.cpp:129] Top shape: 1 256 13 13 (43264)
I0829 16:18:16.843492 16790 net.cpp:137] Memory required for data: 5240580
I0829 16:18:16.843497 16790 layer_factory.hpp:77] Creating layer conv3
I0829 16:18:16.843521 16790 net.cpp:84] Creating Layer conv3
I0829 16:18:16.843528 16790 net.cpp:406] conv3 <- norm2
I0829 16:18:16.843533 16790 net.cpp:380] conv3 -> conv3
I0829 16:18:16.852149 16790 net.cpp:122] Setting up conv3
I0829 16:18:16.852174 16790 net.cpp:129] Top shape: 1 384 13 13 (64896)
I0829 16:18:16.852176 16790 net.cpp:137] Memory required for data: 5500164
I0829 16:18:16.852190 16790 layer_factory.hpp:77] Creating layer relu3
I0829 16:18:16.852200 16790 net.cpp:84] Creating Layer relu3
I0829 16:18:16.852206 16790 net.cpp:406] relu3 <- conv3
I0829 16:18:16.852214 16790 net.cpp:367] relu3 -> conv3 (in-place)
I0829 16:18:16.852386 16790 net.cpp:122] Setting up relu3
I0829 16:18:16.852394 16790 net.cpp:129] Top shape: 1 384 13 13 (64896)
I0829 16:18:16.852398 16790 net.cpp:137] Memory required for data: 5759748
I0829 16:18:16.852403 16790 layer_factory.hpp:77] Creating layer conv4
I0829 16:18:16.852417 16790 net.cpp:84] Creating Layer conv4
I0829 16:18:16.852422 16790 net.cpp:406] conv4 <- conv3
I0829 16:18:16.852429 16790 net.cpp:380] conv4 -> conv4
I0829 16:18:16.860519 16790 net.cpp:122] Setting up conv4
I0829 16:18:16.860541 16790 net.cpp:129] Top shape: 1 384 13 13 (64896)
I0829 16:18:16.860546 16790 net.cpp:137] Memory required for data: 6019332
I0829 16:18:16.860555 16790 layer_factory.hpp:77] Creating layer relu4
I0829 16:18:16.860568 16790 net.cpp:84] Creating Layer relu4
I0829 16:18:16.860574 16790 net.cpp:406] relu4 <- conv4
I0829 16:18:16.860580 16790 net.cpp:367] relu4 -> conv4 (in-place)
I0829 16:18:16.861126 16790 net.cpp:122] Setting up relu4
I0829 16:18:16.861137 16790 net.cpp:129] Top shape: 1 384 13 13 (64896)
I0829 16:18:16.861141 16790 net.cpp:137] Memory required for data: 6278916
I0829 16:18:16.861146 16790 layer_factory.hpp:77] Creating layer conv5
I0829 16:18:16.861157 16790 net.cpp:84] Creating Layer conv5
I0829 16:18:16.861166 16790 net.cpp:406] conv5 <- conv4
I0829 16:18:16.861174 16790 net.cpp:380] conv5 -> conv5
I0829 16:18:16.867377 16790 net.cpp:122] Setting up conv5
I0829 16:18:16.867398 16790 net.cpp:129] Top shape: 1 256 13 13 (43264)
I0829 16:18:16.867403 16790 net.cpp:137] Memory required for data: 6451972
I0829 16:18:16.867421 16790 layer_factory.hpp:77] Creating layer relu5
I0829 16:18:16.867434 16790 net.cpp:84] Creating Layer relu5
I0829 16:18:16.867440 16790 net.cpp:406] relu5 <- conv5
I0829 16:18:16.867449 16790 net.cpp:367] relu5 -> conv5 (in-place)
I0829 16:18:16.867614 16790 net.cpp:122] Setting up relu5
I0829 16:18:16.867624 16790 net.cpp:129] Top shape: 1 256 13 13 (43264)
I0829 16:18:16.867627 16790 net.cpp:137] Memory required for data: 6625028
I0829 16:18:16.867632 16790 layer_factory.hpp:77] Creating layer pool5
I0829 16:18:16.867642 16790 net.cpp:84] Creating Layer pool5
I0829 16:18:16.867650 16790 net.cpp:406] pool5 <- conv5
I0829 16:18:16.867656 16790 net.cpp:380] pool5 -> pool5
I0829 16:18:16.867705 16790 net.cpp:122] Setting up pool5
I0829 16:18:16.867738 16790 net.cpp:129] Top shape: 1 256 6 6 (9216)
I0829 16:18:16.867745 16790 net.cpp:137] Memory required for data: 6661892
I0829 16:18:16.867750 16790 layer_factory.hpp:77] Creating layer fc6
I0829 16:18:16.867764 16790 net.cpp:84] Creating Layer fc6
I0829 16:18:16.867771 16790 net.cpp:406] fc6 <- pool5
I0829 16:18:16.867779 16790 net.cpp:380] fc6 -> fc6
I0829 16:18:17.156352 16790 net.cpp:122] Setting up fc6
I0829 16:18:17.156374 16790 net.cpp:129] Top shape: 1 4096 (4096)
I0829 16:18:17.156379 16790 net.cpp:137] Memory required for data: 6678276
I0829 16:18:17.156391 16790 layer_factory.hpp:77] Creating layer fc6_target/bn
I0829 16:18:17.156405 16790 net.cpp:84] Creating Layer fc6_target/bn
I0829 16:18:17.156414 16790 net.cpp:406] fc6_target/bn <- fc6
I0829 16:18:17.156426 16790 net.cpp:380] fc6_target/bn -> fc6/bn
I0829 16:18:17.156601 16790 net.cpp:122] Setting up fc6_target/bn
I0829 16:18:17.156611 16790 net.cpp:129] Top shape: 1 4096 (4096)
I0829 16:18:17.156615 16790 net.cpp:137] Memory required for data: 6694660
I0829 16:18:17.156626 16790 layer_factory.hpp:77] Creating layer fc6_scale
I0829 16:18:17.156651 16790 net.cpp:84] Creating Layer fc6_scale
I0829 16:18:17.156658 16790 net.cpp:406] fc6_scale <- fc6/bn
I0829 16:18:17.156666 16790 net.cpp:380] fc6_scale -> fc6/scale
I0829 16:18:17.156711 16790 layer_factory.hpp:77] Creating layer fc6_scale
I0829 16:18:17.156813 16790 net.cpp:122] Setting up fc6_scale
I0829 16:18:17.156822 16790 net.cpp:129] Top shape: 1 4096 (4096)
I0829 16:18:17.156826 16790 net.cpp:137] Memory required for data: 6711044
I0829 16:18:17.156842 16790 layer_factory.hpp:77] Creating layer relu6
I0829 16:18:17.156852 16790 net.cpp:84] Creating Layer relu6
I0829 16:18:17.156857 16790 net.cpp:406] relu6 <- fc6/scale
I0829 16:18:17.156864 16790 net.cpp:380] relu6 -> fc6/relu
I0829 16:18:17.157099 16790 net.cpp:122] Setting up relu6
I0829 16:18:17.157109 16790 net.cpp:129] Top shape: 1 4096 (4096)
I0829 16:18:17.157112 16790 net.cpp:137] Memory required for data: 6727428
I0829 16:18:17.157117 16790 layer_factory.hpp:77] Creating layer drop6
I0829 16:18:17.157129 16790 net.cpp:84] Creating Layer drop6
I0829 16:18:17.157137 16790 net.cpp:406] drop6 <- fc6/relu
I0829 16:18:17.157148 16790 net.cpp:380] drop6 -> fc6/out
I0829 16:18:17.157191 16790 net.cpp:122] Setting up drop6
I0829 16:18:17.157200 16790 net.cpp:129] Top shape: 1 4096 (4096)
I0829 16:18:17.157204 16790 net.cpp:137] Memory required for data: 6743812
I0829 16:18:17.157209 16790 layer_factory.hpp:77] Creating layer fc7
I0829 16:18:17.157219 16790 net.cpp:84] Creating Layer fc7
I0829 16:18:17.157229 16790 net.cpp:406] fc7 <- fc6/out
I0829 16:18:17.157239 16790 net.cpp:380] fc7 -> fc7
I0829 16:18:17.285779 16790 net.cpp:122] Setting up fc7
I0829 16:18:17.285806 16790 net.cpp:129] Top shape: 1 4096 (4096)
I0829 16:18:17.285811 16790 net.cpp:137] Memory required for data: 6760196
I0829 16:18:17.285822 16790 layer_factory.hpp:77] Creating layer fc7_target/bn
I0829 16:18:17.285842 16790 net.cpp:84] Creating Layer fc7_target/bn
I0829 16:18:17.285851 16790 net.cpp:406] fc7_target/bn <- fc7
I0829 16:18:17.285862 16790 net.cpp:380] fc7_target/bn -> fc7/bn
I0829 16:18:17.286229 16790 net.cpp:122] Setting up fc7_target/bn
I0829 16:18:17.286243 16790 net.cpp:129] Top shape: 1 4096 (4096)
I0829 16:18:17.286252 16790 net.cpp:137] Memory required for data: 6776580
I0829 16:18:17.286263 16790 layer_factory.hpp:77] Creating layer fc7_scale
I0829 16:18:17.286275 16790 net.cpp:84] Creating Layer fc7_scale
I0829 16:18:17.286286 16790 net.cpp:406] fc7_scale <- fc7/bn
I0829 16:18:17.286296 16790 net.cpp:380] fc7_scale -> fc7/scale
I0829 16:18:17.286365 16790 layer_factory.hpp:77] Creating layer fc7_scale
I0829 16:18:17.286578 16790 net.cpp:122] Setting up fc7_scale
I0829 16:18:17.286594 16790 net.cpp:129] Top shape: 1 4096 (4096)
I0829 16:18:17.286600 16790 net.cpp:137] Memory required for data: 6792964
I0829 16:18:17.286610 16790 layer_factory.hpp:77] Creating layer relu7
I0829 16:18:17.286623 16790 net.cpp:84] Creating Layer relu7
I0829 16:18:17.286630 16790 net.cpp:406] relu7 <- fc7/scale
I0829 16:18:17.286640 16790 net.cpp:380] relu7 -> fc7/relu
I0829 16:18:17.287035 16790 net.cpp:122] Setting up relu7
I0829 16:18:17.287050 16790 net.cpp:129] Top shape: 1 4096 (4096)
I0829 16:18:17.287056 16790 net.cpp:137] Memory required for data: 6809348
I0829 16:18:17.287061 16790 layer_factory.hpp:77] Creating layer drop7
I0829 16:18:17.287075 16790 net.cpp:84] Creating Layer drop7
I0829 16:18:17.287082 16790 net.cpp:406] drop7 <- fc7/relu
I0829 16:18:17.287092 16790 net.cpp:380] drop7 -> fc7/out
I0829 16:18:17.287158 16790 net.cpp:122] Setting up drop7
I0829 16:18:17.287173 16790 net.cpp:129] Top shape: 1 4096 (4096)
I0829 16:18:17.287179 16790 net.cpp:137] Memory required for data: 6825732
I0829 16:18:17.287184 16790 layer_factory.hpp:77] Creating layer bottleneck
I0829 16:18:17.287199 16790 net.cpp:84] Creating Layer bottleneck
I0829 16:18:17.287207 16790 net.cpp:406] bottleneck <- fc7/out
I0829 16:18:17.287220 16790 net.cpp:380] bottleneck -> bottleneck
I0829 16:18:17.296037 16790 net.cpp:122] Setting up bottleneck
I0829 16:18:17.296063 16790 net.cpp:129] Top shape: 1 256 (256)
I0829 16:18:17.296098 16790 net.cpp:137] Memory required for data: 6826756
I0829 16:18:17.296113 16790 layer_factory.hpp:77] Creating layer office-fc8
I0829 16:18:17.296126 16790 net.cpp:84] Creating Layer office-fc8
I0829 16:18:17.296133 16790 net.cpp:406] office-fc8 <- bottleneck
I0829 16:18:17.296144 16790 net.cpp:380] office-fc8 -> fc8
I0829 16:18:17.296449 16790 net.cpp:122] Setting up office-fc8
I0829 16:18:17.296460 16790 net.cpp:129] Top shape: 1 31 (31)
I0829 16:18:17.296468 16790 net.cpp:137] Memory required for data: 6826880
I0829 16:18:17.296479 16790 layer_factory.hpp:77] Creating layer fc8_target/bn
I0829 16:18:17.296494 16790 net.cpp:84] Creating Layer fc8_target/bn
I0829 16:18:17.296502 16790 net.cpp:406] fc8_target/bn <- fc8
I0829 16:18:17.296511 16790 net.cpp:380] fc8_target/bn -> fc8/bn
I0829 16:18:17.296866 16790 net.cpp:122] Setting up fc8_target/bn
I0829 16:18:17.296878 16790 net.cpp:129] Top shape: 1 31 (31)
I0829 16:18:17.296882 16790 net.cpp:137] Memory required for data: 6827004
I0829 16:18:17.296892 16790 layer_factory.hpp:77] Creating layer fc8_scale
I0829 16:18:17.296905 16790 net.cpp:84] Creating Layer fc8_scale
I0829 16:18:17.296914 16790 net.cpp:406] fc8_scale <- fc8/bn
I0829 16:18:17.296926 16790 net.cpp:380] fc8_scale -> fc8/scale
I0829 16:18:17.296994 16790 layer_factory.hpp:77] Creating layer fc8_scale
I0829 16:18:17.297132 16790 net.cpp:122] Setting up fc8_scale
I0829 16:18:17.297143 16790 net.cpp:129] Top shape: 1 31 (31)
I0829 16:18:17.297148 16790 net.cpp:137] Memory required for data: 6827128
I0829 16:18:17.297163 16790 layer_factory.hpp:77] Creating layer accuracy
I0829 16:18:17.297174 16790 net.cpp:84] Creating Layer accuracy
I0829 16:18:17.297201 16790 net.cpp:406] accuracy <- fc8/scale
I0829 16:18:17.297224 16790 net.cpp:406] accuracy <- label
I0829 16:18:17.297245 16790 net.cpp:380] accuracy -> accuracy
…
