…
    new_width: 256
    is_color: true
  }
}
layer {
  name: "source_domain_labels"
  type: "DummyData"
  top: "source_domain_labels"
  include {
    phase: TRAIN
  }
  dummy_data_param {
    data_filler {
      type: "constant"
      value: 0
    }
    num: 128
    channels: 1
    height: 1
    width: 1
  }
}
layer {
  name: "target_domain_labels"
  type: "DummyData"
  top: "target_domain_labels"
  include {
    phase: TRAIN
  }
  dummy_data_param {
    data_filler {
      type: "constant"
      value: 1
    }
    num: 128
    channels: 1
    height: 1
    width: 1
  }
}
layer {
  name: "data"
  type: "Concat"
  bottom: "s1_data"
  bottom: "s2_data"
  bottom: "t_data"
  top: "data"
  include {
    phase: TRAIN
  }
  concat_param {
    concat_dim: 0
  }
}
layer {
  name: "label"
  type: "Concat"
  bottom: "s1_label"
  bottom: "s2_label"
  top: "label"
  include {
    phase: TRAIN
  }
  concat_param {
    concat_dim: 0
  }
}
layer {
  name: "concat_domain_labels"
  type: "Concat"
  bottom: "source_domain_labels"
  bottom: "target_domain_labels"
  top: "domain_labels"
  include {
    phase: TRAIN
  }
  concat_param {
    concat_dim: 0
  }
}
layer {
  name: "conv1"
  type: "Convolution"
  bottom: "data"
  top: "conv1"
  param {
    lr_mult: 1
    decay_mult: 1
  }
  param {
    lr_mult: 2
    decay_mult: 0
  }
  convolution_param {
    num_output: 96
    kernel_size: 11
    stride: 4
    weight_filler {
      type: "gaussian"
      std: 0.01
    }
    bias_filler {
      type: "constant"
      value: 0
    }
  }
}
layer {
  name: "relu1"
  type: "ReLU"
  bottom: "conv1"
  top: "conv1"
}
layer {
  name: "pool1"
  type: "Pooling"
  bottom: "conv1"
  top: "pool1"
  pooling_param {
    pool: MAX
    kernel_size: 3
    stride: 2
  }
}
layer {
  name: "norm1"
  type: "LRN"
  bottom: "pool1"
  top: "norm1"
  lrn_param {
    local_size: 5
    alpha: 0.0001
    beta: 0.75
  }
}
layer {
  name: "conv2"
  type: "Convolution"
  bottom: "norm1"
  top: "conv2"
  param {
    lr_mult: 1
    decay_mult: 1
  }
  param {
    lr_mult: 2
    decay_mult: 0
  }
  convolution_param {
    num_output: 256
    pad: 2
    kernel_size: 5
    group: 2
    weight_filler {
      type: "gaussian"
      std: 0.01
    }
    bias_filler {
      type: "constant"
      value: 1
    }
  }
}
layer {
  name: "relu2"
  type: "ReLU"
  bottom: "conv2"
  top: "conv2"
}
layer {
  name: "pool2"
  type: "Pooling"
  bottom: "conv2"
  top: "pool2"
  pooling_param {
    pool: MAX
    kernel_size: 3
    stride: 2
  }
}
layer {
  name: "norm2"
  type: "LRN"
  bottom: "pool2"
  top: "norm2"
  lrn_param {
    local_size: 5
    alpha: 0.0001
    beta: 0.75
  }
}
layer {
  name: "conv3"
  type: "Convolution"
  bottom: "norm2"
  top: "conv3"
  param {
    lr_mult: 1
    decay_mult: 1
  }
  param {
    lr_mult: 2
    decay_mult: 0
  }
  convolution_param {
    num_output: 384
    pad: 1
    kernel_size: 3
    weight_filler {
      type: "gaussian"
      std: 0.01
    }
    bias_filler {
      type: "constant"
      value: 0
    }
  }
}
layer {
  name: "relu3"
  type: "ReLU"
  bottom: "conv3"
  top: "conv3"
}
layer {
  name: "conv4"
  type: "Convolution"
  bottom: "conv3"
  top: "conv4"
  param {
    lr_mult: 1
    decay_mult: 1
  }
  param {
    lr_mult: 2
    decay_mult: 0
  }
  convolution_param {
    num_output: 384
    pad: 1
    kernel_size: 3
    group: 2
    weight_filler {
      type: "gaussian"
      std: 0.01
    }
    bias_filler {
      type: "constant"
      value: 1
    }
  }
}
layer {
  name: "relu4"
  type: "ReLU"
  bottom: "conv4"
  top: "conv4"
}
layer {
  name: "conv5"
  type: "Convolution"
  bottom: "conv4"
  top: "conv5"
  param {
    lr_mult: 1
    decay_mult: 1
  }
  param {
    lr_mult: 2
    decay_mult: 0
  }
  convolution_param {
    num_output: 256
    pad: 1
    kernel_size: 3
    group: 2
    weight_filler {
      type: "gaussian"
      std: 0.01
    }
    bias_filler {
      type: "constant"
      value: 1
    }
  }
}
layer {
  name: "relu5"
  type: "ReLU"
  bottom: "conv5"
  top: "conv5"
}
layer {
  name: "pool5"
  type: "Pooling"
  bottom: "conv5"
  top: "pool5"
  pooling_param {
    pool: MAX
    kernel_size: 3
    stride: 2
  }
}
layer {
  name: "fc6"
  type: "InnerProduct"
  bottom: "pool5"
  top: "fc6"
  param {
    lr_mult: 1
    decay_mult: 1
  }
  param {
    lr_mult: 2
    decay_mult: 0
  }
  inner_product_param {
    num_output: 4096
    weight_filler {
      type: "gaussian"
      std: 0.005
    }
    bias_filler {
      type: "constant"
      value: 0
    }
  }
}
layer {
  name: "slicer_fc6"
  type: "Slice"
  bottom: "fc6"
  top: "fc6_source"
  top: "fc6_target"
  include {
    phase: TRAIN
  }
  slice_param {
    slice_point: 256
    axis: 0
  }
}
layer {
  name: "fc6_source/bn"
  type: "BatchNorm"
  bottom: "fc6_source"
  top: "fc6_source/bn"
  param {
    lr_mult: 0
    decay_mult: 0
  }
  param {
    lr_mult: 0
    decay_mult: 0
  }
  param {
    lr_mult: 0
    decay_mult: 0
  }
  include {
    phase: TRAIN
  }
  batch_norm_param {
    moving_average_fraction: 0.95
  }
}
layer {
  name: "fc6_target/bn"
  type: "BatchNorm"
  bottom: "fc6_target"
  top: "fc6_target/bn"
  param {
    lr_mult: 0
    decay_mult: 0
  }
  param {
    lr_mult: 0
    decay_mult: 0
  }
  param {
    lr_mult: 0
    decay_mult: 0
  }
  include {
    phase: TRAIN
  }
  batch_norm_param {
    moving_average_fraction: 0.95
  }
}
layer {
  name: "concat_wbn_6"
  type: "Concat"
  bottom: "fc6_source/bn"
  bottom: "fc6_target/bn"
  top: "fc6/bn"
  include {
    phase: TRAIN
  }
  concat_param {
    axis: 0
  }
}
layer {
  name: "fc6_scale"
  type: "Scale"
  bottom: "fc6/bn"
  top: "fc6/scale"
  param {
    lr_mult: 1
    decay_mult: 0
  }
  param {
    lr_mult: 1
    decay_mult: 0
  }
  scale_param {
    axis: 1
    num_axes: 1
    filler {
      type: "constant"
      value: 1
    }
    bias_term: true
    bias_filler {
      type: "constant"
      value: 0
    }
  }
}
layer {
  name: "relu6"
  type: "ReLU"
  bottom: "fc6/scale"
  top: "fc6/relu"
}
layer {
  name: "drop6"
  type: "Dropout"
  bottom: "fc6/relu"
  top: "fc6/out"
  dropout_param {
    dropout_ratio: 0.5
  }
}
layer {
  name: "fc7"
  type: "InnerProduct"
  bottom: "fc6/out"
  top: "fc7"
  param {
    lr_mult: 10
    decay_mult: 1
  }
  param {
    lr_mult: 20
    decay_mult: 0
  }
  inner_product_param {
    num_output: 4096
    weight_filler {
      type: "gaussian"
      std: 0.005
    }
    bias_filler {
      type: "constant"
      value: 0
    }
  }
}
layer {
  name: "slicer_fc7"
  type: "Slice"
  bottom: "fc7"
  top: "fc7_source"
  top: "fc7_target"
  include {
    phase: TRAIN
  }
  slice_param {
    slice_point: 256
    axis: 0
  }
}
layer {
  name: "fc7_source/bn"
  type: "BatchNorm"
  bottom: "fc7_source"
  top: "fc7_source/bn"
  param {
    lr_mult: 0
    decay_mult: 0
  }
  param {
    lr_mult: 0
    decay_mult: 0
  }
  param {
    lr_mult: 0
    decay_mult: 0
  }
  include {
    phase: TRAIN
  }
  batch_norm_param {
    moving_average_fraction: 0.95
  }
}
layer {
  name: "fc7_target/bn"
  type: "BatchNorm"
  bottom: "fc7_target"
  top: "fc7_target/bn"
  param {
    lr_mult: 0
    decay_mult: 0
  }
  param {
    lr_mult: 0
    decay_mult: 0
  }
  param {
    lr_mult: 0
    decay_mult: 0
  }
  include {
    phase: TRAIN
  }
  batch_norm_param {
    moving_average_fraction: 0.95
  }
}
layer {
  name: "concat_wbn_7"
  type: "Concat"
  bottom: "fc7_source/bn"
  bottom: "fc7_target/bn"
  top: "fc7/bn"
  include {
    phase: TRAIN
  }
  concat_param {
    axis: 0
  }
}
layer {
  name: "fc7_scale"
  type: "Scale"
  bottom: "fc7/bn"
  top: "fc7/scale"
  param {
    lr_mult: 1
    decay_mult: 0
  }
  param {
    lr_mult: 1
    decay_mult: 0
  }
  scale_param {
    axis: 1
    num_axes: 1
    filler {
      type: "constant"
      value: 1
    }
    bias_term: true
    bias_filler {
      type: "constant"
      value: 0
    }
  }
}
layer {
  name: "relu7"
  type: "ReLU"
  bottom: "fc7/scale"
  top: "fc7/relu"
}
layer {
  name: "drop7"
  type: "Dropout"
  bottom: "fc7/relu"
  top: "fc7/out"
  dropout_param {
    dropout_ratio: 0.5
  }
}
layer {
  name: "bottleneck"
  type: "InnerProduct"
  bottom: "fc7/out"
  top: "bottleneck"
  param {
    lr_mult: 10
    decay_mult: 1
  }
  param {
    lr_mult: 20
    decay_mult: 0
  }
  inner_product_param {
    num_output: 256
    weight_filler {
      type: "gaussian"
      std: 0.005
    }
    bias_filler {
      type: "constant"
      value: 0
    }
  }
}
layer {
  name: "slicer_bottle"
  type: "Slice"
  bottom: "bottleneck"
  top: "bottleneck_source"
  top: "bottleneck_target"
  include {
    phase: TRAIN
  }
  slice_param {
    slice_point: 256
    axis: 0
  }
}
layer {
  name: "silence_target_feature"
  type: "Silence"
  bottom: "bottleneck_target"
  include {
    phase: TRAIN
  }
}
layer {
  name: "grl"
  type: "GradientScaler"
  bottom: "bottleneck_source"
  top: "grl"
  include {
    phase: TRAIN
  }
  gradient_scaler_param {
    lower_bound: 0.5
    upper_bound: 0.5
    alpha: 10
    max_iter: 500
  }
}
layer {
  name: "dc_ip1"
  type: "InnerProduct"
  bottom: "grl"
  top: "dc_ip1"
  param {
    lr_mult: 10
  }
  param {
    lr_mult: 20
  }
  include {
    phase: TRAIN
  }
  inner_product_param {
    num_output: 1024
    weight_filler {
      type: "gaussian"
      std: 0.01
    }
    bias_filler {
      type: "constant"
    }
  }
}
layer {
  name: "dc_relu1"
  type: "ReLU"
  bottom: "dc_ip1"
  top: "dc_ip1"
  include {
    phase: TRAIN
  }
}
layer {
  name: "dc_drop1"
  type: "Dropout"
  bottom: "dc_ip1"
  top: "dc_ip1"
  include {
    phase: TRAIN
  }
  dropout_param {
    dropout_ratio: 0.5
  }
}
layer {
  name: "dc_ip2"
  type: "InnerProduct"
  bottom: "dc_ip1"
  top: "dc_ip2"
  param {
    lr_mult: 10
  }
  param {
    lr_mult: 20
  }
  include {
    phase: TRAIN
  }
  inner_product_param {
    num_output: 1024
    weight_filler {
      type: "gaussian"
      std: 0.01
    }
    bias_filler {
      type: "constant"
    }
  }
}
layer {
  name: "dc_relu2"
  type: "ReLU"
  bottom: "dc_ip2"
  top: "dc_ip2"
  include {
    phase: TRAIN
  }
}
layer {
  name: "dc_drop2"
  type: "Dropout"
  bottom: "dc_ip2"
  top: "dc_ip2"
  include {
    phase: TRAIN
  }
  dropout_param {
    dropout_ratio: 0.5
  }
}
layer {
  name: "dc_ip3"
  type: "InnerProduct"
  bottom: "dc_ip2"
  top: "dc_ip3"
  param {
    lr_mult: 10
  }
  param {
    lr_mult: 20
  }
  include {
    phase: TRAIN
  }
  inner_product_param {
    num_output: 1
    weight_filler {
      type: "gaussian"
      std: 0.3
    }
    bias_filler {
      type: "constant"
    }
  }
}
layer {
  name: "dc_loss"
  type: "SigmoidCrossEntropyLoss"
  bottom: "dc_ip3"
  bottom: "domain_labels"
  top: "dc_loss"
  loss_weight: 0.1
  include {
    phase: TRAIN
  }
}
layer {
  name: "dc_accuracy"
  type: "Accuracy"
  bottom: "dc_ip3"
  bottom: "domain_labels"
  top: "domain_accuracy"
  include {
    phase: TRAIN
  }
}
layer {
  name: "office-fc8"
  type: "InnerProduct"
  bottom: "bottleneck"
  top: "fc8"
  param {
    lr_mult: 10
    decay_mult: 1
  }
  param {
    lr_mult: 20
    decay_mult: 0
  }
  inner_product_param {
    num_output: 31
    weight_filler {
      type: "gaussian"
      std: 0.01
    }
    bias_filler {
      type: "constant"
      value: 0
    }
  }
}
layer {
  name: "slicer_fc8"
  type: "Slice"
  bottom: "fc8"
  top: "fc8_source"
  top: "fc8_target"
  include {
    phase: TRAIN
  }
  slice_param {
    slice_point: 256
    axis: 0
  }
}
layer {
  name: "fc8_source/bn"
  type: "BatchNorm"
  bottom: "fc8_source"
  top: "fc8_source/bn"
  param {
    lr_mult: 0
    decay_mult: 0
  }
  param {
    lr_mult: 0
    decay_mult: 0
  }
  param {
    lr_mult: 0
    decay_mult: 0
  }
  include {
    phase: TRAIN
  }
  batch_norm_param {
    moving_average_fraction: 0.95
  }
}
layer {
  name: "fc8_target/bn"
  type: "BatchNorm"
  bottom: "fc8_target"
  top: "fc8_target/bn"
  param {
    lr_mult: 0
    decay_mult: 0
  }
  param {
    lr_mult: 0
    decay_mult: 0
  }
  param {
    lr_mult: 0
    decay_mult: 0
  }
  include {
    phase: TRAIN
  }
  batch_norm_param {
    moving_average_fraction: 0.95
  }
}
layer {
  name: "concat_wbn_8"
  type: "Concat"
  bottom: "fc8_source/bn"
  bottom: "fc8_target/bn"
  top: "fc8/bn"
  include {
    phase: TRAIN
  }
  concat_param {
    axis: 0
  }
}
layer {
  name: "fc8_scale"
  type: "Scale"
  bottom: "fc8/bn"
  top: "fc8/scale"
  param {
    lr_mult: 1
    decay_mult: 0
  }
  param {
    lr_mult: 1
    decay_mult: 0
  }
  scale_param {
    axis: 1
    num_axes: 1
    filler {
      type: "constant"
      value: 1
    }
    bias_term: true
    bias_filler {
      type: "constant"
      value: 0
    }
  }
}
layer {
  name: "slicer_scorer"
  type: "Slice"
  bottom: "fc8/scale"
  top: "score_source"
  top: "score_target"
  include {
    phase: TRAIN
  }
  slice_param {
    slice_point: 256
    axis: 0
  }
}
layer {
  name: "loss"
  type: "SoftmaxWithLoss"
  bottom: "score_source"
  bottom: "label"
  top: "loss"
  loss_weight: 1
  include {
    phase: TRAIN
  }
}
layer {
  name: "entropy"
  type: "EntropyLoss"
  bottom: "score_target"
  top: "entropy"
  loss_weight: 0.5
  include {
    phase: TRAIN
  }
}
layer {
  name: "accuracy"
  type: "Accuracy"
  bottom: "score_source"
  bottom: "label"
  top: "accuracy"
  include {
    phase: TRAIN
  }
}
layer {
  name: "silence_target"
  type: "Silence"
  bottom: "t_label"
  include {
    phase: TRAIN
  }
}
I0903 10:35:17.661670 29011 layer_factory.hpp:77] Creating layer s1_data
I0903 10:35:17.661696 29011 net.cpp:84] Creating Layer s1_data
I0903 10:35:17.661705 29011 net.cpp:380] s1_data -> s1_data
I0903 10:35:17.661723 29011 net.cpp:380] s1_data -> s1_label
I0903 10:35:17.662005 29011 image_data_layer.cpp:38] Opening file /home/alfa/Documents/msda/mywork/data/office/office_a.txt
I0903 10:35:17.663345 29011 image_data_layer.cpp:53] Shuffling data
I0903 10:35:17.663825 29011 image_data_layer.cpp:63] A total of 2817 images.
I0903 10:35:17.669741 29011 image_data_layer.cpp:90] output data size: 128,3,227,227
I0903 10:35:17.808032 29011 net.cpp:122] Setting up s1_data
I0903 10:35:17.808060 29011 net.cpp:129] Top shape: 128 3 227 227 (19787136)
I0903 10:35:17.808068 29011 net.cpp:129] Top shape: 128 (128)
I0903 10:35:17.808073 29011 net.cpp:137] Memory required for data: 79149056
I0903 10:35:17.808080 29011 layer_factory.hpp:77] Creating layer s2_data
I0903 10:35:17.808100 29011 net.cpp:84] Creating Layer s2_data
I0903 10:35:17.808107 29011 net.cpp:380] s2_data -> s2_data
I0903 10:35:17.808120 29011 net.cpp:380] s2_data -> s2_label
I0903 10:35:17.808140 29011 image_data_layer.cpp:38] Opening file /home/alfa/Documents/msda/mywork/data/office/office_w.txt
I0903 10:35:17.808531 29011 image_data_layer.cpp:53] Shuffling data
I0903 10:35:17.808666 29011 image_data_layer.cpp:63] A total of 795 images.
I0903 10:35:17.809926 29011 image_data_layer.cpp:90] output data size: 128,3,227,227
I0903 10:35:17.929896 29011 net.cpp:122] Setting up s2_data
I0903 10:35:17.929920 29011 net.cpp:129] Top shape: 128 3 227 227 (19787136)
I0903 10:35:17.929926 29011 net.cpp:129] Top shape: 128 (128)
I0903 10:35:17.929931 29011 net.cpp:137] Memory required for data: 158298112
I0903 10:35:17.929937 29011 layer_factory.hpp:77] Creating layer target_data
I0903 10:35:17.929961 29011 net.cpp:84] Creating Layer target_data
I0903 10:35:17.929970 29011 net.cpp:380] target_data -> t_data
I0903 10:35:17.929986 29011 net.cpp:380] target_data -> t_label
I0903 10:35:17.930001 29011 image_data_layer.cpp:38] Opening file /home/alfa/Documents/msda/mywork/data/office/office_d.txt
I0903 10:35:17.930218 29011 image_data_layer.cpp:53] Shuffling data
I0903 10:35:17.930305 29011 image_data_layer.cpp:63] A total of 498 images.
I0903 10:35:17.940163 29011 image_data_layer.cpp:90] output data size: 64,3,227,227
I0903 10:35:18.000715 29011 net.cpp:122] Setting up target_data
I0903 10:35:18.000738 29011 net.cpp:129] Top shape: 64 3 227 227 (9893568)
I0903 10:35:18.000744 29011 net.cpp:129] Top shape: 64 (64)
I0903 10:35:18.000749 29011 net.cpp:137] Memory required for data: 197872640
I0903 10:35:18.000756 29011 layer_factory.hpp:77] Creating layer source_domain_labels
I0903 10:35:18.000771 29011 net.cpp:84] Creating Layer source_domain_labels
I0903 10:35:18.000782 29011 net.cpp:380] source_domain_labels -> source_domain_labels
I0903 10:35:18.000864 29011 net.cpp:122] Setting up source_domain_labels
I0903 10:35:18.000872 29011 net.cpp:129] Top shape: 128 1 1 1 (128)
I0903 10:35:18.000879 29011 net.cpp:137] Memory required for data: 197873152
I0903 10:35:18.000882 29011 layer_factory.hpp:77] Creating layer target_domain_labels
I0903 10:35:18.000896 29011 net.cpp:84] Creating Layer target_domain_labels
I0903 10:35:18.000907 29011 net.cpp:380] target_domain_labels -> target_domain_labels
I0903 10:35:18.000952 29011 net.cpp:122] Setting up target_domain_labels
I0903 10:35:18.000964 29011 net.cpp:129] Top shape: 128 1 1 1 (128)
I0903 10:35:18.000968 29011 net.cpp:137] Memory required for data: 197873664
I0903 10:35:18.000973 29011 layer_factory.hpp:77] Creating layer data
I0903 10:35:18.000985 29011 net.cpp:84] Creating Layer data
I0903 10:35:18.000993 29011 net.cpp:406] data <- s1_data
I0903 10:35:18.001010 29011 net.cpp:406] data <- s2_data
I0903 10:35:18.001039 29011 net.cpp:406] data <- t_data
I0903 10:35:18.001072 29011 net.cpp:380] data -> data
I0903 10:35:18.001119 29011 net.cpp:122] Setting up data
I0903 10:35:18.001147 29011 net.cpp:129] Top shape: 320 3 227 227 (49467840)
I0903 10:35:18.001163 29011 net.cpp:137] Memory required for data: 395745024
I0903 10:35:18.001178 29011 layer_factory.hpp:77] Creating layer label
I0903 10:35:18.001199 29011 net.cpp:84] Creating Layer label
I0903 10:35:18.001206 29011 net.cpp:406] label <- s1_label
I0903 10:35:18.001214 29011 net.cpp:406] label <- s2_label
I0903 10:35:18.001222 29011 net.cpp:380] label -> label
I0903 10:35:18.001258 29011 net.cpp:122] Setting up label
I0903 10:35:18.001269 29011 net.cpp:129] Top shape: 256 (256)
I0903 10:35:18.001274 29011 net.cpp:137] Memory required for data: 395746048
I0903 10:35:18.001281 29011 layer_factory.hpp:77] Creating layer label_label_0_split
I0903 10:35:18.001289 29011 net.cpp:84] Creating Layer label_label_0_split
I0903 10:35:18.001296 29011 net.cpp:406] label_label_0_split <- label
I0903 10:35:18.001305 29011 net.cpp:380] label_label_0_split -> label_label_0_split_0
I0903 10:35:18.001317 29011 net.cpp:380] label_label_0_split -> label_label_0_split_1
I0903 10:35:18.001376 29011 net.cpp:122] Setting up label_label_0_split
I0903 10:35:18.001386 29011 net.cpp:129] Top shape: 256 (256)
I0903 10:35:18.001392 29011 net.cpp:129] Top shape: 256 (256)
I0903 10:35:18.001399 29011 net.cpp:137] Memory required for data: 395748096
I0903 10:35:18.001404 29011 layer_factory.hpp:77] Creating layer concat_domain_labels
I0903 10:35:18.001415 29011 net.cpp:84] Creating Layer concat_domain_labels
I0903 10:35:18.001420 29011 net.cpp:406] concat_domain_labels <- source_domain_labels
I0903 10:35:18.001428 29011 net.cpp:406] concat_domain_labels <- target_domain_labels
I0903 10:35:18.001437 29011 net.cpp:380] concat_domain_labels -> domain_labels
I0903 10:35:18.001488 29011 net.cpp:122] Setting up concat_domain_labels
I0903 10:35:18.001498 29011 net.cpp:129] Top shape: 256 1 1 1 (256)
I0903 10:35:18.001503 29011 net.cpp:137] Memory required for data: 395749120
I0903 10:35:18.001508 29011 layer_factory.hpp:77] Creating layer domain_labels_concat_domain_labels_0_split
I0903 10:35:18.001516 29011 net.cpp:84] Creating Layer domain_labels_concat_domain_labels_0_split
I0903 10:35:18.001521 29011 net.cpp:406] domain_labels_concat_domain_labels_0_split <- domain_labels
I0903 10:35:18.001531 29011 net.cpp:380] domain_labels_concat_domain_labels_0_split -> domain_labels_concat_domain_labels_0_split_0
I0903 10:35:18.001543 29011 net.cpp:380] domain_labels_concat_domain_labels_0_split -> domain_labels_concat_domain_labels_0_split_1
I0903 10:35:18.001601 29011 net.cpp:122] Setting up domain_labels_concat_domain_labels_0_split
I0903 10:35:18.001611 29011 net.cpp:129] Top shape: 256 1 1 1 (256)
I0903 10:35:18.001618 29011 net.cpp:129] Top shape: 256 1 1 1 (256)
I0903 10:35:18.001623 29011 net.cpp:137] Memory required for data: 395751168
I0903 10:35:18.001627 29011 layer_factory.hpp:77] Creating layer conv1
I0903 10:35:18.001644 29011 net.cpp:84] Creating Layer conv1
I0903 10:35:18.001670 29011 net.cpp:406] conv1 <- data
I0903 10:35:18.001695 29011 net.cpp:380] conv1 -> conv1
I0903 10:35:18.490869 29011 net.cpp:122] Setting up conv1
I0903 10:35:18.490895 29011 net.cpp:129] Top shape: 320 96 55 55 (92928000)
I0903 10:35:18.490900 29011 net.cpp:137] Memory required for data: 767463168
I0903 10:35:18.490924 29011 layer_factory.hpp:77] Creating layer relu1
I0903 10:35:18.490936 29011 net.cpp:84] Creating Layer relu1
I0903 10:35:18.490943 29011 net.cpp:406] relu1 <- conv1
I0903 10:35:18.490953 29011 net.cpp:367] relu1 -> conv1 (in-place)
I0903 10:35:18.491134 29011 net.cpp:122] Setting up relu1
I0903 10:35:18.491144 29011 net.cpp:129] Top shape: 320 96 55 55 (92928000)
I0903 10:35:18.491149 29011 net.cpp:137] Memory required for data: 1139175168
I0903 10:35:18.491155 29011 layer_factory.hpp:77] Creating layer pool1
I0903 10:35:18.491164 29011 net.cpp:84] Creating Layer pool1
I0903 10:35:18.491169 29011 net.cpp:406] pool1 <- conv1
I0903 10:35:18.491178 29011 net.cpp:380] pool1 -> pool1
I0903 10:35:18.491236 29011 net.cpp:122] Setting up pool1
I0903 10:35:18.491257 29011 net.cpp:129] Top shape: 320 96 27 27 (22394880)
I0903 10:35:18.491263 29011 net.cpp:137] Memory required for data: 1228754688
I0903 10:35:18.491267 29011 layer_factory.hpp:77] Creating layer norm1
I0903 10:35:18.491281 29011 net.cpp:84] Creating Layer norm1
I0903 10:35:18.491288 29011 net.cpp:406] norm1 <- pool1
I0903 10:35:18.491297 29011 net.cpp:380] norm1 -> norm1
I0903 10:35:18.491487 29011 net.cpp:122] Setting up norm1
I0903 10:35:18.491497 29011 net.cpp:129] Top shape: 320 96 27 27 (22394880)
I0903 10:35:18.491503 29011 net.cpp:137] Memory required for data: 1318334208
I0903 10:35:18.491508 29011 layer_factory.hpp:77] Creating layer conv2
I0903 10:35:18.491523 29011 net.cpp:84] Creating Layer conv2
I0903 10:35:18.491530 29011 net.cpp:406] conv2 <- norm1
I0903 10:35:18.491539 29011 net.cpp:380] conv2 -> conv2
I0903 10:35:18.497556 29011 net.cpp:122] Setting up conv2
I0903 10:35:18.497583 29011 net.cpp:129] Top shape: 320 256 27 27 (59719680)
I0903 10:35:18.497589 29011 net.cpp:137] Memory required for data: 1557212928
I0903 10:35:18.497607 29011 layer_factory.hpp:77] Creating layer relu2
I0903 10:35:18.497619 29011 net.cpp:84] Creating Layer relu2
I0903 10:35:18.497625 29011 net.cpp:406] relu2 <- conv2
I0903 10:35:18.497635 29011 net.cpp:367] relu2 -> conv2 (in-place)
I0903 10:35:18.498158 29011 net.cpp:122] Setting up relu2
I0903 10:35:18.498170 29011 net.cpp:129] Top shape: 320 256 27 27 (59719680)
I0903 10:35:18.498175 29011 net.cpp:137] Memory required for data: 1796091648
I0903 10:35:18.498183 29011 layer_factory.hpp:77] Creating layer pool2
I0903 10:35:18.498200 29011 net.cpp:84] Creating Layer pool2
I0903 10:35:18.498208 29011 net.cpp:406] pool2 <- conv2
I0903 10:35:18.498219 29011 net.cpp:380] pool2 -> pool2
I0903 10:35:18.498273 29011 net.cpp:122] Setting up pool2
I0903 10:35:18.498283 29011 net.cpp:129] Top shape: 320 256 13 13 (13844480)
I0903 10:35:18.498289 29011 net.cpp:137] Memory required for data: 1851469568
I0903 10:35:18.498296 29011 layer_factory.hpp:77] Creating layer norm2
I0903 10:35:18.498307 29011 net.cpp:84] Creating Layer norm2
I0903 10:35:18.498313 29011 net.cpp:406] norm2 <- pool2
I0903 10:35:18.498322 29011 net.cpp:380] norm2 -> norm2
I0903 10:35:18.498512 29011 net.cpp:122] Setting up norm2
I0903 10:35:18.498522 29011 net.cpp:129] Top shape: 320 256 13 13 (13844480)
I0903 10:35:18.498528 29011 net.cpp:137] Memory required for data: 1906847488
I0903 10:35:18.498534 29011 layer_factory.hpp:77] Creating layer conv3
I0903 10:35:18.498551 29011 net.cpp:84] Creating Layer conv3
I0903 10:35:18.498561 29011 net.cpp:406] conv3 <- norm2
I0903 10:35:18.498571 29011 net.cpp:380] conv3 -> conv3
I0903 10:35:18.507035 29011 net.cpp:122] Setting up conv3
I0903 10:35:18.507059 29011 net.cpp:129] Top shape: 320 384 13 13 (20766720)
I0903 10:35:18.507067 29011 net.cpp:137] Memory required for data: 1989914368
I0903 10:35:18.507084 29011 layer_factory.hpp:77] Creating layer relu3
I0903 10:35:18.507095 29011 net.cpp:84] Creating Layer relu3
I0903 10:35:18.507102 29011 net.cpp:406] relu3 <- conv3
I0903 10:35:18.507112 29011 net.cpp:367] relu3 -> conv3 (in-place)
I0903 10:35:18.507285 29011 net.cpp:122] Setting up relu3
I0903 10:35:18.507297 29011 net.cpp:129] Top shape: 320 384 13 13 (20766720)
I0903 10:35:18.507302 29011 net.cpp:137] Memory required for data: 2072981248
I0903 10:35:18.507308 29011 layer_factory.hpp:77] Creating layer conv4
I0903 10:35:18.507323 29011 net.cpp:84] Creating Layer conv4
I0903 10:35:18.507333 29011 net.cpp:406] conv4 <- conv3
I0903 10:35:18.507344 29011 net.cpp:380] conv4 -> conv4
I0903 10:35:18.514986 29011 net.cpp:122] Setting up conv4
I0903 10:35:18.515010 29011 net.cpp:129] Top shape: 320 384 13 13 (20766720)
I0903 10:35:18.515015 29011 net.cpp:137] Memory required for data: 2156048128
I0903 10:35:18.515027 29011 layer_factory.hpp:77] Creating layer relu4
I0903 10:35:18.515039 29011 net.cpp:84] Creating Layer relu4
I0903 10:35:18.515048 29011 net.cpp:406] relu4 <- conv4
I0903 10:35:18.515058 29011 net.cpp:367] relu4 -> conv4 (in-place)
I0903 10:35:18.515597 29011 net.cpp:122] Setting up relu4
I0903 10:35:18.515609 29011 net.cpp:129] Top shape: 320 384 13 13 (20766720)
I0903 10:35:18.515614 29011 net.cpp:137] Memory required for data: 2239115008
I0903 10:35:18.515619 29011 layer_factory.hpp:77] Creating layer conv5
I0903 10:35:18.515635 29011 net.cpp:84] Creating Layer conv5
I0903 10:35:18.515648 29011 net.cpp:406] conv5 <- conv4
I0903 10:35:18.515658 29011 net.cpp:380] conv5 -> conv5
I0903 10:35:18.526055 29011 net.cpp:122] Setting up conv5
I0903 10:35:18.526080 29011 net.cpp:129] Top shape: 320 256 13 13 (13844480)
I0903 10:35:18.526087 29011 net.cpp:137] Memory required for data: 2294492928
I0903 10:35:18.526104 29011 layer_factory.hpp:77] Creating layer relu5
I0903 10:35:18.526120 29011 net.cpp:84] Creating Layer relu5
I0903 10:35:18.526129 29011 net.cpp:406] relu5 <- conv5
I0903 10:35:18.526139 29011 net.cpp:367] relu5 -> conv5 (in-place)
I0903 10:35:18.526321 29011 net.cpp:122] Setting up relu5
I0903 10:35:18.526334 29011 net.cpp:129] Top shape: 320 256 13 13 (13844480)
I0903 10:35:18.526340 29011 net.cpp:137] Memory required for data: 2349870848
I0903 10:35:18.526345 29011 layer_factory.hpp:77] Creating layer pool5
I0903 10:35:18.526358 29011 net.cpp:84] Creating Layer pool5
I0903 10:35:18.526365 29011 net.cpp:406] pool5 <- conv5
I0903 10:35:18.526373 29011 net.cpp:380] pool5 -> pool5
I0903 10:35:18.526424 29011 net.cpp:122] Setting up pool5
I0903 10:35:18.526433 29011 net.cpp:129] Top shape: 320 256 6 6 (2949120)
I0903 10:35:18.526440 29011 net.cpp:137] Memory required for data: 2361667328
I0903 10:35:18.526445 29011 layer_factory.hpp:77] Creating layer fc6
I0903 10:35:18.526459 29011 net.cpp:84] Creating Layer fc6
I0903 10:35:18.526468 29011 net.cpp:406] fc6 <- pool5
I0903 10:35:18.526476 29011 net.cpp:380] fc6 -> fc6
I0903 10:35:18.947707 29011 net.cpp:122] Setting up fc6
I0903 10:35:18.947757 29011 net.cpp:129] Top shape: 320 4096 (1310720)
I0903 10:35:18.947762 29011 net.cpp:137] Memory required for data: 2366910208
I0903 10:35:18.947773 29011 layer_factory.hpp:77] Creating layer slicer_fc6
I0903 10:35:18.947787 29011 net.cpp:84] Creating Layer slicer_fc6
I0903 10:35:18.947795 29011 net.cpp:406] slicer_fc6 <- fc6
I0903 10:35:18.947806 29011 net.cpp:380] slicer_fc6 -> fc6_source
I0903 10:35:18.947824 29011 net.cpp:380] slicer_fc6 -> fc6_target
I0903 10:35:18.947880 29011 net.cpp:122] Setting up slicer_fc6
I0903 10:35:18.947890 29011 net.cpp:129] Top shape: 256 4096 (1048576)
I0903 10:35:18.947896 29011 net.cpp:129] Top shape: 64 4096 (262144)
I0903 10:35:18.947902 29011 net.cpp:137] Memory required for data: 2372153088
I0903 10:35:18.947907 29011 layer_factory.hpp:77] Creating layer fc6_source/bn
I0903 10:35:18.947919 29011 net.cpp:84] Creating Layer fc6_source/bn
I0903 10:35:18.947929 29011 net.cpp:406] fc6_source/bn <- fc6_source
I0903 10:35:18.947940 29011 net.cpp:380] fc6_source/bn -> fc6_source/bn
I0903 10:35:18.948182 29011 net.cpp:122] Setting up fc6_source/bn
I0903 10:35:18.948194 29011 net.cpp:129] Top shape: 256 4096 (1048576)
I0903 10:35:18.948197 29011 net.cpp:137] Memory required for data: 2376347392
I0903 10:35:18.948209 29011 layer_factory.hpp:77] Creating layer fc6_target/bn
I0903 10:35:18.948220 29011 net.cpp:84] Creating Layer fc6_target/bn
I0903 10:35:18.948228 29011 net.cpp:406] fc6_target/bn <- fc6_target
I0903 10:35:18.948236 29011 net.cpp:380] fc6_target/bn -> fc6_target/bn
I0903 10:35:18.948474 29011 net.cpp:122] Setting up fc6_target/bn
I0903 10:35:18.948484 29011 net.cpp:129] Top shape: 64 4096 (262144)
I0903 10:35:18.948491 29011 net.cpp:137] Memory required for data: 2377395968
I0903 10:35:18.948505 29011 layer_factory.hpp:77] Creating layer concat_wbn_6
I0903 10:35:18.948515 29011 net.cpp:84] Creating Layer concat_wbn_6
I0903 10:35:18.948523 29011 net.cpp:406] concat_wbn_6 <- fc6_source/bn
I0903 10:35:18.948534 29011 net.cpp:406] concat_wbn_6 <- fc6_target/bn
I0903 10:35:18.948546 29011 net.cpp:380] concat_wbn_6 -> fc6/bn
I0903 10:35:18.948580 29011 net.cpp:122] Setting up concat_wbn_6
I0903 10:35:18.948590 29011 net.cpp:129] Top shape: 320 4096 (1310720)
I0903 10:35:18.948612 29011 net.cpp:137] Memory required for data: 2382638848
I0903 10:35:18.948618 29011 layer_factory.hpp:77] Creating layer fc6_scale
I0903 10:35:18.948628 29011 net.cpp:84] Creating Layer fc6_scale
I0903 10:35:18.948635 29011 net.cpp:406] fc6_scale <- fc6/bn
I0903 10:35:18.948647 29011 net.cpp:380] fc6_scale -> fc6/scale
I0903 10:35:18.948704 29011 layer_factory.hpp:77] Creating layer fc6_scale
I0903 10:35:18.948853 29011 net.cpp:122] Setting up fc6_scale
I0903 10:35:18.948863 29011 net.cpp:129] Top shape: 320 4096 (1310720)
I0903 10:35:18.948871 29011 net.cpp:137] Memory required for data: 2387881728
I0903 10:35:18.948882 29011 layer_factory.hpp:77] Creating layer relu6
I0903 10:35:18.948890 29011 net.cpp:84] Creating Layer relu6
I0903 10:35:18.948900 29011 net.cpp:406] relu6 <- fc6/scale
I0903 10:35:18.948912 29011 net.cpp:380] relu6 -> fc6/relu
I0903 10:35:18.949211 29011 net.cpp:122] Setting up relu6
I0903 10:35:18.949221 29011 net.cpp:129] Top shape: 320 4096 (1310720)
I0903 10:35:18.949226 29011 net.cpp:137] Memory required for data: 2393124608
I0903 10:35:18.949232 29011 layer_factory.hpp:77] Creating layer drop6
I0903 10:35:18.949247 29011 net.cpp:84] Creating Layer drop6
I0903 10:35:18.949252 29011 net.cpp:406] drop6 <- fc6/relu
I0903 10:35:18.949260 29011 net.cpp:380] drop6 -> fc6/out
I0903 10:35:18.949299 29011 net.cpp:122] Setting up drop6
I0903 10:35:18.949306 29011 net.cpp:129] Top shape: 320 4096 (1310720)
I0903 10:35:18.949309 29011 net.cpp:137] Memory required for data: 2398367488
I0903 10:35:18.949313 29011 layer_factory.hpp:77] Creating layer fc7
I0903 10:35:18.949324 29011 net.cpp:84] Creating Layer fc7
I0903 10:35:18.949331 29011 net.cpp:406] fc7 <- fc6/out
I0903 10:35:18.949340 29011 net.cpp:380] fc7 -> fc7
I0903 10:35:19.085872 29011 net.cpp:122] Setting up fc7
I0903 10:35:19.085901 29011 net.cpp:129] Top shape: 320 4096 (1310720)
I0903 10:35:19.085906 29011 net.cpp:137] Memory required for data: 2403610368
I0903 10:35:19.085917 29011 layer_factory.hpp:77] Creating layer slicer_fc7
I0903 10:35:19.085932 29011 net.cpp:84] Creating Layer slicer_fc7
I0903 10:35:19.085942 29011 net.cpp:406] slicer_fc7 <- fc7
I0903 10:35:19.085956 29011 net.cpp:380] slicer_fc7 -> fc7_source
I0903 10:35:19.085970 29011 net.cpp:380] slicer_fc7 -> fc7_target
I0903 10:35:19.086014 29011 net.cpp:122] Setting up slicer_fc7
I0903 10:35:19.086024 29011 net.cpp:129] Top shape: 256 4096 (1048576)
I0903 10:35:19.086031 29011 net.cpp:129] Top shape: 64 4096 (262144)
I0903 10:35:19.086038 29011 net.cpp:137] Memory required for data: 2408853248
I0903 10:35:19.086043 29011 layer_factory.hpp:77] Creating layer fc7_source/bn
I0903 10:35:19.086055 29011 net.cpp:84] Creating Layer fc7_source/bn
I0903 10:35:19.086061 29011 net.cpp:406] fc7_source/bn <- fc7_source
I0903 10:35:19.086071 29011 net.cpp:380] fc7_source/bn -> fc7_source/bn
I0903 10:35:19.086239 29011 net.cpp:122] Setting up fc7_source/bn
I0903 10:35:19.086247 29011 net.cpp:129] Top shape: 256 4096 (1048576)
I0903 10:35:19.086252 29011 net.cpp:137] Memory required for data: 2413047552
I0903 10:35:19.086263 29011 layer_factory.hpp:77] Creating layer fc7_target/bn
I0903 10:35:19.086273 29011 net.cpp:84] Creating Layer fc7_target/bn
I0903 10:35:19.086282 29011 net.cpp:406] fc7_target/bn <- fc7_target
I0903 10:35:19.086289 29011 net.cpp:380] fc7_target/bn -> fc7_target/bn
I0903 10:35:19.086457 29011 net.cpp:122] Setting up fc7_target/bn
I0903 10:35:19.086465 29011 net.cpp:129] Top shape: 64 4096 (262144)
I0903 10:35:19.086470 29011 net.cpp:137] Memory required for data: 2414096128
I0903 10:35:19.086480 29011 layer_factory.hpp:77] Creating layer concat_wbn_7
I0903 10:35:19.086490 29011 net.cpp:84] Creating Layer concat_wbn_7
I0903 10:35:19.086498 29011 net.cpp:406] concat_wbn_7 <- fc7_source/bn
I0903 10:35:19.086506 29011 net.cpp:406] concat_wbn_7 <- fc7_target/bn
I0903 10:35:19.086516 29011 net.cpp:380] concat_wbn_7 -> fc7/bn
I0903 10:35:19.086544 29011 net.cpp:122] Setting up concat_wbn_7
I0903 10:35:19.086552 29011 net.cpp:129] Top shape: 320 4096 (1310720)
I0903 10:35:19.086571 29011 net.cpp:137] Memory required for data: 2419339008
I0903 10:35:19.086577 29011 layer_factory.hpp:77] Creating layer fc7_scale
I0903 10:35:19.086588 29011 net.cpp:84] Creating Layer fc7_scale
I0903 10:35:19.086596 29011 net.cpp:406] fc7_scale <- fc7/bn
I0903 10:35:19.086603 29011 net.cpp:380] fc7_scale -> fc7/scale
I0903 10:35:19.086647 29011 layer_factory.hpp:77] Creating layer fc7_scale
I0903 10:35:19.086751 29011 net.cpp:122] Setting up fc7_scale
I0903 10:35:19.086760 29011 net.cpp:129] Top shape: 320 4096 (1310720)
I0903 10:35:19.086766 29011 net.cpp:137] Memory required for data: 2424581888
I0903 10:35:19.086774 29011 layer_factory.hpp:77] Creating layer relu7
I0903 10:35:19.086784 29011 net.cpp:84] Creating Layer relu7
I0903 10:35:19.086791 29011 net.cpp:406] relu7 <- fc7/scale
I0903 10:35:19.086799 29011 net.cpp:380] relu7 -> fc7/relu
I0903 10:35:19.087503 29011 net.cpp:122] Setting up relu7
I0903 10:35:19.087517 29011 net.cpp:129] Top shape: 320 4096 (1310720)
I0903 10:35:19.087522 29011 net.cpp:137] Memory required for data: 2429824768
I0903 10:35:19.087527 29011 layer_factory.hpp:77] Creating layer drop7
I0903 10:35:19.087539 29011 net.cpp:84] Creating Layer drop7
I0903 10:35:19.087545 29011 net.cpp:406] drop7 <- fc7/relu
I0903 10:35:19.087554 29011 net.cpp:380] drop7 -> fc7/out
I0903 10:35:19.087597 29011 net.cpp:122] Setting up drop7
I0903 10:35:19.087606 29011 net.cpp:129] Top shape: 320 4096 (1310720)
I0903 10:35:19.087611 29011 net.cpp:137] Memory required for data: 2435067648
I0903 10:35:19.087618 29011 layer_factory.hpp:77] Creating layer bottleneck
I0903 10:35:19.087628 29011 net.cpp:84] Creating Layer bottleneck
I0903 10:35:19.087636 29011 net.cpp:406] bottleneck <- fc7/out
I0903 10:35:19.087646 29011 net.cpp:380] bottleneck -> bottleneck
I0903 10:35:19.095917 29011 net.cpp:122] Setting up bottleneck
I0903 10:35:19.095944 29011 net.cpp:129] Top shape: 320 256 (81920)
I0903 10:35:19.095948 29011 net.cpp:137] Memory required for data: 2435395328
I0903 10:35:19.095962 29011 layer_factory.hpp:77] Creating layer bottleneck_bottleneck_0_split
I0903 10:35:19.095973 29011 net.cpp:84] Creating Layer bottleneck_bottleneck_0_split
I0903 10:35:19.095983 29011 net.cpp:406] bottleneck_bottleneck_0_split <- bottleneck
I0903 10:35:19.095999 29011 net.cpp:380] bottleneck_bottleneck_0_split -> bottleneck_bottleneck_0_split_0
I0903 10:35:19.096014 29011 net.cpp:380] bottleneck_bottleneck_0_split -> bottleneck_bottleneck_0_split_1
I0903 10:35:19.096058 29011 net.cpp:122] Setting up bottleneck_bottleneck_0_split
I0903 10:35:19.096068 29011 net.cpp:129] Top shape: 320 256 (81920)
I0903 10:35:19.096074 29011 net.cpp:129] Top shape: 320 256 (81920)
I0903 10:35:19.096081 29011 net.cpp:137] Memory required for data: 2436050688
I0903 10:35:19.096088 29011 layer_factory.hpp:77] Creating layer slicer_bottle
I0903 10:35:19.096099 29011 net.cpp:84] Creating Layer slicer_bottle
I0903 10:35:19.096107 29011 net.cpp:406] slicer_bottle <- bottleneck_bottleneck_0_split_0
I0903 10:35:19.096114 29011 net.cpp:380] slicer_bottle -> bottleneck_source
I0903 10:35:19.096127 29011 net.cpp:380] slicer_bottle -> bottleneck_target
I0903 10:35:19.096168 29011 net.cpp:122] Setting up slicer_bottle
I0903 10:35:19.096177 29011 net.cpp:129] Top shape: 256 256 (65536)
I0903 10:35:19.096184 29011 net.cpp:129] Top shape: 64 256 (16384)
I0903 10:35:19.096190 29011 net.cpp:137] Memory required for data: 2436378368
I0903 10:35:19.096196 29011 layer_factory.hpp:77] Creating layer silence_target_feature
I0903 10:35:19.096204 29011 net.cpp:84] Creating Layer silence_target_feature
I0903 10:35:19.096211 29011 net.cpp:406] silence_target_feature <- bottleneck_target
I0903 10:35:19.096220 29011 net.cpp:122] Setting up silence_target_feature
I0903 10:35:19.096226 29011 net.cpp:137] Memory required for data: 2436378368
I0903 10:35:19.096232 29011 layer_factory.hpp:77] Creating layer grl
I0903 10:35:19.096249 29011 net.cpp:84] Creating Layer grl
I0903 10:35:19.096256 29011 net.cpp:406] grl <- bottleneck_source
I0903 10:35:19.096277 29011 net.cpp:380] grl -> grl
I0903 10:35:19.096292 29011 messenger.hpp:36] Adding listener for message SOLVER_ITER_CHANGED
I0903 10:35:19.096323 29011 net.cpp:122] Setting up grl
I0903 10:35:19.096333 29011 net.cpp:129] Top shape: 256 256 (65536)
I0903 10:35:19.096338 29011 net.cpp:137] Memory required for data: 2436640512
I0903 10:35:19.096344 29011 layer_factory.hpp:77] Creating layer dc_ip1
I0903 10:35:19.096357 29011 net.cpp:84] Creating Layer dc_ip1
I0903 10:35:19.096364 29011 net.cpp:406] dc_ip1 <- grl
I0903 10:35:19.096375 29011 net.cpp:380] dc_ip1 -> dc_ip1
I0903 10:35:19.099108 29011 net.cpp:122] Setting up dc_ip1
I0903 10:35:19.099128 29011 net.cpp:129] Top shape: 256 1024 (262144)
I0903 10:35:19.099131 29011 net.cpp:137] Memory required for data: 2437689088
I0903 10:35:19.099151 29011 layer_factory.hpp:77] Creating layer dc_relu1
I0903 10:35:19.099164 29011 net.cpp:84] Creating Layer dc_relu1
I0903 10:35:19.099171 29011 net.cpp:406] dc_relu1 <- dc_ip1
I0903 10:35:19.099179 29011 net.cpp:367] dc_relu1 -> dc_ip1 (in-place)
I0903 10:35:19.099418 29011 net.cpp:122] Setting up dc_relu1
I0903 10:35:19.099431 29011 net.cpp:129] Top shape: 256 1024 (262144)
I0903 10:35:19.099436 29011 net.cpp:137] Memory required for data: 2438737664
I0903 10:35:19.099440 29011 layer_factory.hpp:77] Creating layer dc_drop1
I0903 10:35:19.099450 29011 net.cpp:84] Creating Layer dc_drop1
I0903 10:35:19.099458 29011 net.cpp:406] dc_drop1 <- dc_ip1
I0903 10:35:19.099467 29011 net.cpp:367] dc_drop1 -> dc_ip1 (in-place)
I0903 10:35:19.099494 29011 net.cpp:122] Setting up dc_drop1
I0903 10:35:19.099504 29011 net.cpp:129] Top shape: 256 1024 (262144)
I0903 10:35:19.099509 29011 net.cpp:137] Memory required for data: 2439786240
I0903 10:35:19.099516 29011 layer_factory.hpp:77] Creating layer dc_ip2
I0903 10:35:19.099529 29011 net.cpp:84] Creating Layer dc_ip2
I0903 10:35:19.099537 29011 net.cpp:406] dc_ip2 <- dc_ip1
I0903 10:35:19.099545 29011 net.cpp:380] dc_ip2 -> dc_ip2
I0903 10:35:19.107859 29011 net.cpp:122] Setting up dc_ip2
I0903 10:35:19.107887 29011 net.cpp:129] Top shape: 256 1024 (262144)
I0903 10:35:19.107892 29011 net.cpp:137] Memory required for data: 2440834816
I0903 10:35:19.107903 29011 layer_factory.hpp:77] Creating layer dc_relu2
I0903 10:35:19.107915 29011 net.cpp:84] Creating Layer dc_relu2
I0903 10:35:19.107924 29011 net.cpp:406] dc_relu2 <- dc_ip2
I0903 10:35:19.107937 29011 net.cpp:367] dc_relu2 -> dc_ip2 (in-place)
I0903 10:35:19.108168 29011 net.cpp:122] Setting up dc_relu2
I0903 10:35:19.108178 29011 net.cpp:129] Top shape: 256 1024 (262144)
I0903 10:35:19.108182 29011 net.cpp:137] Memory required for data: 2441883392
I0903 10:35:19.108188 29011 layer_factory.hpp:77] Creating layer dc_drop2
I0903 10:35:19.108203 29011 net.cpp:84] Creating Layer dc_drop2
I0903 10:35:19.108211 29011 net.cpp:406] dc_drop2 <- dc_ip2
I0903 10:35:19.108218 29011 net.cpp:367] dc_drop2 -> dc_ip2 (in-place)
I0903 10:35:19.108247 29011 net.cpp:122] Setting up dc_drop2
I0903 10:35:19.108254 29011 net.cpp:129] Top shape: 256 1024 (262144)
I0903 10:35:19.108261 29011 net.cpp:137] Memory required for data: 2442931968
I0903 10:35:19.108269 29011 layer_factory.hpp:77] Creating layer dc_ip3
I0903 10:35:19.108283 29011 net.cpp:84] Creating Layer dc_ip3
I0903 10:35:19.108290 29011 net.cpp:406] dc_ip3 <- dc_ip2
I0903 10:35:19.108300 29011 net.cpp:380] dc_ip3 -> dc_ip3
I0903 10:35:19.108407 29011 net.cpp:122] Setting up dc_ip3
I0903 10:35:19.108417 29011 net.cpp:129] Top shape: 256 1 (256)
I0903 10:35:19.108423 29011 net.cpp:137] Memory required for data: 2442932992
I0903 10:35:19.108433 29011 layer_factory.hpp:77] Creating layer dc_ip3_dc_ip3_0_split
I0903 10:35:19.108440 29011 net.cpp:84] Creating Layer dc_ip3_dc_ip3_0_split
I0903 10:35:19.108448 29011 net.cpp:406] dc_ip3_dc_ip3_0_split <- dc_ip3
I0903 10:35:19.108455 29011 net.cpp:380] dc_ip3_dc_ip3_0_split -> dc_ip3_dc_ip3_0_split_0
I0903 10:35:19.108471 29011 net.cpp:380] dc_ip3_dc_ip3_0_split -> dc_ip3_dc_ip3_0_split_1
I0903 10:35:19.108508 29011 net.cpp:122] Setting up dc_ip3_dc_ip3_0_split
I0903 10:35:19.108527 29011 net.cpp:129] Top shape: 256 1 (256)
I0903 10:35:19.108534 29011 net.cpp:129] Top shape: 256 1 (256)
I0903 10:35:19.108542 29011 net.cpp:137] Memory required for data: 2442935040
I0903 10:35:19.108547 29011 layer_factory.hpp:77] Creating layer dc_loss
I0903 10:35:19.108561 29011 net.cpp:84] Creating Layer dc_loss
I0903 10:35:19.108568 29011 net.cpp:406] dc_loss <- dc_ip3_dc_ip3_0_split_0
I0903 10:35:19.108575 29011 net.cpp:406] dc_loss <- domain_labels_concat_domain_labels_0_split_0
I0903 10:35:19.108587 29011 net.cpp:380] dc_loss -> dc_loss
…
I0903 10:35:19.108721 29011 net.cpp:380] dc_accuracy -> domain_accuracy
I0903 10:35:19.108733 29011 net.cpp:122] Setting up dc_accuracy
I0903 10:35:19.108742 29011 net.cpp:129] Top shape: (1)
I0903 10:35:19.108747 29011 net.cpp:137] Memory required for data: 2442935048
I0903 10:35:19.108754 29011 layer_factory.hpp:77] Creating layer office-fc8
I0903 10:35:19.108764 29011 net.cpp:84] Creating Layer office-fc8
I0903 10:35:19.108772 29011 net.cpp:406] office-fc8 <- bottleneck_bottleneck_0_split_1
I0903 10:35:19.108780 29011 net.cpp:380] office-fc8 -> fc8
I0903 10:35:19.109851 29011 net.cpp:122] Setting up office-fc8
I0903 10:35:19.109864 29011 net.cpp:129] Top shape: 320 31 (9920)
I0903 10:35:19.109869 29011 net.cpp:137] Memory required for data: 2442974728
I0903 10:35:19.109879 29011 layer_factory.hpp:77] Creating layer slicer_fc8
I0903 10:35:19.109894 29011 net.cpp:84] Creating Layer slicer_fc8
I0903 10:35:19.109901 29011 net.cpp:406] slicer_fc8 <- fc8
I0903 10:35:19.109910 29011 net.cpp:380] slicer_fc8 -> fc8_source
I0903 10:35:19.109920 29011 net.cpp:380] slicer_fc8 -> fc8_target
I0903 10:35:19.109963 29011 net.cpp:122] Setting up slicer_fc8
I0903 10:35:19.109972 29011 net.cpp:129] Top shape: 256 31 (7936)
I0903 10:35:19.109977 29011 net.cpp:129] Top shape: 64 31 (1984)
I0903 10:35:19.109982 29011 net.cpp:137] Memory required for data: 2443014408
I0903 10:35:19.109988 29011 layer_factory.hpp:77] Creating layer fc8_source/bn
I0903 10:35:19.109999 29011 net.cpp:84] Creating Layer fc8_source/bn
I0903 10:35:19.110007 29011 net.cpp:406] fc8_source/bn <- fc8_source
I0903 10:35:19.110015 29011 net.cpp:380] fc8_source/bn -> fc8_source/bn
I0903 10:35:19.110196 29011 net.cpp:122] Setting up fc8_source/bn
I0903 10:35:19.110205 29011 net.cpp:129] Top shape: 256 31 (7936)
I0903 10:35:19.110209 29011 net.cpp:137] Memory required for data: 2443046152
I0903 10:35:19.110220 29011 layer_factory.hpp:77] Creating layer fc8_target/bn
I0903 10:35:19.110229 29011 net.cpp:84] Creating Layer fc8_target/bn
I0903 10:35:19.110234 29011 net.cpp:406] fc8_target/bn <- fc8_target
I0903 10:35:19.110244 29011 net.cpp:380] fc8_target/bn -> fc8_target/bn
I0903 10:35:19.110417 29011 net.cpp:122] Setting up fc8_target/bn
I0903 10:35:19.110426 29011 net.cpp:129] Top shape: 64 31 (1984)
I0903 10:35:19.110431 29011 net.cpp:137] Memory required for data: 2443054088
I0903 10:35:19.110442 29011 layer_factory.hpp:77] Creating layer concat_wbn_8
I0903 10:35:19.110455 29011 net.cpp:84] Creating Layer concat_wbn_8
I0903 10:35:19.110461 29011 net.cpp:406] concat_wbn_8 <- fc8_source/bn
I0903 10:35:19.110468 29011 net.cpp:406] concat_wbn_8 <- fc8_target/bn
I0903 10:35:19.110476 29011 net.cpp:380] concat_wbn_8 -> fc8/bn
I0903 10:35:19.110504 29011 net.cpp:122] Setting up concat_wbn_8
I0903 10:35:19.110512 29011 net.cpp:129] Top shape: 320 31 (9920)
I0903 10:35:19.110518 29011 net.cpp:137] Memory required for data: 2443093768
I0903 10:35:19.110535 29011 layer_factory.hpp:77] Creating layer fc8_scale
I0903 10:35:19.110548 29011 net.cpp:84] Creating Layer fc8_scale
I0903 10:35:19.110555 29011 net.cpp:406] fc8_scale <- fc8/bn
I0903 10:35:19.110563 29011 net.cpp:380] fc8_scale -> fc8/scale
I0903 10:35:19.110610 29011 layer_factory.hpp:77] Creating layer fc8_scale
I0903 10:35:19.110718 29011 net.cpp:122] Setting up fc8_scale
I0903 10:35:19.110728 29011 net.cpp:129] Top shape: 320 31 (9920)
I0903 10:35:19.110733 29011 net.cpp:137] Memory required for data: 2443133448
I0903 10:35:19.110740 29011 layer_factory.hpp:77] Creating layer slicer_scorer
I0903 10:35:19.110749 29011 net.cpp:84] Creating Layer slicer_scorer
I0903 10:35:19.110754 29011 net.cpp:406] slicer_scorer <- fc8/scale
I0903 10:35:19.110764 29011 net.cpp:380] slicer_scorer -> score_source
I0903 10:35:19.110774 29011 net.cpp:380] slicer_scorer -> score_target
I0903 10:35:19.110821 29011 net.cpp:122] Setting up slicer_scorer
I0903 10:35:19.110831 29011 net.cpp:129] Top shape: 256 31 (7936)
I0903 10:35:19.110837 29011 net.cpp:129] Top shape: 64 31 (1984)
I0903 10:35:19.110843 29011 net.cpp:137] Memory required for data: 2443173128
I0903 10:35:19.110849 29011 layer_factory.hpp:77] Creating layer score_source_slicer_scorer_0_split
I0903 10:35:19.110858 29011 net.cpp:84] Creating Layer score_source_slicer_scorer_0_split
I0903 10:35:19.110867 29011 net.cpp:406] score_source_slicer_scorer_0_split <- score_source
I0903 10:35:19.110873 29011 net.cpp:380] score_source_slicer_scorer_0_split -> score_source_slicer_scorer_0_split_0
I0903 10:35:19.110884 29011 net.cpp:380] score_source_slicer_scorer_0_split -> score_source_slicer_scorer_0_split_1
I0903 10:35:19.110922 29011 net.cpp:122] Setting up score_source_slicer_scorer_0_split
I0903 10:35:19.110930 29011 net.cpp:129] Top shape: 256 31 (7936)
I0903 10:35:19.110936 29011 net.cpp:129] Top shape: 256 31 (7936)
I0903 10:35:19.110944 29011 net.cpp:137] Memory required for data: 2443236616
I0903 10:35:19.110947 29011 layer_factory.hpp:77] Creating layer loss
I0903 10:35:19.110965 29011 net.cpp:84] Creating Layer loss
I0903 10:35:19.110972 29011 net.cpp:406] loss <- score_source_slicer_scorer_0_split_0
I0903 10:35:19.110980 29011 net.cpp:406] loss <- label_label_0_split_0
I0903 10:35:19.110990 29011 net.cpp:380] loss -> loss
…
I0903 10:35:19.544677 29011 net.cpp:294] The NetState phase (1) differed from the phase (0) specified by a rule in layer silence_target
I0903 10:35:19.544860 29011 net.cpp:51] Initializing net from parameters: 
name: "CaffeNet"
state {
  phase: TEST
}
layer {
  name: "data"
  type: "ImageData"
  top: "data"
  top: "label"
  include {
    phase: TEST
  }
  transform_param {
    mirror: false
    crop_size: 224
    mean_value: 104
    mean_value: 117
    mean_value: 123
  }
  image_data_param {
    source: "/home/alfa/Documents/msda/mywork/data/office/office_d.txt"
    batch_size: 1
    shuffle: false
    new_height: 256
    new_width: 256
    is_color: true
  }
}
layer {
  name: "conv1"
  type: "Convolution"
  bottom: "data"
  top: "conv1"
  param {
    lr_mult: 1
    decay_mult: 1
  }
  param {
    lr_mult: 2
    decay_mult: 0
  }
  convolution_param {
    num_output: 96
    kernel_size: 11
    stride: 4
    weight_filler {
      type: "gaussian"
      std: 0.01
    }
    bias_filler {
      type: "constant"
      value: 0
    }
  }
}
layer {
  name: "relu1"
  type: "ReLU"
  bottom: "conv1"
  top: "conv1"
}
layer {
  name: "pool1"
  type: "Pooling"
  bottom: "conv1"
  top: "pool1"
  pooling_param {
    pool: MAX
    kernel_size: 3
    stride: 2
  }
}
layer {
  name: "norm1"
  type: "LRN"
  bottom: "pool1"
  top: "norm1"
  lrn_param {
    local_size: 5
    alpha: 0.0001
    beta: 0.75
  }
}
layer {
  name: "conv2"
  type: "Convolution"
  bottom: "norm1"
  top: "conv2"
  param {
    lr_mult: 1
    decay_mult: 1
  }
  param {
    lr_mult: 2
    decay_mult: 0
  }
  convolution_param {
    num_output: 256
    pad: 2
    kernel_size: 5
    group: 2
    weight_filler {
      type: "gaussian"
      std: 0.01
    }
    bias_filler {
      type: "constant"
      value: 1
    }
  }
}
layer {
  name: "relu2"
  type: "ReLU"
  bottom: "conv2"
  top: "conv2"
}
layer {
  name: "pool2"
  type: "Pooling"
  bottom: "conv2"
  top: "pool2"
  pooling_param {
    pool: MAX
    kernel_size: 3
    stride: 2
  }
}
layer {
  name: "norm2"
  type: "LRN"
  bottom: "pool2"
  top: "norm2"
  lrn_param {
    local_size: 5
    alpha: 0.0001
    beta: 0.75
  }
}
layer {
  name: "conv3"
  type: "Convolution"
  bottom: "norm2"
  top: "conv3"
  param {
    lr_mult: 1
    decay_mult: 1
  }
  param {
    lr_mult: 2
    decay_mult: 0
  }
  convolution_param {
    num_output: 384
    pad: 1
    kernel_size: 3
    weight_filler {
      type: "gaussian"
      std: 0.01
    }
    bias_filler {
      type: "constant"
      value: 0
    }
  }
}
layer {
  name: "relu3"
  type: "ReLU"
  bottom: "conv3"
  top: "conv3"
}
layer {
  name: "conv4"
  type: "Convolution"
  bottom: "conv3"
  top: "conv4"
  param {
    lr_mult: 1
    decay_mult: 1
  }
  param {
    lr_mult: 2
    decay_mult: 0
  }
  convolution_param {
    num_output: 384
    pad: 1
    kernel_size: 3
    group: 2
    weight_filler {
      type: "gaussian"
      std: 0.01
    }
    bias_filler {
      type: "constant"
      value: 1
    }
  }
}
layer {
  name: "relu4"
  type: "ReLU"
  bottom: "conv4"
  top: "conv4"
}
layer {
  name: "conv5"
  type: "Convolution"
  bottom: "conv4"
  top: "conv5"
  param {
    lr_mult: 1
    decay_mult: 1
  }
  param {
    lr_mult: 2
    decay_mult: 0
  }
  convolution_param {
    num_output: 256
    pad: 1
    kernel_size: 3
    group: 2
    weight_filler {
      type: "gaussian"
      std: 0.01
    }
    bias_filler {
      type: "constant"
      value: 1
    }
  }
}
layer {
  name: "relu5"
  type: "ReLU"
  bottom: "conv5"
  top: "conv5"
}
layer {
  name: "pool5"
  type: "Pooling"
  bottom: "conv5"
  top: "pool5"
  pooling_param {
    pool: MAX
    kernel_size: 3
    stride: 2
  }
}
layer {
  name: "fc6"
  type: "InnerProduct"
  bottom: "pool5"
  top: "fc6"
  param {
    lr_mult: 1
    decay_mult: 1
  }
  param {
    lr_mult: 2
    decay_mult: 0
  }
  inner_product_param {
    num_output: 4096
    weight_filler {
      type: "gaussian"
      std: 0.005
    }
    bias_filler {
      type: "constant"
      value: 0
    }
  }
}
layer {
  name: "fc6_target/bn"
  type: "BatchNorm"
  bottom: "fc6"
  top: "fc6/bn"
  param {
    lr_mult: 0
    decay_mult: 0
  }
  param {
    lr_mult: 0
    decay_mult: 0
  }
  param {
    lr_mult: 0
    decay_mult: 0
  }
  include {
    phase: TEST
  }
  batch_norm_param {
    moving_average_fraction: 0.95
  }
}
layer {
  name: "fc6_scale"
  type: "Scale"
  bottom: "fc6/bn"
  top: "fc6/scale"
  param {
    lr_mult: 1
    decay_mult: 0
  }
  param {
    lr_mult: 1
    decay_mult: 0
  }
  scale_param {
    axis: 1
    num_axes: 1
    filler {
      type: "constant"
      value: 1
    }
    bias_term: true
    bias_filler {
      type: "constant"
      value: 0
    }
  }
}
layer {
  name: "relu6"
  type: "ReLU"
  bottom: "fc6/scale"
  top: "fc6/relu"
}
layer {
  name: "drop6"
  type: "Dropout"
  bottom: "fc6/relu"
  top: "fc6/out"
  dropout_param {
    dropout_ratio: 0.5
  }
}
layer {
  name: "fc7"
  type: "InnerProduct"
  bottom: "fc6/out"
  top: "fc7"
  param {
    lr_mult: 10
    decay_mult: 1
  }
  param {
    lr_mult: 20
    decay_mult: 0
  }
  inner_product_param {
    num_output: 4096
    weight_filler {
      type: "gaussian"
      std: 0.005
    }
    bias_filler {
      type: "constant"
      value: 0
    }
  }
}
layer {
  name: "fc7_target/bn"
  type: "BatchNorm"
  bottom: "fc7"
  top: "fc7/bn"
  param {
    lr_mult: 0
    decay_mult: 0
  }
  param {
    lr_mult: 0
    decay_mult: 0
  }
  param {
    lr_mult: 0
    decay_mult: 0
  }
  include {
    phase: TEST
  }
  batch_norm_param {
    moving_average_fraction: 0.95
  }
}
layer {
  name: "fc7_scale"
  type: "Scale"
  bottom: "fc7/bn"
  top: "fc7/scale"
  param {
    lr_mult: 1
    decay_mult: 0
  }
  param {
    lr_mult: 1
    decay_mult: 0
  }
  scale_param {
    axis: 1
    num_axes: 1
    filler {
      type: "constant"
      value: 1
    }
    bias_term: true
    bias_filler {
      type: "constant"
      value: 0
    }
  }
}
layer {
  name: "relu7"
  type: "ReLU"
  bottom: "fc7/scale"
  top: "fc7/relu"
}
layer {
  name: "drop7"
  type: "Dropout"
  bottom: "fc7/relu"
  top: "fc7/out"
  dropout_param {
    dropout_ratio: 0.5
  }
}
layer {
  name: "bottleneck"
  type: "InnerProduct"
  bottom: "fc7/out"
  top: "bottleneck"
  param {
    lr_mult: 10
    decay_mult: 1
  }
  param {
    lr_mult: 20
    decay_mult: 0
  }
  inner_product_param {
    num_output: 256
    weight_filler {
      type: "gaussian"
      std: 0.005
    }
    bias_filler {
      type: "constant"
      value: 0
    }
  }
}
layer {
  name: "office-fc8"
  type: "InnerProduct"
  bottom: "bottleneck"
  top: "fc8"
  param {
    lr_mult: 10
    decay_mult: 1
  }
  param {
    lr_mult: 20
    decay_mult: 0
  }
  inner_product_param {
    num_output: 31
    weight_filler {
      type: "gaussian"
      std: 0.01
    }
    bias_filler {
      type: "constant"
      value: 0
    }
  }
}
layer {
  name: "fc8_target/bn"
  type: "BatchNorm"
  bottom: "fc8"
  top: "fc8/bn"
  param {
    lr_mult: 0
    decay_mult: 0
  }
  param {
    lr_mult: 0
    decay_mult: 0
  }
  param {
    lr_mult: 0
    decay_mult: 0
  }
  include {
    phase: TEST
  }
  batch_norm_param {
    moving_average_fraction: 0.95
  }
}
layer {
  name: "fc8_scale"
  type: "Scale"
  bottom: "fc8/bn"
  top: "fc8/scale"
  param {
    lr_mult: 1
    decay_mult: 0
  }
  param {
    lr_mult: 1
    decay_mult: 0
  }
  scale_param {
    axis: 1
    num_axes: 1
    filler {
      type: "constant"
      value: 1
    }
    bias_term: true
    bias_filler {
      type: "constant"
      value: 0
    }
  }
}
layer {
  name: "accuracy"
  type: "Accuracy"
  bottom: "fc8/scale"
  bottom: "label"
  top: "accuracy"
  include {
    phase: TEST
  }
}
I0903 10:35:19.544967 29011 layer_factory.hpp:77] Creating layer data
I0903 10:35:19.544986 29011 net.cpp:84] Creating Layer data
I0903 10:35:19.544992 29011 net.cpp:380] data -> data
I0903 10:35:19.545004 29011 net.cpp:380] data -> label
I0903 10:35:19.545015 29011 image_data_layer.cpp:38] Opening file /home/alfa/Documents/msda/mywork/data/office/office_d.txt
I0903 10:35:19.545320 29011 image_data_layer.cpp:63] A total of 498 images.
I0903 10:35:19.550571 29011 image_data_layer.cpp:90] output data size: 1,3,224,224
I0903 10:35:19.552572 29011 net.cpp:122] Setting up data
I0903 10:35:19.552590 29011 net.cpp:129] Top shape: 1 3 224 224 (150528)
I0903 10:35:19.552597 29011 net.cpp:129] Top shape: 1 (1)
I0903 10:35:19.552603 29011 net.cpp:137] Memory required for data: 602116
I0903 10:35:19.552611 29011 layer_factory.hpp:77] Creating layer conv1
I0903 10:35:19.552634 29011 net.cpp:84] Creating Layer conv1
I0903 10:35:19.552641 29011 net.cpp:406] conv1 <- data
I0903 10:35:19.552654 29011 net.cpp:380] conv1 -> conv1
I0903 10:35:19.554137 29011 net.cpp:122] Setting up conv1
I0903 10:35:19.554150 29011 net.cpp:129] Top shape: 1 96 54 54 (279936)
I0903 10:35:19.554155 29011 net.cpp:137] Memory required for data: 1721860
I0903 10:35:19.554170 29011 layer_factory.hpp:77] Creating layer relu1
I0903 10:35:19.554181 29011 net.cpp:84] Creating Layer relu1
I0903 10:35:19.554191 29011 net.cpp:406] relu1 <- conv1
I0903 10:35:19.554200 29011 net.cpp:367] relu1 -> conv1 (in-place)
I0903 10:35:19.554368 29011 net.cpp:122] Setting up relu1
I0903 10:35:19.554378 29011 net.cpp:129] Top shape: 1 96 54 54 (279936)
I0903 10:35:19.554383 29011 net.cpp:137] Memory required for data: 2841604
I0903 10:35:19.554388 29011 layer_factory.hpp:77] Creating layer pool1
I0903 10:35:19.554399 29011 net.cpp:84] Creating Layer pool1
I0903 10:35:19.554405 29011 net.cpp:406] pool1 <- conv1
I0903 10:35:19.554412 29011 net.cpp:380] pool1 -> pool1
I0903 10:35:19.554461 29011 net.cpp:122] Setting up pool1
I0903 10:35:19.554471 29011 net.cpp:129] Top shape: 1 96 27 27 (69984)
I0903 10:35:19.554476 29011 net.cpp:137] Memory required for data: 3121540
I0903 10:35:19.554481 29011 layer_factory.hpp:77] Creating layer norm1
I0903 10:35:19.554492 29011 net.cpp:84] Creating Layer norm1
I0903 10:35:19.554502 29011 net.cpp:406] norm1 <- pool1
I0903 10:35:19.554509 29011 net.cpp:380] norm1 -> norm1
I0903 10:35:19.554702 29011 net.cpp:122] Setting up norm1
I0903 10:35:19.554713 29011 net.cpp:129] Top shape: 1 96 27 27 (69984)
I0903 10:35:19.554718 29011 net.cpp:137] Memory required for data: 3401476
I0903 10:35:19.554724 29011 layer_factory.hpp:77] Creating layer conv2
I0903 10:35:19.554738 29011 net.cpp:84] Creating Layer conv2
I0903 10:35:19.554745 29011 net.cpp:406] conv2 <- norm1
I0903 10:35:19.554754 29011 net.cpp:380] conv2 -> conv2
I0903 10:35:19.559654 29011 net.cpp:122] Setting up conv2
I0903 10:35:19.559679 29011 net.cpp:129] Top shape: 1 256 27 27 (186624)
I0903 10:35:19.559684 29011 net.cpp:137] Memory required for data: 4147972
I0903 10:35:19.559700 29011 layer_factory.hpp:77] Creating layer relu2
I0903 10:35:19.559741 29011 net.cpp:84] Creating Layer relu2
I0903 10:35:19.559748 29011 net.cpp:406] relu2 <- conv2
I0903 10:35:19.559757 29011 net.cpp:367] relu2 -> conv2 (in-place)
I0903 10:35:19.560308 29011 net.cpp:122] Setting up relu2
I0903 10:35:19.560322 29011 net.cpp:129] Top shape: 1 256 27 27 (186624)
I0903 10:35:19.560326 29011 net.cpp:137] Memory required for data: 4894468
I0903 10:35:19.560333 29011 layer_factory.hpp:77] Creating layer pool2
I0903 10:35:19.560343 29011 net.cpp:84] Creating Layer pool2
I0903 10:35:19.560348 29011 net.cpp:406] pool2 <- conv2
I0903 10:35:19.560356 29011 net.cpp:380] pool2 -> pool2
I0903 10:35:19.560405 29011 net.cpp:122] Setting up pool2
I0903 10:35:19.560415 29011 net.cpp:129] Top shape: 1 256 13 13 (43264)
I0903 10:35:19.560420 29011 net.cpp:137] Memory required for data: 5067524
I0903 10:35:19.560425 29011 layer_factory.hpp:77] Creating layer norm2
I0903 10:35:19.560436 29011 net.cpp:84] Creating Layer norm2
I0903 10:35:19.560447 29011 net.cpp:406] norm2 <- pool2
I0903 10:35:19.560456 29011 net.cpp:380] norm2 -> norm2
I0903 10:35:19.560640 29011 net.cpp:122] Setting up norm2
I0903 10:35:19.560649 29011 net.cpp:129] Top shape: 1 256 13 13 (43264)
I0903 10:35:19.560654 29011 net.cpp:137] Memory required for data: 5240580
I0903 10:35:19.560659 29011 layer_factory.hpp:77] Creating layer conv3
I0903 10:35:19.560693 29011 net.cpp:84] Creating Layer conv3
I0903 10:35:19.560699 29011 net.cpp:406] conv3 <- norm2
I0903 10:35:19.560708 29011 net.cpp:380] conv3 -> conv3
I0903 10:35:19.572973 29011 net.cpp:122] Setting up conv3
I0903 10:35:19.572996 29011 net.cpp:129] Top shape: 1 384 13 13 (64896)
I0903 10:35:19.573001 29011 net.cpp:137] Memory required for data: 5500164
I0903 10:35:19.573019 29011 layer_factory.hpp:77] Creating layer relu3
I0903 10:35:19.573031 29011 net.cpp:84] Creating Layer relu3
I0903 10:35:19.573038 29011 net.cpp:406] relu3 <- conv3
I0903 10:35:19.573047 29011 net.cpp:367] relu3 -> conv3 (in-place)
I0903 10:35:19.573225 29011 net.cpp:122] Setting up relu3
I0903 10:35:19.573235 29011 net.cpp:129] Top shape: 1 384 13 13 (64896)
I0903 10:35:19.573240 29011 net.cpp:137] Memory required for data: 5759748
I0903 10:35:19.573246 29011 layer_factory.hpp:77] Creating layer conv4
I0903 10:35:19.573263 29011 net.cpp:84] Creating Layer conv4
I0903 10:35:19.573272 29011 net.cpp:406] conv4 <- conv3
I0903 10:35:19.573282 29011 net.cpp:380] conv4 -> conv4
I0903 10:35:19.581384 29011 net.cpp:122] Setting up conv4
I0903 10:35:19.581409 29011 net.cpp:129] Top shape: 1 384 13 13 (64896)
I0903 10:35:19.581415 29011 net.cpp:137] Memory required for data: 6019332
I0903 10:35:19.581427 29011 layer_factory.hpp:77] Creating layer relu4
I0903 10:35:19.581441 29011 net.cpp:84] Creating Layer relu4
I0903 10:35:19.581447 29011 net.cpp:406] relu4 <- conv4
I0903 10:35:19.581457 29011 net.cpp:367] relu4 -> conv4 (in-place)
I0903 10:35:19.581991 29011 net.cpp:122] Setting up relu4
I0903 10:35:19.582005 29011 net.cpp:129] Top shape: 1 384 13 13 (64896)
I0903 10:35:19.582010 29011 net.cpp:137] Memory required for data: 6278916
I0903 10:35:19.582016 29011 layer_factory.hpp:77] Creating layer conv5
I0903 10:35:19.582032 29011 net.cpp:84] Creating Layer conv5
I0903 10:35:19.582041 29011 net.cpp:406] conv5 <- conv4
I0903 10:35:19.582052 29011 net.cpp:380] conv5 -> conv5
I0903 10:35:19.590029 29011 net.cpp:122] Setting up conv5
I0903 10:35:19.590054 29011 net.cpp:129] Top shape: 1 256 13 13 (43264)
I0903 10:35:19.590057 29011 net.cpp:137] Memory required for data: 6451972
I0903 10:35:19.590076 29011 layer_factory.hpp:77] Creating layer relu5
I0903 10:35:19.590088 29011 net.cpp:84] Creating Layer relu5
I0903 10:35:19.590095 29011 net.cpp:406] relu5 <- conv5
I0903 10:35:19.590103 29011 net.cpp:367] relu5 -> conv5 (in-place)
I0903 10:35:19.590278 29011 net.cpp:122] Setting up relu5
I0903 10:35:19.590288 29011 net.cpp:129] Top shape: 1 256 13 13 (43264)
I0903 10:35:19.590293 29011 net.cpp:137] Memory required for data: 6625028
I0903 10:35:19.590299 29011 layer_factory.hpp:77] Creating layer pool5
I0903 10:35:19.590310 29011 net.cpp:84] Creating Layer pool5
I0903 10:35:19.590317 29011 net.cpp:406] pool5 <- conv5
I0903 10:35:19.590332 29011 net.cpp:380] pool5 -> pool5
I0903 10:35:19.590392 29011 net.cpp:122] Setting up pool5
I0903 10:35:19.590401 29011 net.cpp:129] Top shape: 1 256 6 6 (9216)
I0903 10:35:19.590409 29011 net.cpp:137] Memory required for data: 6661892
I0903 10:35:19.590414 29011 layer_factory.hpp:77] Creating layer fc6
I0903 10:35:19.590430 29011 net.cpp:84] Creating Layer fc6
I0903 10:35:19.590438 29011 net.cpp:406] fc6 <- pool5
I0903 10:35:19.590448 29011 net.cpp:380] fc6 -> fc6
I0903 10:35:19.869329 29011 net.cpp:122] Setting up fc6
I0903 10:35:19.869354 29011 net.cpp:129] Top shape: 1 4096 (4096)
I0903 10:35:19.869359 29011 net.cpp:137] Memory required for data: 6678276
I0903 10:35:19.869372 29011 layer_factory.hpp:77] Creating layer fc6_target/bn
I0903 10:35:19.869386 29011 net.cpp:84] Creating Layer fc6_target/bn
I0903 10:35:19.869393 29011 net.cpp:406] fc6_target/bn <- fc6
I0903 10:35:19.869406 29011 net.cpp:380] fc6_target/bn -> fc6/bn
I0903 10:35:19.869597 29011 net.cpp:122] Setting up fc6_target/bn
I0903 10:35:19.869606 29011 net.cpp:129] Top shape: 1 4096 (4096)
I0903 10:35:19.869609 29011 net.cpp:137] Memory required for data: 6694660
I0903 10:35:19.869619 29011 layer_factory.hpp:77] Creating layer fc6_scale
I0903 10:35:19.869647 29011 net.cpp:84] Creating Layer fc6_scale
I0903 10:35:19.869653 29011 net.cpp:406] fc6_scale <- fc6/bn
I0903 10:35:19.869663 29011 net.cpp:380] fc6_scale -> fc6/scale
I0903 10:35:19.869709 29011 layer_factory.hpp:77] Creating layer fc6_scale
I0903 10:35:19.869823 29011 net.cpp:122] Setting up fc6_scale
I0903 10:35:19.869832 29011 net.cpp:129] Top shape: 1 4096 (4096)
I0903 10:35:19.869837 29011 net.cpp:137] Memory required for data: 6711044
I0903 10:35:19.869851 29011 layer_factory.hpp:77] Creating layer relu6
I0903 10:35:19.869860 29011 net.cpp:84] Creating Layer relu6
I0903 10:35:19.869865 29011 net.cpp:406] relu6 <- fc6/scale
I0903 10:35:19.869873 29011 net.cpp:380] relu6 -> fc6/relu
I0903 10:35:19.870121 29011 net.cpp:122] Setting up relu6
I0903 10:35:19.870131 29011 net.cpp:129] Top shape: 1 4096 (4096)
I0903 10:35:19.870134 29011 net.cpp:137] Memory required for data: 6727428
I0903 10:35:19.870139 29011 layer_factory.hpp:77] Creating layer drop6
I0903 10:35:19.870149 29011 net.cpp:84] Creating Layer drop6
I0903 10:35:19.870157 29011 net.cpp:406] drop6 <- fc6/relu
I0903 10:35:19.870167 29011 net.cpp:380] drop6 -> fc6/out
I0903 10:35:19.870213 29011 net.cpp:122] Setting up drop6
I0903 10:35:19.870223 29011 net.cpp:129] Top shape: 1 4096 (4096)
I0903 10:35:19.870227 29011 net.cpp:137] Memory required for data: 6743812
I0903 10:35:19.870232 29011 layer_factory.hpp:77] Creating layer fc7
I0903 10:35:19.870245 29011 net.cpp:84] Creating Layer fc7
I0903 10:35:19.870254 29011 net.cpp:406] fc7 <- fc6/out
I0903 10:35:19.870262 29011 net.cpp:380] fc7 -> fc7
I0903 10:35:19.993875 29011 net.cpp:122] Setting up fc7
I0903 10:35:19.993903 29011 net.cpp:129] Top shape: 1 4096 (4096)
I0903 10:35:19.993909 29011 net.cpp:137] Memory required for data: 6760196
I0903 10:35:19.993924 29011 layer_factory.hpp:77] Creating layer fc7_target/bn
I0903 10:35:19.993942 29011 net.cpp:84] Creating Layer fc7_target/bn
I0903 10:35:19.993950 29011 net.cpp:406] fc7_target/bn <- fc7
I0903 10:35:19.993963 29011 net.cpp:380] fc7_target/bn -> fc7/bn
I0903 10:35:19.994156 29011 net.cpp:122] Setting up fc7_target/bn
I0903 10:35:19.994165 29011 net.cpp:129] Top shape: 1 4096 (4096)
I0903 10:35:19.994170 29011 net.cpp:137] Memory required for data: 6776580
I0903 10:35:19.994184 29011 layer_factory.hpp:77] Creating layer fc7_scale
I0903 10:35:19.994199 29011 net.cpp:84] Creating Layer fc7_scale
I0903 10:35:19.994206 29011 net.cpp:406] fc7_scale <- fc7/bn
I0903 10:35:19.994216 29011 net.cpp:380] fc7_scale -> fc7/scale
I0903 10:35:19.994263 29011 layer_factory.hpp:77] Creating layer fc7_scale
I0903 10:35:19.994371 29011 net.cpp:122] Setting up fc7_scale
I0903 10:35:19.994379 29011 net.cpp:129] Top shape: 1 4096 (4096)
I0903 10:35:19.994383 29011 net.cpp:137] Memory required for data: 6792964
I0903 10:35:19.994395 29011 layer_factory.hpp:77] Creating layer relu7
I0903 10:35:19.994405 29011 net.cpp:84] Creating Layer relu7
I0903 10:35:19.994410 29011 net.cpp:406] relu7 <- fc7/scale
I0903 10:35:19.994419 29011 net.cpp:380] relu7 -> fc7/relu
I0903 10:35:19.994673 29011 net.cpp:122] Setting up relu7
I0903 10:35:19.994683 29011 net.cpp:129] Top shape: 1 4096 (4096)
I0903 10:35:19.994686 29011 net.cpp:137] Memory required for data: 6809348
I0903 10:35:19.994691 29011 layer_factory.hpp:77] Creating layer drop7
I0903 10:35:19.994702 29011 net.cpp:84] Creating Layer drop7
I0903 10:35:19.994714 29011 net.cpp:406] drop7 <- fc7/relu
I0903 10:35:19.994724 29011 net.cpp:380] drop7 -> fc7/out
I0903 10:35:19.994769 29011 net.cpp:122] Setting up drop7
I0903 10:35:19.994778 29011 net.cpp:129] Top shape: 1 4096 (4096)
I0903 10:35:19.994782 29011 net.cpp:137] Memory required for data: 6825732
I0903 10:35:19.994788 29011 layer_factory.hpp:77] Creating layer bottleneck
I0903 10:35:19.994802 29011 net.cpp:84] Creating Layer bottleneck
I0903 10:35:19.994812 29011 net.cpp:406] bottleneck <- fc7/out
I0903 10:35:19.994822 29011 net.cpp:380] bottleneck -> bottleneck
I0903 10:35:20.003047 29011 net.cpp:122] Setting up bottleneck
I0903 10:35:20.003069 29011 net.cpp:129] Top shape: 1 256 (256)
I0903 10:35:20.003103 29011 net.cpp:137] Memory required for data: 6826756
I0903 10:35:20.003116 29011 layer_factory.hpp:77] Creating layer office-fc8
I0903 10:35:20.003130 29011 net.cpp:84] Creating Layer office-fc8
I0903 10:35:20.003139 29011 net.cpp:406] office-fc8 <- bottleneck
I0903 10:35:20.003156 29011 net.cpp:380] office-fc8 -> fc8
I0903 10:35:20.003319 29011 net.cpp:122] Setting up office-fc8
I0903 10:35:20.003330 29011 net.cpp:129] Top shape: 1 31 (31)
I0903 10:35:20.003334 29011 net.cpp:137] Memory required for data: 6826880
I0903 10:35:20.003343 29011 layer_factory.hpp:77] Creating layer fc8_target/bn
I0903 10:35:20.003360 29011 net.cpp:84] Creating Layer fc8_target/bn
I0903 10:35:20.003365 29011 net.cpp:406] fc8_target/bn <- fc8
I0903 10:35:20.003376 29011 net.cpp:380] fc8_target/bn -> fc8/bn
I0903 10:35:20.003562 29011 net.cpp:122] Setting up fc8_target/bn
I0903 10:35:20.003572 29011 net.cpp:129] Top shape: 1 31 (31)
I0903 10:35:20.003579 29011 net.cpp:137] Memory required for data: 6827004
I0903 10:35:20.003589 29011 layer_factory.hpp:77] Creating layer fc8_scale
I0903 10:35:20.003602 29011 net.cpp:84] Creating Layer fc8_scale
I0903 10:35:20.003607 29011 net.cpp:406] fc8_scale <- fc8/bn
I0903 10:35:20.003620 29011 net.cpp:380] fc8_scale -> fc8/scale
I0903 10:35:20.003662 29011 layer_factory.hpp:77] Creating layer fc8_scale
I0903 10:35:20.003800 29011 net.cpp:122] Setting up fc8_scale
I0903 10:35:20.003811 29011 net.cpp:129] Top shape: 1 31 (31)
I0903 10:35:20.003816 29011 net.cpp:137] Memory required for data: 6827128
I0903 10:35:20.003834 29011 layer_factory.hpp:77] Creating layer accuracy
I0903 10:35:20.003844 29011 net.cpp:84] Creating Layer accuracy
I0903 10:35:20.003851 29011 net.cpp:406] accuracy <- fc8/scale
I0903 10:35:20.003860 29011 net.cpp:406] accuracy <- label
I0903 10:35:20.003867 29011 net.cpp:380] accuracy -> accuracy
…
