…
    new_width: 256
    is_color: true
  }
}
layer {
  name: "source_domain_labels"
  type: "DummyData"
  top: "source_domain_labels"
  include {
    phase: TRAIN
  }
  dummy_data_param {
    data_filler {
      type: "constant"
      value: 0
    }
    num: 128
    channels: 1
    height: 1
    width: 1
  }
}
layer {
  name: "target_domain_labels"
  type: "DummyData"
  top: "target_domain_labels"
  include {
    phase: TRAIN
  }
  dummy_data_param {
    data_filler {
      type: "constant"
      value: 1
    }
    num: 128
    channels: 1
    height: 1
    width: 1
  }
}
layer {
  name: "data"
  type: "Concat"
  bottom: "s1_data"
  bottom: "s2_data"
  bottom: "t_data"
  top: "data"
  include {
    phase: TRAIN
  }
  concat_param {
    concat_dim: 0
  }
}
layer {
  name: "label"
  type: "Concat"
  bottom: "s1_label"
  bottom: "s2_label"
  top: "label"
  include {
    phase: TRAIN
  }
  concat_param {
    concat_dim: 0
  }
}
layer {
  name: "concat_domain_labels"
  type: "Concat"
  bottom: "source_domain_labels"
  bottom: "target_domain_labels"
  top: "domain_labels"
  include {
    phase: TRAIN
  }
  concat_param {
    concat_dim: 0
  }
}
layer {
  name: "conv1"
  type: "Convolution"
  bottom: "data"
  top: "conv1"
  param {
    lr_mult: 1
    decay_mult: 1
  }
  param {
    lr_mult: 2
    decay_mult: 0
  }
  convolution_param {
    num_output: 96
    kernel_size: 11
    stride: 4
    weight_filler {
      type: "gaussian"
      std: 0.01
    }
    bias_filler {
      type: "constant"
      value: 0
    }
  }
}
layer {
  name: "relu1"
  type: "ReLU"
  bottom: "conv1"
  top: "conv1"
}
layer {
  name: "pool1"
  type: "Pooling"
  bottom: "conv1"
  top: "pool1"
  pooling_param {
    pool: MAX
    kernel_size: 3
    stride: 2
  }
}
layer {
  name: "norm1"
  type: "LRN"
  bottom: "pool1"
  top: "norm1"
  lrn_param {
    local_size: 5
    alpha: 0.0001
    beta: 0.75
  }
}
layer {
  name: "conv2"
  type: "Convolution"
  bottom: "norm1"
  top: "conv2"
  param {
    lr_mult: 1
    decay_mult: 1
  }
  param {
    lr_mult: 2
    decay_mult: 0
  }
  convolution_param {
    num_output: 256
    pad: 2
    kernel_size: 5
    group: 2
    weight_filler {
      type: "gaussian"
      std: 0.01
    }
    bias_filler {
      type: "constant"
      value: 1
    }
  }
}
layer {
  name: "relu2"
  type: "ReLU"
  bottom: "conv2"
  top: "conv2"
}
layer {
  name: "pool2"
  type: "Pooling"
  bottom: "conv2"
  top: "pool2"
  pooling_param {
    pool: MAX
    kernel_size: 3
    stride: 2
  }
}
layer {
  name: "norm2"
  type: "LRN"
  bottom: "pool2"
  top: "norm2"
  lrn_param {
    local_size: 5
    alpha: 0.0001
    beta: 0.75
  }
}
layer {
  name: "conv3"
  type: "Convolution"
  bottom: "norm2"
  top: "conv3"
  param {
    lr_mult: 1
    decay_mult: 1
  }
  param {
    lr_mult: 2
    decay_mult: 0
  }
  convolution_param {
    num_output: 384
    pad: 1
    kernel_size: 3
    weight_filler {
      type: "gaussian"
      std: 0.01
    }
    bias_filler {
      type: "constant"
      value: 0
    }
  }
}
layer {
  name: "relu3"
  type: "ReLU"
  bottom: "conv3"
  top: "conv3"
}
layer {
  name: "conv4"
  type: "Convolution"
  bottom: "conv3"
  top: "conv4"
  param {
    lr_mult: 1
    decay_mult: 1
  }
  param {
    lr_mult: 2
    decay_mult: 0
  }
  convolution_param {
    num_output: 384
    pad: 1
    kernel_size: 3
    group: 2
    weight_filler {
      type: "gaussian"
      std: 0.01
    }
    bias_filler {
      type: "constant"
      value: 1
    }
  }
}
layer {
  name: "relu4"
  type: "ReLU"
  bottom: "conv4"
  top: "conv4"
}
layer {
  name: "conv5"
  type: "Convolution"
  bottom: "conv4"
  top: "conv5"
  param {
    lr_mult: 1
    decay_mult: 1
  }
  param {
    lr_mult: 2
    decay_mult: 0
  }
  convolution_param {
    num_output: 256
    pad: 1
    kernel_size: 3
    group: 2
    weight_filler {
      type: "gaussian"
      std: 0.01
    }
    bias_filler {
      type: "constant"
      value: 1
    }
  }
}
layer {
  name: "relu5"
  type: "ReLU"
  bottom: "conv5"
  top: "conv5"
}
layer {
  name: "pool5"
  type: "Pooling"
  bottom: "conv5"
  top: "pool5"
  pooling_param {
    pool: MAX
    kernel_size: 3
    stride: 2
  }
}
layer {
  name: "fc6"
  type: "InnerProduct"
  bottom: "pool5"
  top: "fc6"
  param {
    lr_mult: 1
    decay_mult: 1
  }
  param {
    lr_mult: 2
    decay_mult: 0
  }
  inner_product_param {
    num_output: 4096
    weight_filler {
      type: "gaussian"
      std: 0.005
    }
    bias_filler {
      type: "constant"
      value: 0
    }
  }
}
layer {
  name: "slicer_fc6"
  type: "Slice"
  bottom: "fc6"
  top: "fc6_source"
  top: "fc6_target"
  include {
    phase: TRAIN
  }
  slice_param {
    slice_point: 256
    axis: 0
  }
}
layer {
  name: "fc6_source/bn"
  type: "BatchNorm"
  bottom: "fc6_source"
  top: "fc6_source/bn"
  param {
    lr_mult: 0
    decay_mult: 0
  }
  param {
    lr_mult: 0
    decay_mult: 0
  }
  param {
    lr_mult: 0
    decay_mult: 0
  }
  include {
    phase: TRAIN
  }
  batch_norm_param {
    moving_average_fraction: 0.95
  }
}
layer {
  name: "fc6_target/bn"
  type: "BatchNorm"
  bottom: "fc6_target"
  top: "fc6_target/bn"
  param {
    lr_mult: 0
    decay_mult: 0
  }
  param {
    lr_mult: 0
    decay_mult: 0
  }
  param {
    lr_mult: 0
    decay_mult: 0
  }
  include {
    phase: TRAIN
  }
  batch_norm_param {
    moving_average_fraction: 0.95
  }
}
layer {
  name: "concat_wbn_6"
  type: "Concat"
  bottom: "fc6_source/bn"
  bottom: "fc6_target/bn"
  top: "fc6/bn"
  include {
    phase: TRAIN
  }
  concat_param {
    axis: 0
  }
}
layer {
  name: "fc6_scale"
  type: "Scale"
  bottom: "fc6/bn"
  top: "fc6/scale"
  param {
    lr_mult: 1
    decay_mult: 0
  }
  param {
    lr_mult: 1
    decay_mult: 0
  }
  scale_param {
    axis: 1
    num_axes: 1
    filler {
      type: "constant"
      value: 1
    }
    bias_term: true
    bias_filler {
      type: "constant"
      value: 0
    }
  }
}
layer {
  name: "relu6"
  type: "ReLU"
  bottom: "fc6/scale"
  top: "fc6/relu"
}
layer {
  name: "drop6"
  type: "Dropout"
  bottom: "fc6/relu"
  top: "fc6/out"
  dropout_param {
    dropout_ratio: 0.5
  }
}
layer {
  name: "fc7"
  type: "InnerProduct"
  bottom: "fc6/out"
  top: "fc7"
  param {
    lr_mult: 10
    decay_mult: 1
  }
  param {
    lr_mult: 20
    decay_mult: 0
  }
  inner_product_param {
    num_output: 4096
    weight_filler {
      type: "gaussian"
      std: 0.005
    }
    bias_filler {
      type: "constant"
      value: 0
    }
  }
}
layer {
  name: "slicer_fc7"
  type: "Slice"
  bottom: "fc7"
  top: "fc7_source"
  top: "fc7_target"
  include {
    phase: TRAIN
  }
  slice_param {
    slice_point: 256
    axis: 0
  }
}
layer {
  name: "fc7_source/bn"
  type: "BatchNorm"
  bottom: "fc7_source"
  top: "fc7_source/bn"
  param {
    lr_mult: 0
    decay_mult: 0
  }
  param {
    lr_mult: 0
    decay_mult: 0
  }
  param {
    lr_mult: 0
    decay_mult: 0
  }
  include {
    phase: TRAIN
  }
  batch_norm_param {
    moving_average_fraction: 0.95
  }
}
layer {
  name: "fc7_target/bn"
  type: "BatchNorm"
  bottom: "fc7_target"
  top: "fc7_target/bn"
  param {
    lr_mult: 0
    decay_mult: 0
  }
  param {
    lr_mult: 0
    decay_mult: 0
  }
  param {
    lr_mult: 0
    decay_mult: 0
  }
  include {
    phase: TRAIN
  }
  batch_norm_param {
    moving_average_fraction: 0.95
  }
}
layer {
  name: "concat_wbn_7"
  type: "Concat"
  bottom: "fc7_source/bn"
  bottom: "fc7_target/bn"
  top: "fc7/bn"
  include {
    phase: TRAIN
  }
  concat_param {
    axis: 0
  }
}
layer {
  name: "fc7_scale"
  type: "Scale"
  bottom: "fc7/bn"
  top: "fc7/scale"
  param {
    lr_mult: 1
    decay_mult: 0
  }
  param {
    lr_mult: 1
    decay_mult: 0
  }
  scale_param {
    axis: 1
    num_axes: 1
    filler {
      type: "constant"
      value: 1
    }
    bias_term: true
    bias_filler {
      type: "constant"
      value: 0
    }
  }
}
layer {
  name: "relu7"
  type: "ReLU"
  bottom: "fc7/scale"
  top: "fc7/relu"
}
layer {
  name: "drop7"
  type: "Dropout"
  bottom: "fc7/relu"
  top: "fc7/out"
  dropout_param {
    dropout_ratio: 0.5
  }
}
layer {
  name: "bottleneck"
  type: "InnerProduct"
  bottom: "fc7/out"
  top: "bottleneck"
  param {
    lr_mult: 10
    decay_mult: 1
  }
  param {
    lr_mult: 20
    decay_mult: 0
  }
  inner_product_param {
    num_output: 256
    weight_filler {
      type: "gaussian"
      std: 0.005
    }
    bias_filler {
      type: "constant"
      value: 0
    }
  }
}
layer {
  name: "slicer_bottle"
  type: "Slice"
  bottom: "bottleneck"
  top: "bottleneck_source"
  top: "bottleneck_target"
  include {
    phase: TRAIN
  }
  slice_param {
    slice_point: 256
    axis: 0
  }
}
layer {
  name: "silence_target_feature"
  type: "Silence"
  bottom: "bottleneck_target"
  include {
    phase: TRAIN
  }
}
layer {
  name: "grl"
  type: "GradientScaler"
  bottom: "bottleneck_source"
  top: "grl"
  include {
    phase: TRAIN
  }
  gradient_scaler_param {
    lower_bound: 0
    upper_bound: 1
    alpha: 10
    max_iter: 1000
  }
}
layer {
  name: "dc_ip1"
  type: "InnerProduct"
  bottom: "grl"
  top: "dc_ip1"
  param {
    lr_mult: 10
  }
  param {
    lr_mult: 20
  }
  include {
    phase: TRAIN
  }
  inner_product_param {
    num_output: 1024
    weight_filler {
      type: "gaussian"
      std: 0.01
    }
    bias_filler {
      type: "constant"
    }
  }
}
layer {
  name: "dc_relu1"
  type: "ReLU"
  bottom: "dc_ip1"
  top: "dc_ip1"
  include {
    phase: TRAIN
  }
}
layer {
  name: "dc_drop1"
  type: "Dropout"
  bottom: "dc_ip1"
  top: "dc_ip1"
  include {
    phase: TRAIN
  }
  dropout_param {
    dropout_ratio: 0.5
  }
}
layer {
  name: "dc_ip2"
  type: "InnerProduct"
  bottom: "dc_ip1"
  top: "dc_ip2"
  param {
    lr_mult: 10
  }
  param {
    lr_mult: 20
  }
  include {
    phase: TRAIN
  }
  inner_product_param {
    num_output: 1024
    weight_filler {
      type: "gaussian"
      std: 0.01
    }
    bias_filler {
      type: "constant"
    }
  }
}
layer {
  name: "dc_relu2"
  type: "ReLU"
  bottom: "dc_ip2"
  top: "dc_ip2"
  include {
    phase: TRAIN
  }
}
layer {
  name: "dc_drop2"
  type: "Dropout"
  bottom: "dc_ip2"
  top: "dc_ip2"
  include {
    phase: TRAIN
  }
  dropout_param {
    dropout_ratio: 0.5
  }
}
layer {
  name: "dc_ip3"
  type: "InnerProduct"
  bottom: "dc_ip2"
  top: "dc_ip3"
  param {
    lr_mult: 10
  }
  param {
    lr_mult: 20
  }
  include {
    phase: TRAIN
  }
  inner_product_param {
    num_output: 1
    weight_filler {
      type: "gaussian"
      std: 0.3
    }
    bias_filler {
      type: "constant"
    }
  }
}
layer {
  name: "dc_loss"
  type: "SigmoidCrossEntropyLoss"
  bottom: "dc_ip3"
  bottom: "domain_labels"
  top: "dc_loss"
  loss_weight: 0.3
  include {
    phase: TRAIN
  }
}
layer {
  name: "dc_accuracy"
  type: "Accuracy"
  bottom: "dc_ip3"
  bottom: "domain_labels"
  top: "domain_accuracy"
  include {
    phase: TRAIN
  }
}
layer {
  name: "office-fc8"
  type: "InnerProduct"
  bottom: "bottleneck"
  top: "fc8"
  param {
    lr_mult: 10
    decay_mult: 1
  }
  param {
    lr_mult: 20
    decay_mult: 0
  }
  inner_product_param {
    num_output: 31
    weight_filler {
      type: "gaussian"
      std: 0.01
    }
    bias_filler {
      type: "constant"
      value: 0
    }
  }
}
layer {
  name: "slicer_fc8"
  type: "Slice"
  bottom: "fc8"
  top: "fc8_source"
  top: "fc8_target"
  include {
    phase: TRAIN
  }
  slice_param {
    slice_point: 256
    axis: 0
  }
}
layer {
  name: "fc8_source/bn"
  type: "BatchNorm"
  bottom: "fc8_source"
  top: "fc8_source/bn"
  param {
    lr_mult: 0
    decay_mult: 0
  }
  param {
    lr_mult: 0
    decay_mult: 0
  }
  param {
    lr_mult: 0
    decay_mult: 0
  }
  include {
    phase: TRAIN
  }
  batch_norm_param {
    moving_average_fraction: 0.95
  }
}
layer {
  name: "fc8_target/bn"
  type: "BatchNorm"
  bottom: "fc8_target"
  top: "fc8_target/bn"
  param {
    lr_mult: 0
    decay_mult: 0
  }
  param {
    lr_mult: 0
    decay_mult: 0
  }
  param {
    lr_mult: 0
    decay_mult: 0
  }
  include {
    phase: TRAIN
  }
  batch_norm_param {
    moving_average_fraction: 0.95
  }
}
layer {
  name: "concat_wbn_8"
  type: "Concat"
  bottom: "fc8_source/bn"
  bottom: "fc8_target/bn"
  top: "fc8/bn"
  include {
    phase: TRAIN
  }
  concat_param {
    axis: 0
  }
}
layer {
  name: "fc8_scale"
  type: "Scale"
  bottom: "fc8/bn"
  top: "fc8/scale"
  param {
    lr_mult: 1
    decay_mult: 0
  }
  param {
    lr_mult: 1
    decay_mult: 0
  }
  scale_param {
    axis: 1
    num_axes: 1
    filler {
      type: "constant"
      value: 1
    }
    bias_term: true
    bias_filler {
      type: "constant"
      value: 0
    }
  }
}
layer {
  name: "slicer_scorer"
  type: "Slice"
  bottom: "fc8/scale"
  top: "score_source"
  top: "score_target"
  include {
    phase: TRAIN
  }
  slice_param {
    slice_point: 256
    axis: 0
  }
}
layer {
  name: "loss"
  type: "SoftmaxWithLoss"
  bottom: "score_source"
  bottom: "label"
  top: "loss"
  loss_weight: 1
  include {
    phase: TRAIN
  }
}
layer {
  name: "entropy"
  type: "EntropyLoss"
  bottom: "score_target"
  top: "entropy"
  loss_weight: 0.4
  include {
    phase: TRAIN
  }
}
layer {
  name: "accuracy"
  type: "Accuracy"
  bottom: "score_source"
  bottom: "label"
  top: "accuracy"
  include {
    phase: TRAIN
  }
}
layer {
  name: "silence_target"
  type: "Silence"
  bottom: "t_label"
  include {
    phase: TRAIN
  }
}
I0830 18:04:48.618644 18749 layer_factory.hpp:77] Creating layer s1_data
I0830 18:04:48.618672 18749 net.cpp:84] Creating Layer s1_data
I0830 18:04:48.618679 18749 net.cpp:380] s1_data -> s1_data
I0830 18:04:48.618697 18749 net.cpp:380] s1_data -> s1_label
I0830 18:04:48.619004 18749 image_data_layer.cpp:38] Opening file /home/alfa/Documents/msda/mywork/data/office/office_a.txt
I0830 18:04:48.620420 18749 image_data_layer.cpp:53] Shuffling data
I0830 18:04:48.620904 18749 image_data_layer.cpp:63] A total of 2817 images.
I0830 18:04:48.627154 18749 image_data_layer.cpp:90] output data size: 128,3,227,227
I0830 18:04:48.752805 18749 net.cpp:122] Setting up s1_data
I0830 18:04:48.752835 18749 net.cpp:129] Top shape: 128 3 227 227 (19787136)
I0830 18:04:48.752840 18749 net.cpp:129] Top shape: 128 (128)
I0830 18:04:48.752846 18749 net.cpp:137] Memory required for data: 79149056
I0830 18:04:48.752853 18749 layer_factory.hpp:77] Creating layer s2_data
I0830 18:04:48.752877 18749 net.cpp:84] Creating Layer s2_data
I0830 18:04:48.752885 18749 net.cpp:380] s2_data -> s2_data
I0830 18:04:48.752898 18749 net.cpp:380] s2_data -> s2_label
I0830 18:04:48.752912 18749 image_data_layer.cpp:38] Opening file /home/alfa/Documents/msda/mywork/data/office/office_w.txt
I0830 18:04:48.753320 18749 image_data_layer.cpp:53] Shuffling data
I0830 18:04:48.753453 18749 image_data_layer.cpp:63] A total of 795 images.
I0830 18:04:48.755874 18749 image_data_layer.cpp:90] output data size: 128,3,227,227
I0830 18:04:48.883639 18749 net.cpp:122] Setting up s2_data
I0830 18:04:48.883666 18749 net.cpp:129] Top shape: 128 3 227 227 (19787136)
I0830 18:04:48.883671 18749 net.cpp:129] Top shape: 128 (128)
I0830 18:04:48.883674 18749 net.cpp:137] Memory required for data: 158298112
I0830 18:04:48.883679 18749 layer_factory.hpp:77] Creating layer target_data
I0830 18:04:48.883702 18749 net.cpp:84] Creating Layer target_data
I0830 18:04:48.883721 18749 net.cpp:380] target_data -> t_data
I0830 18:04:48.883733 18749 net.cpp:380] target_data -> t_label
I0830 18:04:48.883744 18749 image_data_layer.cpp:38] Opening file /home/alfa/Documents/msda/mywork/data/office/office_d.txt
I0830 18:04:48.883972 18749 image_data_layer.cpp:53] Shuffling data
I0830 18:04:48.884057 18749 image_data_layer.cpp:63] A total of 498 images.
I0830 18:04:48.889693 18749 image_data_layer.cpp:90] output data size: 64,3,227,227
I0830 18:04:48.958489 18749 net.cpp:122] Setting up target_data
I0830 18:04:48.958514 18749 net.cpp:129] Top shape: 64 3 227 227 (9893568)
I0830 18:04:48.958518 18749 net.cpp:129] Top shape: 64 (64)
I0830 18:04:48.958523 18749 net.cpp:137] Memory required for data: 197872640
I0830 18:04:48.958528 18749 layer_factory.hpp:77] Creating layer source_domain_labels
I0830 18:04:48.958544 18749 net.cpp:84] Creating Layer source_domain_labels
I0830 18:04:48.958551 18749 net.cpp:380] source_domain_labels -> source_domain_labels
I0830 18:04:48.958622 18749 net.cpp:122] Setting up source_domain_labels
I0830 18:04:48.958631 18749 net.cpp:129] Top shape: 128 1 1 1 (128)
I0830 18:04:48.958634 18749 net.cpp:137] Memory required for data: 197873152
I0830 18:04:48.958637 18749 layer_factory.hpp:77] Creating layer target_domain_labels
I0830 18:04:48.958648 18749 net.cpp:84] Creating Layer target_domain_labels
I0830 18:04:48.958655 18749 net.cpp:380] target_domain_labels -> target_domain_labels
I0830 18:04:48.958719 18749 net.cpp:122] Setting up target_domain_labels
I0830 18:04:48.958726 18749 net.cpp:129] Top shape: 128 1 1 1 (128)
I0830 18:04:48.958729 18749 net.cpp:137] Memory required for data: 197873664
I0830 18:04:48.958732 18749 layer_factory.hpp:77] Creating layer data
I0830 18:04:48.958742 18749 net.cpp:84] Creating Layer data
I0830 18:04:48.958750 18749 net.cpp:406] data <- s1_data
I0830 18:04:48.958762 18749 net.cpp:406] data <- s2_data
I0830 18:04:48.958770 18749 net.cpp:406] data <- t_data
I0830 18:04:48.958778 18749 net.cpp:380] data -> data
I0830 18:04:48.958815 18749 net.cpp:122] Setting up data
I0830 18:04:48.958823 18749 net.cpp:129] Top shape: 320 3 227 227 (49467840)
I0830 18:04:48.958827 18749 net.cpp:137] Memory required for data: 395745024
I0830 18:04:48.958832 18749 layer_factory.hpp:77] Creating layer label
I0830 18:04:48.958838 18749 net.cpp:84] Creating Layer label
I0830 18:04:48.958842 18749 net.cpp:406] label <- s1_label
I0830 18:04:48.958847 18749 net.cpp:406] label <- s2_label
I0830 18:04:48.958854 18749 net.cpp:380] label -> label
I0830 18:04:48.958873 18749 net.cpp:122] Setting up label
I0830 18:04:48.958879 18749 net.cpp:129] Top shape: 256 (256)
I0830 18:04:48.958883 18749 net.cpp:137] Memory required for data: 395746048
I0830 18:04:48.958887 18749 layer_factory.hpp:77] Creating layer label_label_0_split
I0830 18:04:48.958894 18749 net.cpp:84] Creating Layer label_label_0_split
I0830 18:04:48.958900 18749 net.cpp:406] label_label_0_split <- label
I0830 18:04:48.958905 18749 net.cpp:380] label_label_0_split -> label_label_0_split_0
I0830 18:04:48.958914 18749 net.cpp:380] label_label_0_split -> label_label_0_split_1
I0830 18:04:48.958946 18749 net.cpp:122] Setting up label_label_0_split
I0830 18:04:48.958953 18749 net.cpp:129] Top shape: 256 (256)
I0830 18:04:48.958957 18749 net.cpp:129] Top shape: 256 (256)
I0830 18:04:48.958961 18749 net.cpp:137] Memory required for data: 395748096
I0830 18:04:48.958964 18749 layer_factory.hpp:77] Creating layer concat_domain_labels
I0830 18:04:48.958972 18749 net.cpp:84] Creating Layer concat_domain_labels
I0830 18:04:48.958977 18749 net.cpp:406] concat_domain_labels <- source_domain_labels
I0830 18:04:48.958982 18749 net.cpp:406] concat_domain_labels <- target_domain_labels
I0830 18:04:48.958988 18749 net.cpp:380] concat_domain_labels -> domain_labels
I0830 18:04:48.959005 18749 net.cpp:122] Setting up concat_domain_labels
I0830 18:04:48.959013 18749 net.cpp:129] Top shape: 256 1 1 1 (256)
I0830 18:04:48.959017 18749 net.cpp:137] Memory required for data: 395749120
I0830 18:04:48.959019 18749 layer_factory.hpp:77] Creating layer domain_labels_concat_domain_labels_0_split
I0830 18:04:48.959026 18749 net.cpp:84] Creating Layer domain_labels_concat_domain_labels_0_split
I0830 18:04:48.959030 18749 net.cpp:406] domain_labels_concat_domain_labels_0_split <- domain_labels
I0830 18:04:48.959036 18749 net.cpp:380] domain_labels_concat_domain_labels_0_split -> domain_labels_concat_domain_labels_0_split_0
I0830 18:04:48.959043 18749 net.cpp:380] domain_labels_concat_domain_labels_0_split -> domain_labels_concat_domain_labels_0_split_1
I0830 18:04:48.959069 18749 net.cpp:122] Setting up domain_labels_concat_domain_labels_0_split
I0830 18:04:48.959074 18749 net.cpp:129] Top shape: 256 1 1 1 (256)
I0830 18:04:48.959079 18749 net.cpp:129] Top shape: 256 1 1 1 (256)
I0830 18:04:48.959084 18749 net.cpp:137] Memory required for data: 395751168
I0830 18:04:48.959087 18749 layer_factory.hpp:77] Creating layer conv1
I0830 18:04:48.959100 18749 net.cpp:84] Creating Layer conv1
I0830 18:04:48.959106 18749 net.cpp:406] conv1 <- data
I0830 18:04:48.959112 18749 net.cpp:380] conv1 -> conv1
I0830 18:04:49.437381 18749 net.cpp:122] Setting up conv1
I0830 18:04:49.437402 18749 net.cpp:129] Top shape: 320 96 55 55 (92928000)
I0830 18:04:49.437407 18749 net.cpp:137] Memory required for data: 767463168
I0830 18:04:49.437424 18749 layer_factory.hpp:77] Creating layer relu1
I0830 18:04:49.437434 18749 net.cpp:84] Creating Layer relu1
I0830 18:04:49.437438 18749 net.cpp:406] relu1 <- conv1
I0830 18:04:49.437445 18749 net.cpp:367] relu1 -> conv1 (in-place)
I0830 18:04:49.437606 18749 net.cpp:122] Setting up relu1
I0830 18:04:49.437615 18749 net.cpp:129] Top shape: 320 96 55 55 (92928000)
I0830 18:04:49.437618 18749 net.cpp:137] Memory required for data: 1139175168
I0830 18:04:49.437623 18749 layer_factory.hpp:77] Creating layer pool1
I0830 18:04:49.437630 18749 net.cpp:84] Creating Layer pool1
I0830 18:04:49.437634 18749 net.cpp:406] pool1 <- conv1
I0830 18:04:49.437641 18749 net.cpp:380] pool1 -> pool1
I0830 18:04:49.437690 18749 net.cpp:122] Setting up pool1
I0830 18:04:49.437710 18749 net.cpp:129] Top shape: 320 96 27 27 (22394880)
I0830 18:04:49.437713 18749 net.cpp:137] Memory required for data: 1228754688
I0830 18:04:49.437716 18749 layer_factory.hpp:77] Creating layer norm1
I0830 18:04:49.437726 18749 net.cpp:84] Creating Layer norm1
I0830 18:04:49.437731 18749 net.cpp:406] norm1 <- pool1
I0830 18:04:49.437736 18749 net.cpp:380] norm1 -> norm1
I0830 18:04:49.437912 18749 net.cpp:122] Setting up norm1
I0830 18:04:49.437922 18749 net.cpp:129] Top shape: 320 96 27 27 (22394880)
I0830 18:04:49.437925 18749 net.cpp:137] Memory required for data: 1318334208
I0830 18:04:49.437929 18749 layer_factory.hpp:77] Creating layer conv2
I0830 18:04:49.437940 18749 net.cpp:84] Creating Layer conv2
I0830 18:04:49.437944 18749 net.cpp:406] conv2 <- norm1
I0830 18:04:49.437950 18749 net.cpp:380] conv2 -> conv2
I0830 18:04:49.444409 18749 net.cpp:122] Setting up conv2
I0830 18:04:49.444428 18749 net.cpp:129] Top shape: 320 256 27 27 (59719680)
I0830 18:04:49.444432 18749 net.cpp:137] Memory required for data: 1557212928
I0830 18:04:49.444443 18749 layer_factory.hpp:77] Creating layer relu2
I0830 18:04:49.444452 18749 net.cpp:84] Creating Layer relu2
I0830 18:04:49.444456 18749 net.cpp:406] relu2 <- conv2
I0830 18:04:49.444463 18749 net.cpp:367] relu2 -> conv2 (in-place)
I0830 18:04:49.444962 18749 net.cpp:122] Setting up relu2
I0830 18:04:49.444972 18749 net.cpp:129] Top shape: 320 256 27 27 (59719680)
I0830 18:04:49.444977 18749 net.cpp:137] Memory required for data: 1796091648
I0830 18:04:49.444981 18749 layer_factory.hpp:77] Creating layer pool2
I0830 18:04:49.444991 18749 net.cpp:84] Creating Layer pool2
I0830 18:04:49.444994 18749 net.cpp:406] pool2 <- conv2
I0830 18:04:49.445000 18749 net.cpp:380] pool2 -> pool2
I0830 18:04:49.445040 18749 net.cpp:122] Setting up pool2
I0830 18:04:49.445047 18749 net.cpp:129] Top shape: 320 256 13 13 (13844480)
I0830 18:04:49.445051 18749 net.cpp:137] Memory required for data: 1851469568
I0830 18:04:49.445055 18749 layer_factory.hpp:77] Creating layer norm2
I0830 18:04:49.445061 18749 net.cpp:84] Creating Layer norm2
I0830 18:04:49.445066 18749 net.cpp:406] norm2 <- pool2
I0830 18:04:49.445070 18749 net.cpp:380] norm2 -> norm2
I0830 18:04:49.445250 18749 net.cpp:122] Setting up norm2
I0830 18:04:49.445261 18749 net.cpp:129] Top shape: 320 256 13 13 (13844480)
I0830 18:04:49.445263 18749 net.cpp:137] Memory required for data: 1906847488
I0830 18:04:49.445266 18749 layer_factory.hpp:77] Creating layer conv3
I0830 18:04:49.445278 18749 net.cpp:84] Creating Layer conv3
I0830 18:04:49.445284 18749 net.cpp:406] conv3 <- norm2
I0830 18:04:49.445291 18749 net.cpp:380] conv3 -> conv3
I0830 18:04:49.453590 18749 net.cpp:122] Setting up conv3
I0830 18:04:49.453613 18749 net.cpp:129] Top shape: 320 384 13 13 (20766720)
I0830 18:04:49.453616 18749 net.cpp:137] Memory required for data: 1989914368
I0830 18:04:49.453629 18749 layer_factory.hpp:77] Creating layer relu3
I0830 18:04:49.453636 18749 net.cpp:84] Creating Layer relu3
I0830 18:04:49.453641 18749 net.cpp:406] relu3 <- conv3
I0830 18:04:49.453649 18749 net.cpp:367] relu3 -> conv3 (in-place)
I0830 18:04:49.453811 18749 net.cpp:122] Setting up relu3
I0830 18:04:49.453820 18749 net.cpp:129] Top shape: 320 384 13 13 (20766720)
I0830 18:04:49.453824 18749 net.cpp:137] Memory required for data: 2072981248
I0830 18:04:49.453828 18749 layer_factory.hpp:77] Creating layer conv4
I0830 18:04:49.453840 18749 net.cpp:84] Creating Layer conv4
I0830 18:04:49.453843 18749 net.cpp:406] conv4 <- conv3
I0830 18:04:49.453850 18749 net.cpp:380] conv4 -> conv4
I0830 18:04:49.461315 18749 net.cpp:122] Setting up conv4
I0830 18:04:49.461335 18749 net.cpp:129] Top shape: 320 384 13 13 (20766720)
I0830 18:04:49.461338 18749 net.cpp:137] Memory required for data: 2156048128
I0830 18:04:49.461345 18749 layer_factory.hpp:77] Creating layer relu4
I0830 18:04:49.461356 18749 net.cpp:84] Creating Layer relu4
I0830 18:04:49.461361 18749 net.cpp:406] relu4 <- conv4
I0830 18:04:49.461367 18749 net.cpp:367] relu4 -> conv4 (in-place)
I0830 18:04:49.463431 18749 net.cpp:122] Setting up relu4
I0830 18:04:49.463443 18749 net.cpp:129] Top shape: 320 384 13 13 (20766720)
I0830 18:04:49.463446 18749 net.cpp:137] Memory required for data: 2239115008
I0830 18:04:49.463450 18749 layer_factory.hpp:77] Creating layer conv5
I0830 18:04:49.463464 18749 net.cpp:84] Creating Layer conv5
I0830 18:04:49.463471 18749 net.cpp:406] conv5 <- conv4
I0830 18:04:49.463477 18749 net.cpp:380] conv5 -> conv5
I0830 18:04:49.469607 18749 net.cpp:122] Setting up conv5
I0830 18:04:49.469624 18749 net.cpp:129] Top shape: 320 256 13 13 (13844480)
I0830 18:04:49.469629 18749 net.cpp:137] Memory required for data: 2294492928
I0830 18:04:49.469640 18749 layer_factory.hpp:77] Creating layer relu5
I0830 18:04:49.469650 18749 net.cpp:84] Creating Layer relu5
I0830 18:04:49.469655 18749 net.cpp:406] relu5 <- conv5
I0830 18:04:49.469662 18749 net.cpp:367] relu5 -> conv5 (in-place)
I0830 18:04:49.469828 18749 net.cpp:122] Setting up relu5
I0830 18:04:49.469837 18749 net.cpp:129] Top shape: 320 256 13 13 (13844480)
I0830 18:04:49.469841 18749 net.cpp:137] Memory required for data: 2349870848
I0830 18:04:49.469844 18749 layer_factory.hpp:77] Creating layer pool5
I0830 18:04:49.469853 18749 net.cpp:84] Creating Layer pool5
I0830 18:04:49.469856 18749 net.cpp:406] pool5 <- conv5
I0830 18:04:49.469863 18749 net.cpp:380] pool5 -> pool5
I0830 18:04:49.469904 18749 net.cpp:122] Setting up pool5
I0830 18:04:49.469911 18749 net.cpp:129] Top shape: 320 256 6 6 (2949120)
I0830 18:04:49.469915 18749 net.cpp:137] Memory required for data: 2361667328
I0830 18:04:49.469919 18749 layer_factory.hpp:77] Creating layer fc6
I0830 18:04:49.469928 18749 net.cpp:84] Creating Layer fc6
I0830 18:04:49.469934 18749 net.cpp:406] fc6 <- pool5
I0830 18:04:49.469940 18749 net.cpp:380] fc6 -> fc6
I0830 18:04:49.749047 18749 net.cpp:122] Setting up fc6
I0830 18:04:49.749069 18749 net.cpp:129] Top shape: 320 4096 (1310720)
I0830 18:04:49.749073 18749 net.cpp:137] Memory required for data: 2366910208
I0830 18:04:49.749083 18749 layer_factory.hpp:77] Creating layer slicer_fc6
I0830 18:04:49.749094 18749 net.cpp:84] Creating Layer slicer_fc6
I0830 18:04:49.749101 18749 net.cpp:406] slicer_fc6 <- fc6
I0830 18:04:49.749107 18749 net.cpp:380] slicer_fc6 -> fc6_source
I0830 18:04:49.749117 18749 net.cpp:380] slicer_fc6 -> fc6_target
I0830 18:04:49.749156 18749 net.cpp:122] Setting up slicer_fc6
I0830 18:04:49.749164 18749 net.cpp:129] Top shape: 256 4096 (1048576)
I0830 18:04:49.749168 18749 net.cpp:129] Top shape: 64 4096 (262144)
I0830 18:04:49.749171 18749 net.cpp:137] Memory required for data: 2372153088
I0830 18:04:49.749176 18749 layer_factory.hpp:77] Creating layer fc6_source/bn
I0830 18:04:49.749184 18749 net.cpp:84] Creating Layer fc6_source/bn
I0830 18:04:49.749188 18749 net.cpp:406] fc6_source/bn <- fc6_source
I0830 18:04:49.749193 18749 net.cpp:380] fc6_source/bn -> fc6_source/bn
I0830 18:04:49.749356 18749 net.cpp:122] Setting up fc6_source/bn
I0830 18:04:49.749363 18749 net.cpp:129] Top shape: 256 4096 (1048576)
I0830 18:04:49.749366 18749 net.cpp:137] Memory required for data: 2376347392
I0830 18:04:49.749372 18749 layer_factory.hpp:77] Creating layer fc6_target/bn
I0830 18:04:49.749378 18749 net.cpp:84] Creating Layer fc6_target/bn
I0830 18:04:49.749382 18749 net.cpp:406] fc6_target/bn <- fc6_target
I0830 18:04:49.749388 18749 net.cpp:380] fc6_target/bn -> fc6_target/bn
I0830 18:04:49.749545 18749 net.cpp:122] Setting up fc6_target/bn
I0830 18:04:49.749553 18749 net.cpp:129] Top shape: 64 4096 (262144)
I0830 18:04:49.749557 18749 net.cpp:137] Memory required for data: 2377395968
I0830 18:04:49.749567 18749 layer_factory.hpp:77] Creating layer concat_wbn_6
I0830 18:04:49.749574 18749 net.cpp:84] Creating Layer concat_wbn_6
I0830 18:04:49.749584 18749 net.cpp:406] concat_wbn_6 <- fc6_source/bn
I0830 18:04:49.749590 18749 net.cpp:406] concat_wbn_6 <- fc6_target/bn
I0830 18:04:49.749600 18749 net.cpp:380] concat_wbn_6 -> fc6/bn
I0830 18:04:49.749624 18749 net.cpp:122] Setting up concat_wbn_6
I0830 18:04:49.749635 18749 net.cpp:129] Top shape: 320 4096 (1310720)
I0830 18:04:49.749661 18749 net.cpp:137] Memory required for data: 2382638848
I0830 18:04:49.749665 18749 layer_factory.hpp:77] Creating layer fc6_scale
I0830 18:04:49.749675 18749 net.cpp:84] Creating Layer fc6_scale
I0830 18:04:49.749681 18749 net.cpp:406] fc6_scale <- fc6/bn
I0830 18:04:49.749692 18749 net.cpp:380] fc6_scale -> fc6/scale
I0830 18:04:49.749734 18749 layer_factory.hpp:77] Creating layer fc6_scale
I0830 18:04:49.749840 18749 net.cpp:122] Setting up fc6_scale
I0830 18:04:49.749847 18749 net.cpp:129] Top shape: 320 4096 (1310720)
I0830 18:04:49.749851 18749 net.cpp:137] Memory required for data: 2387881728
I0830 18:04:49.749856 18749 layer_factory.hpp:77] Creating layer relu6
I0830 18:04:49.749864 18749 net.cpp:84] Creating Layer relu6
I0830 18:04:49.749868 18749 net.cpp:406] relu6 <- fc6/scale
I0830 18:04:49.749874 18749 net.cpp:380] relu6 -> fc6/relu
I0830 18:04:49.750120 18749 net.cpp:122] Setting up relu6
I0830 18:04:49.750129 18749 net.cpp:129] Top shape: 320 4096 (1310720)
I0830 18:04:49.750133 18749 net.cpp:137] Memory required for data: 2393124608
I0830 18:04:49.750138 18749 layer_factory.hpp:77] Creating layer drop6
I0830 18:04:49.750149 18749 net.cpp:84] Creating Layer drop6
I0830 18:04:49.750152 18749 net.cpp:406] drop6 <- fc6/relu
I0830 18:04:49.750159 18749 net.cpp:380] drop6 -> fc6/out
I0830 18:04:49.750196 18749 net.cpp:122] Setting up drop6
I0830 18:04:49.750205 18749 net.cpp:129] Top shape: 320 4096 (1310720)
I0830 18:04:49.750207 18749 net.cpp:137] Memory required for data: 2398367488
I0830 18:04:49.750211 18749 layer_factory.hpp:77] Creating layer fc7
I0830 18:04:49.750219 18749 net.cpp:84] Creating Layer fc7
I0830 18:04:49.750222 18749 net.cpp:406] fc7 <- fc6/out
I0830 18:04:49.750229 18749 net.cpp:380] fc7 -> fc7
I0830 18:04:49.874778 18749 net.cpp:122] Setting up fc7
I0830 18:04:49.874801 18749 net.cpp:129] Top shape: 320 4096 (1310720)
I0830 18:04:49.874806 18749 net.cpp:137] Memory required for data: 2403610368
I0830 18:04:49.874814 18749 layer_factory.hpp:77] Creating layer slicer_fc7
I0830 18:04:49.874825 18749 net.cpp:84] Creating Layer slicer_fc7
I0830 18:04:49.874831 18749 net.cpp:406] slicer_fc7 <- fc7
I0830 18:04:49.874837 18749 net.cpp:380] slicer_fc7 -> fc7_source
I0830 18:04:49.874846 18749 net.cpp:380] slicer_fc7 -> fc7_target
I0830 18:04:49.874881 18749 net.cpp:122] Setting up slicer_fc7
I0830 18:04:49.874889 18749 net.cpp:129] Top shape: 256 4096 (1048576)
I0830 18:04:49.874893 18749 net.cpp:129] Top shape: 64 4096 (262144)
I0830 18:04:49.874897 18749 net.cpp:137] Memory required for data: 2408853248
I0830 18:04:49.874900 18749 layer_factory.hpp:77] Creating layer fc7_source/bn
I0830 18:04:49.874910 18749 net.cpp:84] Creating Layer fc7_source/bn
I0830 18:04:49.874915 18749 net.cpp:406] fc7_source/bn <- fc7_source
I0830 18:04:49.874920 18749 net.cpp:380] fc7_source/bn -> fc7_source/bn
I0830 18:04:49.875079 18749 net.cpp:122] Setting up fc7_source/bn
I0830 18:04:49.875087 18749 net.cpp:129] Top shape: 256 4096 (1048576)
I0830 18:04:49.875090 18749 net.cpp:137] Memory required for data: 2413047552
I0830 18:04:49.875097 18749 layer_factory.hpp:77] Creating layer fc7_target/bn
I0830 18:04:49.875102 18749 net.cpp:84] Creating Layer fc7_target/bn
I0830 18:04:49.875106 18749 net.cpp:406] fc7_target/bn <- fc7_target
I0830 18:04:49.875111 18749 net.cpp:380] fc7_target/bn -> fc7_target/bn
I0830 18:04:49.875267 18749 net.cpp:122] Setting up fc7_target/bn
I0830 18:04:49.875273 18749 net.cpp:129] Top shape: 64 4096 (262144)
I0830 18:04:49.875277 18749 net.cpp:137] Memory required for data: 2414096128
I0830 18:04:49.875283 18749 layer_factory.hpp:77] Creating layer concat_wbn_7
I0830 18:04:49.875290 18749 net.cpp:84] Creating Layer concat_wbn_7
I0830 18:04:49.875294 18749 net.cpp:406] concat_wbn_7 <- fc7_source/bn
I0830 18:04:49.875299 18749 net.cpp:406] concat_wbn_7 <- fc7_target/bn
I0830 18:04:49.875305 18749 net.cpp:380] concat_wbn_7 -> fc7/bn
I0830 18:04:49.875325 18749 net.cpp:122] Setting up concat_wbn_7
I0830 18:04:49.875334 18749 net.cpp:129] Top shape: 320 4096 (1310720)
I0830 18:04:49.875352 18749 net.cpp:137] Memory required for data: 2419339008
I0830 18:04:49.875356 18749 layer_factory.hpp:77] Creating layer fc7_scale
I0830 18:04:49.875363 18749 net.cpp:84] Creating Layer fc7_scale
I0830 18:04:49.875368 18749 net.cpp:406] fc7_scale <- fc7/bn
I0830 18:04:49.875375 18749 net.cpp:380] fc7_scale -> fc7/scale
I0830 18:04:49.875412 18749 layer_factory.hpp:77] Creating layer fc7_scale
I0830 18:04:49.875509 18749 net.cpp:122] Setting up fc7_scale
I0830 18:04:49.875517 18749 net.cpp:129] Top shape: 320 4096 (1310720)
I0830 18:04:49.875520 18749 net.cpp:137] Memory required for data: 2424581888
I0830 18:04:49.875525 18749 layer_factory.hpp:77] Creating layer relu7
I0830 18:04:49.875531 18749 net.cpp:84] Creating Layer relu7
I0830 18:04:49.875535 18749 net.cpp:406] relu7 <- fc7/scale
I0830 18:04:49.875541 18749 net.cpp:380] relu7 -> fc7/relu
I0830 18:04:49.876243 18749 net.cpp:122] Setting up relu7
I0830 18:04:49.876256 18749 net.cpp:129] Top shape: 320 4096 (1310720)
I0830 18:04:49.876260 18749 net.cpp:137] Memory required for data: 2429824768
I0830 18:04:49.876266 18749 layer_factory.hpp:77] Creating layer drop7
I0830 18:04:49.876272 18749 net.cpp:84] Creating Layer drop7
I0830 18:04:49.876276 18749 net.cpp:406] drop7 <- fc7/relu
I0830 18:04:49.876281 18749 net.cpp:380] drop7 -> fc7/out
I0830 18:04:49.876318 18749 net.cpp:122] Setting up drop7
I0830 18:04:49.876325 18749 net.cpp:129] Top shape: 320 4096 (1310720)
I0830 18:04:49.876329 18749 net.cpp:137] Memory required for data: 2435067648
I0830 18:04:49.876332 18749 layer_factory.hpp:77] Creating layer bottleneck
I0830 18:04:49.876341 18749 net.cpp:84] Creating Layer bottleneck
I0830 18:04:49.876345 18749 net.cpp:406] bottleneck <- fc7/out
I0830 18:04:49.876351 18749 net.cpp:380] bottleneck -> bottleneck
I0830 18:04:49.884443 18749 net.cpp:122] Setting up bottleneck
I0830 18:04:49.884460 18749 net.cpp:129] Top shape: 320 256 (81920)
I0830 18:04:49.884464 18749 net.cpp:137] Memory required for data: 2435395328
I0830 18:04:49.884471 18749 layer_factory.hpp:77] Creating layer bottleneck_bottleneck_0_split
I0830 18:04:49.884479 18749 net.cpp:84] Creating Layer bottleneck_bottleneck_0_split
I0830 18:04:49.884485 18749 net.cpp:406] bottleneck_bottleneck_0_split <- bottleneck
I0830 18:04:49.884492 18749 net.cpp:380] bottleneck_bottleneck_0_split -> bottleneck_bottleneck_0_split_0
I0830 18:04:49.884501 18749 net.cpp:380] bottleneck_bottleneck_0_split -> bottleneck_bottleneck_0_split_1
I0830 18:04:49.884537 18749 net.cpp:122] Setting up bottleneck_bottleneck_0_split
I0830 18:04:49.884546 18749 net.cpp:129] Top shape: 320 256 (81920)
I0830 18:04:49.884549 18749 net.cpp:129] Top shape: 320 256 (81920)
I0830 18:04:49.884552 18749 net.cpp:137] Memory required for data: 2436050688
I0830 18:04:49.884555 18749 layer_factory.hpp:77] Creating layer slicer_bottle
I0830 18:04:49.884563 18749 net.cpp:84] Creating Layer slicer_bottle
I0830 18:04:49.884567 18749 net.cpp:406] slicer_bottle <- bottleneck_bottleneck_0_split_0
I0830 18:04:49.884572 18749 net.cpp:380] slicer_bottle -> bottleneck_source
I0830 18:04:49.884579 18749 net.cpp:380] slicer_bottle -> bottleneck_target
I0830 18:04:49.884611 18749 net.cpp:122] Setting up slicer_bottle
I0830 18:04:49.884618 18749 net.cpp:129] Top shape: 256 256 (65536)
I0830 18:04:49.884621 18749 net.cpp:129] Top shape: 64 256 (16384)
I0830 18:04:49.884624 18749 net.cpp:137] Memory required for data: 2436378368
I0830 18:04:49.884629 18749 layer_factory.hpp:77] Creating layer silence_target_feature
I0830 18:04:49.884634 18749 net.cpp:84] Creating Layer silence_target_feature
I0830 18:04:49.884639 18749 net.cpp:406] silence_target_feature <- bottleneck_target
I0830 18:04:49.884644 18749 net.cpp:122] Setting up silence_target_feature
I0830 18:04:49.884649 18749 net.cpp:137] Memory required for data: 2436378368
I0830 18:04:49.884652 18749 layer_factory.hpp:77] Creating layer grl
I0830 18:04:49.884667 18749 net.cpp:84] Creating Layer grl
I0830 18:04:49.884672 18749 net.cpp:406] grl <- bottleneck_source
I0830 18:04:49.884692 18749 net.cpp:380] grl -> grl
I0830 18:04:49.884701 18749 messenger.hpp:36] Adding listener for message SOLVER_ITER_CHANGED
I0830 18:04:49.884728 18749 net.cpp:122] Setting up grl
I0830 18:04:49.884734 18749 net.cpp:129] Top shape: 256 256 (65536)
I0830 18:04:49.884738 18749 net.cpp:137] Memory required for data: 2436640512
I0830 18:04:49.884742 18749 layer_factory.hpp:77] Creating layer dc_ip1
I0830 18:04:49.884752 18749 net.cpp:84] Creating Layer dc_ip1
I0830 18:04:49.884757 18749 net.cpp:406] dc_ip1 <- grl
I0830 18:04:49.884763 18749 net.cpp:380] dc_ip1 -> dc_ip1
I0830 18:04:49.887392 18749 net.cpp:122] Setting up dc_ip1
I0830 18:04:49.887404 18749 net.cpp:129] Top shape: 256 1024 (262144)
I0830 18:04:49.887408 18749 net.cpp:137] Memory required for data: 2437689088
I0830 18:04:49.887419 18749 layer_factory.hpp:77] Creating layer dc_relu1
I0830 18:04:49.887428 18749 net.cpp:84] Creating Layer dc_relu1
I0830 18:04:49.887431 18749 net.cpp:406] dc_relu1 <- dc_ip1
I0830 18:04:49.887437 18749 net.cpp:367] dc_relu1 -> dc_ip1 (in-place)
I0830 18:04:49.887646 18749 net.cpp:122] Setting up dc_relu1
I0830 18:04:49.887655 18749 net.cpp:129] Top shape: 256 1024 (262144)
I0830 18:04:49.887660 18749 net.cpp:137] Memory required for data: 2438737664
I0830 18:04:49.887662 18749 layer_factory.hpp:77] Creating layer dc_drop1
I0830 18:04:49.887671 18749 net.cpp:84] Creating Layer dc_drop1
I0830 18:04:49.887676 18749 net.cpp:406] dc_drop1 <- dc_ip1
I0830 18:04:49.887683 18749 net.cpp:367] dc_drop1 -> dc_ip1 (in-place)
I0830 18:04:49.887704 18749 net.cpp:122] Setting up dc_drop1
I0830 18:04:49.887727 18749 net.cpp:129] Top shape: 256 1024 (262144)
I0830 18:04:49.887733 18749 net.cpp:137] Memory required for data: 2439786240
I0830 18:04:49.887737 18749 layer_factory.hpp:77] Creating layer dc_ip2
I0830 18:04:49.887744 18749 net.cpp:84] Creating Layer dc_ip2
I0830 18:04:49.887749 18749 net.cpp:406] dc_ip2 <- dc_ip1
I0830 18:04:49.887755 18749 net.cpp:380] dc_ip2 -> dc_ip2
I0830 18:04:49.895807 18749 net.cpp:122] Setting up dc_ip2
I0830 18:04:49.895823 18749 net.cpp:129] Top shape: 256 1024 (262144)
I0830 18:04:49.895826 18749 net.cpp:137] Memory required for data: 2440834816
I0830 18:04:49.895833 18749 layer_factory.hpp:77] Creating layer dc_relu2
I0830 18:04:49.895843 18749 net.cpp:84] Creating Layer dc_relu2
I0830 18:04:49.895848 18749 net.cpp:406] dc_relu2 <- dc_ip2
I0830 18:04:49.895853 18749 net.cpp:367] dc_relu2 -> dc_ip2 (in-place)
I0830 18:04:49.896055 18749 net.cpp:122] Setting up dc_relu2
I0830 18:04:49.896064 18749 net.cpp:129] Top shape: 256 1024 (262144)
I0830 18:04:49.896067 18749 net.cpp:137] Memory required for data: 2441883392
I0830 18:04:49.896072 18749 layer_factory.hpp:77] Creating layer dc_drop2
I0830 18:04:49.896081 18749 net.cpp:84] Creating Layer dc_drop2
I0830 18:04:49.896085 18749 net.cpp:406] dc_drop2 <- dc_ip2
I0830 18:04:49.896091 18749 net.cpp:367] dc_drop2 -> dc_ip2 (in-place)
I0830 18:04:49.896112 18749 net.cpp:122] Setting up dc_drop2
I0830 18:04:49.896121 18749 net.cpp:129] Top shape: 256 1024 (262144)
I0830 18:04:49.896123 18749 net.cpp:137] Memory required for data: 2442931968
I0830 18:04:49.896126 18749 layer_factory.hpp:77] Creating layer dc_ip3
I0830 18:04:49.896136 18749 net.cpp:84] Creating Layer dc_ip3
I0830 18:04:49.896140 18749 net.cpp:406] dc_ip3 <- dc_ip2
I0830 18:04:49.896148 18749 net.cpp:380] dc_ip3 -> dc_ip3
I0830 18:04:49.896245 18749 net.cpp:122] Setting up dc_ip3
I0830 18:04:49.896252 18749 net.cpp:129] Top shape: 256 1 (256)
I0830 18:04:49.896255 18749 net.cpp:137] Memory required for data: 2442932992
I0830 18:04:49.896260 18749 layer_factory.hpp:77] Creating layer dc_ip3_dc_ip3_0_split
I0830 18:04:49.896266 18749 net.cpp:84] Creating Layer dc_ip3_dc_ip3_0_split
I0830 18:04:49.896272 18749 net.cpp:406] dc_ip3_dc_ip3_0_split <- dc_ip3
I0830 18:04:49.896278 18749 net.cpp:380] dc_ip3_dc_ip3_0_split -> dc_ip3_dc_ip3_0_split_0
I0830 18:04:49.896286 18749 net.cpp:380] dc_ip3_dc_ip3_0_split -> dc_ip3_dc_ip3_0_split_1
I0830 18:04:49.896314 18749 net.cpp:122] Setting up dc_ip3_dc_ip3_0_split
I0830 18:04:49.896332 18749 net.cpp:129] Top shape: 256 1 (256)
I0830 18:04:49.896337 18749 net.cpp:129] Top shape: 256 1 (256)
I0830 18:04:49.896339 18749 net.cpp:137] Memory required for data: 2442935040
I0830 18:04:49.896342 18749 layer_factory.hpp:77] Creating layer dc_loss
I0830 18:04:49.896353 18749 net.cpp:84] Creating Layer dc_loss
I0830 18:04:49.896356 18749 net.cpp:406] dc_loss <- dc_ip3_dc_ip3_0_split_0
I0830 18:04:49.896361 18749 net.cpp:406] dc_loss <- domain_labels_concat_domain_labels_0_split_0
I0830 18:04:49.896368 18749 net.cpp:380] dc_loss -> dc_loss
…
I0830 18:04:49.896474 18749 net.cpp:380] dc_accuracy -> domain_accuracy
I0830 18:04:49.896481 18749 net.cpp:122] Setting up dc_accuracy
I0830 18:04:49.896486 18749 net.cpp:129] Top shape: (1)
I0830 18:04:49.896489 18749 net.cpp:137] Memory required for data: 2442935048
I0830 18:04:49.896493 18749 layer_factory.hpp:77] Creating layer office-fc8
I0830 18:04:49.896499 18749 net.cpp:84] Creating Layer office-fc8
I0830 18:04:49.896503 18749 net.cpp:406] office-fc8 <- bottleneck_bottleneck_0_split_1
I0830 18:04:49.896508 18749 net.cpp:380] office-fc8 -> fc8
I0830 18:04:49.897495 18749 net.cpp:122] Setting up office-fc8
I0830 18:04:49.897505 18749 net.cpp:129] Top shape: 320 31 (9920)
I0830 18:04:49.897508 18749 net.cpp:137] Memory required for data: 2442974728
I0830 18:04:49.897514 18749 layer_factory.hpp:77] Creating layer slicer_fc8
I0830 18:04:49.897522 18749 net.cpp:84] Creating Layer slicer_fc8
I0830 18:04:49.897526 18749 net.cpp:406] slicer_fc8 <- fc8
I0830 18:04:49.897532 18749 net.cpp:380] slicer_fc8 -> fc8_source
I0830 18:04:49.897538 18749 net.cpp:380] slicer_fc8 -> fc8_target
I0830 18:04:49.897575 18749 net.cpp:122] Setting up slicer_fc8
I0830 18:04:49.897583 18749 net.cpp:129] Top shape: 256 31 (7936)
I0830 18:04:49.897588 18749 net.cpp:129] Top shape: 64 31 (1984)
I0830 18:04:49.897589 18749 net.cpp:137] Memory required for data: 2443014408
I0830 18:04:49.897593 18749 layer_factory.hpp:77] Creating layer fc8_source/bn
I0830 18:04:49.897599 18749 net.cpp:84] Creating Layer fc8_source/bn
I0830 18:04:49.897604 18749 net.cpp:406] fc8_source/bn <- fc8_source
I0830 18:04:49.897610 18749 net.cpp:380] fc8_source/bn -> fc8_source/bn
I0830 18:04:49.897776 18749 net.cpp:122] Setting up fc8_source/bn
I0830 18:04:49.897783 18749 net.cpp:129] Top shape: 256 31 (7936)
I0830 18:04:49.897786 18749 net.cpp:137] Memory required for data: 2443046152
I0830 18:04:49.897794 18749 layer_factory.hpp:77] Creating layer fc8_target/bn
I0830 18:04:49.897800 18749 net.cpp:84] Creating Layer fc8_target/bn
I0830 18:04:49.897804 18749 net.cpp:406] fc8_target/bn <- fc8_target
I0830 18:04:49.897810 18749 net.cpp:380] fc8_target/bn -> fc8_target/bn
I0830 18:04:49.897977 18749 net.cpp:122] Setting up fc8_target/bn
I0830 18:04:49.897984 18749 net.cpp:129] Top shape: 64 31 (1984)
I0830 18:04:49.897987 18749 net.cpp:137] Memory required for data: 2443054088
I0830 18:04:49.897994 18749 layer_factory.hpp:77] Creating layer concat_wbn_8
I0830 18:04:49.898000 18749 net.cpp:84] Creating Layer concat_wbn_8
I0830 18:04:49.898005 18749 net.cpp:406] concat_wbn_8 <- fc8_source/bn
I0830 18:04:49.898010 18749 net.cpp:406] concat_wbn_8 <- fc8_target/bn
I0830 18:04:49.898013 18749 net.cpp:380] concat_wbn_8 -> fc8/bn
I0830 18:04:49.898033 18749 net.cpp:122] Setting up concat_wbn_8
I0830 18:04:49.898041 18749 net.cpp:129] Top shape: 320 31 (9920)
I0830 18:04:49.898044 18749 net.cpp:137] Memory required for data: 2443093768
I0830 18:04:49.898056 18749 layer_factory.hpp:77] Creating layer fc8_scale
I0830 18:04:49.898066 18749 net.cpp:84] Creating Layer fc8_scale
I0830 18:04:49.898072 18749 net.cpp:406] fc8_scale <- fc8/bn
I0830 18:04:49.898078 18749 net.cpp:380] fc8_scale -> fc8/scale
I0830 18:04:49.898116 18749 layer_factory.hpp:77] Creating layer fc8_scale
I0830 18:04:49.898219 18749 net.cpp:122] Setting up fc8_scale
I0830 18:04:49.898227 18749 net.cpp:129] Top shape: 320 31 (9920)
I0830 18:04:49.898231 18749 net.cpp:137] Memory required for data: 2443133448
I0830 18:04:49.898236 18749 layer_factory.hpp:77] Creating layer slicer_scorer
I0830 18:04:49.898241 18749 net.cpp:84] Creating Layer slicer_scorer
I0830 18:04:49.898247 18749 net.cpp:406] slicer_scorer <- fc8/scale
I0830 18:04:49.898252 18749 net.cpp:380] slicer_scorer -> score_source
I0830 18:04:49.898259 18749 net.cpp:380] slicer_scorer -> score_target
I0830 18:04:49.898299 18749 net.cpp:122] Setting up slicer_scorer
I0830 18:04:49.898306 18749 net.cpp:129] Top shape: 256 31 (7936)
I0830 18:04:49.898310 18749 net.cpp:129] Top shape: 64 31 (1984)
I0830 18:04:49.898313 18749 net.cpp:137] Memory required for data: 2443173128
I0830 18:04:49.898316 18749 layer_factory.hpp:77] Creating layer score_source_slicer_scorer_0_split
I0830 18:04:49.898322 18749 net.cpp:84] Creating Layer score_source_slicer_scorer_0_split
I0830 18:04:49.898327 18749 net.cpp:406] score_source_slicer_scorer_0_split <- score_source
I0830 18:04:49.898332 18749 net.cpp:380] score_source_slicer_scorer_0_split -> score_source_slicer_scorer_0_split_0
I0830 18:04:49.898339 18749 net.cpp:380] score_source_slicer_scorer_0_split -> score_source_slicer_scorer_0_split_1
I0830 18:04:49.898370 18749 net.cpp:122] Setting up score_source_slicer_scorer_0_split
I0830 18:04:49.898375 18749 net.cpp:129] Top shape: 256 31 (7936)
I0830 18:04:49.898380 18749 net.cpp:129] Top shape: 256 31 (7936)
I0830 18:04:49.898381 18749 net.cpp:137] Memory required for data: 2443236616
I0830 18:04:49.898386 18749 layer_factory.hpp:77] Creating layer loss
I0830 18:04:49.898398 18749 net.cpp:84] Creating Layer loss
I0830 18:04:49.898406 18749 net.cpp:406] loss <- score_source_slicer_scorer_0_split_0
I0830 18:04:49.898411 18749 net.cpp:406] loss <- label_label_0_split_0
I0830 18:04:49.898417 18749 net.cpp:380] loss -> loss
…
I0830 18:04:50.315279 18749 net.cpp:294] The NetState phase (1) differed from the phase (0) specified by a rule in layer silence_target
I0830 18:04:50.315456 18749 net.cpp:51] Initializing net from parameters: 
name: "CaffeNet"
state {
  phase: TEST
}
layer {
  name: "data"
  type: "ImageData"
  top: "data"
  top: "label"
  include {
    phase: TEST
  }
  transform_param {
    mirror: false
    crop_size: 224
    mean_value: 104
    mean_value: 117
    mean_value: 123
  }
  image_data_param {
    source: "/home/alfa/Documents/msda/mywork/data/office/office_d.txt"
    batch_size: 1
    shuffle: false
    new_height: 256
    new_width: 256
    is_color: true
  }
}
layer {
  name: "conv1"
  type: "Convolution"
  bottom: "data"
  top: "conv1"
  param {
    lr_mult: 1
    decay_mult: 1
  }
  param {
    lr_mult: 2
    decay_mult: 0
  }
  convolution_param {
    num_output: 96
    kernel_size: 11
    stride: 4
    weight_filler {
      type: "gaussian"
      std: 0.01
    }
    bias_filler {
      type: "constant"
      value: 0
    }
  }
}
layer {
  name: "relu1"
  type: "ReLU"
  bottom: "conv1"
  top: "conv1"
}
layer {
  name: "pool1"
  type: "Pooling"
  bottom: "conv1"
  top: "pool1"
  pooling_param {
    pool: MAX
    kernel_size: 3
    stride: 2
  }
}
layer {
  name: "norm1"
  type: "LRN"
  bottom: "pool1"
  top: "norm1"
  lrn_param {
    local_size: 5
    alpha: 0.0001
    beta: 0.75
  }
}
layer {
  name: "conv2"
  type: "Convolution"
  bottom: "norm1"
  top: "conv2"
  param {
    lr_mult: 1
    decay_mult: 1
  }
  param {
    lr_mult: 2
    decay_mult: 0
  }
  convolution_param {
    num_output: 256
    pad: 2
    kernel_size: 5
    group: 2
    weight_filler {
      type: "gaussian"
      std: 0.01
    }
    bias_filler {
      type: "constant"
      value: 1
    }
  }
}
layer {
  name: "relu2"
  type: "ReLU"
  bottom: "conv2"
  top: "conv2"
}
layer {
  name: "pool2"
  type: "Pooling"
  bottom: "conv2"
  top: "pool2"
  pooling_param {
    pool: MAX
    kernel_size: 3
    stride: 2
  }
}
layer {
  name: "norm2"
  type: "LRN"
  bottom: "pool2"
  top: "norm2"
  lrn_param {
    local_size: 5
    alpha: 0.0001
    beta: 0.75
  }
}
layer {
  name: "conv3"
  type: "Convolution"
  bottom: "norm2"
  top: "conv3"
  param {
    lr_mult: 1
    decay_mult: 1
  }
  param {
    lr_mult: 2
    decay_mult: 0
  }
  convolution_param {
    num_output: 384
    pad: 1
    kernel_size: 3
    weight_filler {
      type: "gaussian"
      std: 0.01
    }
    bias_filler {
      type: "constant"
      value: 0
    }
  }
}
layer {
  name: "relu3"
  type: "ReLU"
  bottom: "conv3"
  top: "conv3"
}
layer {
  name: "conv4"
  type: "Convolution"
  bottom: "conv3"
  top: "conv4"
  param {
    lr_mult: 1
    decay_mult: 1
  }
  param {
    lr_mult: 2
    decay_mult: 0
  }
  convolution_param {
    num_output: 384
    pad: 1
    kernel_size: 3
    group: 2
    weight_filler {
      type: "gaussian"
      std: 0.01
    }
    bias_filler {
      type: "constant"
      value: 1
    }
  }
}
layer {
  name: "relu4"
  type: "ReLU"
  bottom: "conv4"
  top: "conv4"
}
layer {
  name: "conv5"
  type: "Convolution"
  bottom: "conv4"
  top: "conv5"
  param {
    lr_mult: 1
    decay_mult: 1
  }
  param {
    lr_mult: 2
    decay_mult: 0
  }
  convolution_param {
    num_output: 256
    pad: 1
    kernel_size: 3
    group: 2
    weight_filler {
      type: "gaussian"
      std: 0.01
    }
    bias_filler {
      type: "constant"
      value: 1
    }
  }
}
layer {
  name: "relu5"
  type: "ReLU"
  bottom: "conv5"
  top: "conv5"
}
layer {
  name: "pool5"
  type: "Pooling"
  bottom: "conv5"
  top: "pool5"
  pooling_param {
    pool: MAX
    kernel_size: 3
    stride: 2
  }
}
layer {
  name: "fc6"
  type: "InnerProduct"
  bottom: "pool5"
  top: "fc6"
  param {
    lr_mult: 1
    decay_mult: 1
  }
  param {
    lr_mult: 2
    decay_mult: 0
  }
  inner_product_param {
    num_output: 4096
    weight_filler {
      type: "gaussian"
      std: 0.005
    }
    bias_filler {
      type: "constant"
      value: 0
    }
  }
}
layer {
  name: "fc6_target/bn"
  type: "BatchNorm"
  bottom: "fc6"
  top: "fc6/bn"
  param {
    lr_mult: 0
    decay_mult: 0
  }
  param {
    lr_mult: 0
    decay_mult: 0
  }
  param {
    lr_mult: 0
    decay_mult: 0
  }
  include {
    phase: TEST
  }
  batch_norm_param {
    moving_average_fraction: 0.95
  }
}
layer {
  name: "fc6_scale"
  type: "Scale"
  bottom: "fc6/bn"
  top: "fc6/scale"
  param {
    lr_mult: 1
    decay_mult: 0
  }
  param {
    lr_mult: 1
    decay_mult: 0
  }
  scale_param {
    axis: 1
    num_axes: 1
    filler {
      type: "constant"
      value: 1
    }
    bias_term: true
    bias_filler {
      type: "constant"
      value: 0
    }
  }
}
layer {
  name: "relu6"
  type: "ReLU"
  bottom: "fc6/scale"
  top: "fc6/relu"
}
layer {
  name: "drop6"
  type: "Dropout"
  bottom: "fc6/relu"
  top: "fc6/out"
  dropout_param {
    dropout_ratio: 0.5
  }
}
layer {
  name: "fc7"
  type: "InnerProduct"
  bottom: "fc6/out"
  top: "fc7"
  param {
    lr_mult: 10
    decay_mult: 1
  }
  param {
    lr_mult: 20
    decay_mult: 0
  }
  inner_product_param {
    num_output: 4096
    weight_filler {
      type: "gaussian"
      std: 0.005
    }
    bias_filler {
      type: "constant"
      value: 0
    }
  }
}
layer {
  name: "fc7_target/bn"
  type: "BatchNorm"
  bottom: "fc7"
  top: "fc7/bn"
  param {
    lr_mult: 0
    decay_mult: 0
  }
  param {
    lr_mult: 0
    decay_mult: 0
  }
  param {
    lr_mult: 0
    decay_mult: 0
  }
  include {
    phase: TEST
  }
  batch_norm_param {
    moving_average_fraction: 0.95
  }
}
layer {
  name: "fc7_scale"
  type: "Scale"
  bottom: "fc7/bn"
  top: "fc7/scale"
  param {
    lr_mult: 1
    decay_mult: 0
  }
  param {
    lr_mult: 1
    decay_mult: 0
  }
  scale_param {
    axis: 1
    num_axes: 1
    filler {
      type: "constant"
      value: 1
    }
    bias_term: true
    bias_filler {
      type: "constant"
      value: 0
    }
  }
}
layer {
  name: "relu7"
  type: "ReLU"
  bottom: "fc7/scale"
  top: "fc7/relu"
}
layer {
  name: "drop7"
  type: "Dropout"
  bottom: "fc7/relu"
  top: "fc7/out"
  dropout_param {
    dropout_ratio: 0.5
  }
}
layer {
  name: "bottleneck"
  type: "InnerProduct"
  bottom: "fc7/out"
  top: "bottleneck"
  param {
    lr_mult: 10
    decay_mult: 1
  }
  param {
    lr_mult: 20
    decay_mult: 0
  }
  inner_product_param {
    num_output: 256
    weight_filler {
      type: "gaussian"
      std: 0.005
    }
    bias_filler {
      type: "constant"
      value: 0
    }
  }
}
layer {
  name: "office-fc8"
  type: "InnerProduct"
  bottom: "bottleneck"
  top: "fc8"
  param {
    lr_mult: 10
    decay_mult: 1
  }
  param {
    lr_mult: 20
    decay_mult: 0
  }
  inner_product_param {
    num_output: 31
    weight_filler {
      type: "gaussian"
      std: 0.01
    }
    bias_filler {
      type: "constant"
      value: 0
    }
  }
}
layer {
  name: "fc8_target/bn"
  type: "BatchNorm"
  bottom: "fc8"
  top: "fc8/bn"
  param {
    lr_mult: 0
    decay_mult: 0
  }
  param {
    lr_mult: 0
    decay_mult: 0
  }
  param {
    lr_mult: 0
    decay_mult: 0
  }
  include {
    phase: TEST
  }
  batch_norm_param {
    moving_average_fraction: 0.95
  }
}
layer {
  name: "fc8_scale"
  type: "Scale"
  bottom: "fc8/bn"
  top: "fc8/scale"
  param {
    lr_mult: 1
    decay_mult: 0
  }
  param {
    lr_mult: 1
    decay_mult: 0
  }
  scale_param {
    axis: 1
    num_axes: 1
    filler {
      type: "constant"
      value: 1
    }
    bias_term: true
    bias_filler {
      type: "constant"
      value: 0
    }
  }
}
layer {
  name: "accuracy"
  type: "Accuracy"
  bottom: "fc8/scale"
  bottom: "label"
  top: "accuracy"
  include {
    phase: TEST
  }
}
I0830 18:04:50.315533 18749 layer_factory.hpp:77] Creating layer data
I0830 18:04:50.315547 18749 net.cpp:84] Creating Layer data
I0830 18:04:50.315552 18749 net.cpp:380] data -> data
I0830 18:04:50.315560 18749 net.cpp:380] data -> label
I0830 18:04:50.315570 18749 image_data_layer.cpp:38] Opening file /home/alfa/Documents/msda/mywork/data/office/office_d.txt
I0830 18:04:50.315790 18749 image_data_layer.cpp:63] A total of 498 images.
I0830 18:04:50.320972 18749 image_data_layer.cpp:90] output data size: 1,3,224,224
I0830 18:04:50.322878 18749 net.cpp:122] Setting up data
I0830 18:04:50.322892 18749 net.cpp:129] Top shape: 1 3 224 224 (150528)
I0830 18:04:50.322897 18749 net.cpp:129] Top shape: 1 (1)
I0830 18:04:50.322901 18749 net.cpp:137] Memory required for data: 602116
I0830 18:04:50.322906 18749 layer_factory.hpp:77] Creating layer conv1
I0830 18:04:50.322919 18749 net.cpp:84] Creating Layer conv1
I0830 18:04:50.322926 18749 net.cpp:406] conv1 <- data
I0830 18:04:50.322932 18749 net.cpp:380] conv1 -> conv1
I0830 18:04:50.324826 18749 net.cpp:122] Setting up conv1
I0830 18:04:50.324838 18749 net.cpp:129] Top shape: 1 96 54 54 (279936)
I0830 18:04:50.324841 18749 net.cpp:137] Memory required for data: 1721860
I0830 18:04:50.324851 18749 layer_factory.hpp:77] Creating layer relu1
I0830 18:04:50.324859 18749 net.cpp:84] Creating Layer relu1
I0830 18:04:50.324865 18749 net.cpp:406] relu1 <- conv1
I0830 18:04:50.324870 18749 net.cpp:367] relu1 -> conv1 (in-place)
I0830 18:04:50.325018 18749 net.cpp:122] Setting up relu1
I0830 18:04:50.325026 18749 net.cpp:129] Top shape: 1 96 54 54 (279936)
I0830 18:04:50.325029 18749 net.cpp:137] Memory required for data: 2841604
I0830 18:04:50.325033 18749 layer_factory.hpp:77] Creating layer pool1
I0830 18:04:50.325040 18749 net.cpp:84] Creating Layer pool1
I0830 18:04:50.325044 18749 net.cpp:406] pool1 <- conv1
I0830 18:04:50.325052 18749 net.cpp:380] pool1 -> pool1
I0830 18:04:50.325093 18749 net.cpp:122] Setting up pool1
I0830 18:04:50.325099 18749 net.cpp:129] Top shape: 1 96 27 27 (69984)
I0830 18:04:50.325103 18749 net.cpp:137] Memory required for data: 3121540
I0830 18:04:50.325107 18749 layer_factory.hpp:77] Creating layer norm1
I0830 18:04:50.325115 18749 net.cpp:84] Creating Layer norm1
I0830 18:04:50.325124 18749 net.cpp:406] norm1 <- pool1
I0830 18:04:50.325129 18749 net.cpp:380] norm1 -> norm1
I0830 18:04:50.325301 18749 net.cpp:122] Setting up norm1
I0830 18:04:50.325310 18749 net.cpp:129] Top shape: 1 96 27 27 (69984)
I0830 18:04:50.325314 18749 net.cpp:137] Memory required for data: 3401476
I0830 18:04:50.325317 18749 layer_factory.hpp:77] Creating layer conv2
I0830 18:04:50.325326 18749 net.cpp:84] Creating Layer conv2
I0830 18:04:50.325330 18749 net.cpp:406] conv2 <- norm1
I0830 18:04:50.325337 18749 net.cpp:380] conv2 -> conv2
I0830 18:04:50.329977 18749 net.cpp:122] Setting up conv2
I0830 18:04:50.329991 18749 net.cpp:129] Top shape: 1 256 27 27 (186624)
I0830 18:04:50.329994 18749 net.cpp:137] Memory required for data: 4147972
I0830 18:04:50.330004 18749 layer_factory.hpp:77] Creating layer relu2
I0830 18:04:50.330013 18749 net.cpp:84] Creating Layer relu2
I0830 18:04:50.330016 18749 net.cpp:406] relu2 <- conv2
I0830 18:04:50.330021 18749 net.cpp:367] relu2 -> conv2 (in-place)
I0830 18:04:50.330549 18749 net.cpp:122] Setting up relu2
I0830 18:04:50.330559 18749 net.cpp:129] Top shape: 1 256 27 27 (186624)
I0830 18:04:50.330562 18749 net.cpp:137] Memory required for data: 4894468
I0830 18:04:50.330566 18749 layer_factory.hpp:77] Creating layer pool2
I0830 18:04:50.330574 18749 net.cpp:84] Creating Layer pool2
I0830 18:04:50.330579 18749 net.cpp:406] pool2 <- conv2
I0830 18:04:50.330585 18749 net.cpp:380] pool2 -> pool2
I0830 18:04:50.330627 18749 net.cpp:122] Setting up pool2
I0830 18:04:50.330634 18749 net.cpp:129] Top shape: 1 256 13 13 (43264)
I0830 18:04:50.330638 18749 net.cpp:137] Memory required for data: 5067524
I0830 18:04:50.330641 18749 layer_factory.hpp:77] Creating layer norm2
I0830 18:04:50.330651 18749 net.cpp:84] Creating Layer norm2
I0830 18:04:50.330655 18749 net.cpp:406] norm2 <- pool2
I0830 18:04:50.330660 18749 net.cpp:380] norm2 -> norm2
I0830 18:04:50.330832 18749 net.cpp:122] Setting up norm2
I0830 18:04:50.330840 18749 net.cpp:129] Top shape: 1 256 13 13 (43264)
I0830 18:04:50.330844 18749 net.cpp:137] Memory required for data: 5240580
I0830 18:04:50.330848 18749 layer_factory.hpp:77] Creating layer conv3
I0830 18:04:50.330875 18749 net.cpp:84] Creating Layer conv3
I0830 18:04:50.330881 18749 net.cpp:406] conv3 <- norm2
I0830 18:04:50.330888 18749 net.cpp:380] conv3 -> conv3
I0830 18:04:50.339344 18749 net.cpp:122] Setting up conv3
I0830 18:04:50.339360 18749 net.cpp:129] Top shape: 1 384 13 13 (64896)
I0830 18:04:50.339365 18749 net.cpp:137] Memory required for data: 5500164
I0830 18:04:50.339375 18749 layer_factory.hpp:77] Creating layer relu3
I0830 18:04:50.339386 18749 net.cpp:84] Creating Layer relu3
I0830 18:04:50.339393 18749 net.cpp:406] relu3 <- conv3
I0830 18:04:50.339398 18749 net.cpp:367] relu3 -> conv3 (in-place)
I0830 18:04:50.339566 18749 net.cpp:122] Setting up relu3
I0830 18:04:50.339576 18749 net.cpp:129] Top shape: 1 384 13 13 (64896)
I0830 18:04:50.339578 18749 net.cpp:137] Memory required for data: 5759748
I0830 18:04:50.339581 18749 layer_factory.hpp:77] Creating layer conv4
I0830 18:04:50.339594 18749 net.cpp:84] Creating Layer conv4
I0830 18:04:50.339601 18749 net.cpp:406] conv4 <- conv3
I0830 18:04:50.339607 18749 net.cpp:380] conv4 -> conv4
I0830 18:04:50.347539 18749 net.cpp:122] Setting up conv4
I0830 18:04:50.347555 18749 net.cpp:129] Top shape: 1 384 13 13 (64896)
I0830 18:04:50.347558 18749 net.cpp:137] Memory required for data: 6019332
I0830 18:04:50.347565 18749 layer_factory.hpp:77] Creating layer relu4
I0830 18:04:50.347573 18749 net.cpp:84] Creating Layer relu4
I0830 18:04:50.347579 18749 net.cpp:406] relu4 <- conv4
I0830 18:04:50.347585 18749 net.cpp:367] relu4 -> conv4 (in-place)
I0830 18:04:50.348136 18749 net.cpp:122] Setting up relu4
I0830 18:04:50.348147 18749 net.cpp:129] Top shape: 1 384 13 13 (64896)
I0830 18:04:50.348151 18749 net.cpp:137] Memory required for data: 6278916
I0830 18:04:50.348155 18749 layer_factory.hpp:77] Creating layer conv5
I0830 18:04:50.348167 18749 net.cpp:84] Creating Layer conv5
I0830 18:04:50.348173 18749 net.cpp:406] conv5 <- conv4
I0830 18:04:50.348181 18749 net.cpp:380] conv5 -> conv5
I0830 18:04:50.354142 18749 net.cpp:122] Setting up conv5
I0830 18:04:50.354156 18749 net.cpp:129] Top shape: 1 256 13 13 (43264)
I0830 18:04:50.354161 18749 net.cpp:137] Memory required for data: 6451972
I0830 18:04:50.354171 18749 layer_factory.hpp:77] Creating layer relu5
I0830 18:04:50.354180 18749 net.cpp:84] Creating Layer relu5
I0830 18:04:50.354184 18749 net.cpp:406] relu5 <- conv5
I0830 18:04:50.354190 18749 net.cpp:367] relu5 -> conv5 (in-place)
I0830 18:04:50.354349 18749 net.cpp:122] Setting up relu5
I0830 18:04:50.354357 18749 net.cpp:129] Top shape: 1 256 13 13 (43264)
I0830 18:04:50.354360 18749 net.cpp:137] Memory required for data: 6625028
I0830 18:04:50.354364 18749 layer_factory.hpp:77] Creating layer pool5
I0830 18:04:50.354372 18749 net.cpp:84] Creating Layer pool5
I0830 18:04:50.354377 18749 net.cpp:406] pool5 <- conv5
I0830 18:04:50.354383 18749 net.cpp:380] pool5 -> pool5
I0830 18:04:50.354424 18749 net.cpp:122] Setting up pool5
I0830 18:04:50.354432 18749 net.cpp:129] Top shape: 1 256 6 6 (9216)
I0830 18:04:50.354435 18749 net.cpp:137] Memory required for data: 6661892
I0830 18:04:50.354439 18749 layer_factory.hpp:77] Creating layer fc6
I0830 18:04:50.354449 18749 net.cpp:84] Creating Layer fc6
I0830 18:04:50.354455 18749 net.cpp:406] fc6 <- pool5
I0830 18:04:50.354461 18749 net.cpp:380] fc6 -> fc6
I0830 18:04:50.632841 18749 net.cpp:122] Setting up fc6
I0830 18:04:50.632869 18749 net.cpp:129] Top shape: 1 4096 (4096)
I0830 18:04:50.632872 18749 net.cpp:137] Memory required for data: 6678276
I0830 18:04:50.632880 18749 layer_factory.hpp:77] Creating layer fc6_target/bn
I0830 18:04:50.632891 18749 net.cpp:84] Creating Layer fc6_target/bn
I0830 18:04:50.632896 18749 net.cpp:406] fc6_target/bn <- fc6
I0830 18:04:50.632903 18749 net.cpp:380] fc6_target/bn -> fc6/bn
I0830 18:04:50.633076 18749 net.cpp:122] Setting up fc6_target/bn
I0830 18:04:50.633083 18749 net.cpp:129] Top shape: 1 4096 (4096)
I0830 18:04:50.633087 18749 net.cpp:137] Memory required for data: 6694660
I0830 18:04:50.633095 18749 layer_factory.hpp:77] Creating layer fc6_scale
I0830 18:04:50.633124 18749 net.cpp:84] Creating Layer fc6_scale
I0830 18:04:50.633128 18749 net.cpp:406] fc6_scale <- fc6/bn
I0830 18:04:50.633134 18749 net.cpp:380] fc6_scale -> fc6/scale
I0830 18:04:50.633170 18749 layer_factory.hpp:77] Creating layer fc6_scale
I0830 18:04:50.633267 18749 net.cpp:122] Setting up fc6_scale
I0830 18:04:50.633275 18749 net.cpp:129] Top shape: 1 4096 (4096)
I0830 18:04:50.633277 18749 net.cpp:137] Memory required for data: 6711044
I0830 18:04:50.633288 18749 layer_factory.hpp:77] Creating layer relu6
I0830 18:04:50.633296 18749 net.cpp:84] Creating Layer relu6
I0830 18:04:50.633301 18749 net.cpp:406] relu6 <- fc6/scale
I0830 18:04:50.633306 18749 net.cpp:380] relu6 -> fc6/relu
I0830 18:04:50.633538 18749 net.cpp:122] Setting up relu6
I0830 18:04:50.633546 18749 net.cpp:129] Top shape: 1 4096 (4096)
I0830 18:04:50.633549 18749 net.cpp:137] Memory required for data: 6727428
I0830 18:04:50.633553 18749 layer_factory.hpp:77] Creating layer drop6
I0830 18:04:50.633559 18749 net.cpp:84] Creating Layer drop6
I0830 18:04:50.633564 18749 net.cpp:406] drop6 <- fc6/relu
I0830 18:04:50.633571 18749 net.cpp:380] drop6 -> fc6/out
I0830 18:04:50.633607 18749 net.cpp:122] Setting up drop6
I0830 18:04:50.633615 18749 net.cpp:129] Top shape: 1 4096 (4096)
I0830 18:04:50.633618 18749 net.cpp:137] Memory required for data: 6743812
I0830 18:04:50.633621 18749 layer_factory.hpp:77] Creating layer fc7
I0830 18:04:50.633630 18749 net.cpp:84] Creating Layer fc7
I0830 18:04:50.633635 18749 net.cpp:406] fc7 <- fc6/out
I0830 18:04:50.633639 18749 net.cpp:380] fc7 -> fc7
I0830 18:04:50.757452 18749 net.cpp:122] Setting up fc7
I0830 18:04:50.757477 18749 net.cpp:129] Top shape: 1 4096 (4096)
I0830 18:04:50.757481 18749 net.cpp:137] Memory required for data: 6760196
I0830 18:04:50.757490 18749 layer_factory.hpp:77] Creating layer fc7_target/bn
I0830 18:04:50.757501 18749 net.cpp:84] Creating Layer fc7_target/bn
I0830 18:04:50.757506 18749 net.cpp:406] fc7_target/bn <- fc7
I0830 18:04:50.757515 18749 net.cpp:380] fc7_target/bn -> fc7/bn
I0830 18:04:50.757688 18749 net.cpp:122] Setting up fc7_target/bn
I0830 18:04:50.757694 18749 net.cpp:129] Top shape: 1 4096 (4096)
I0830 18:04:50.757697 18749 net.cpp:137] Memory required for data: 6776580
I0830 18:04:50.757704 18749 layer_factory.hpp:77] Creating layer fc7_scale
I0830 18:04:50.757711 18749 net.cpp:84] Creating Layer fc7_scale
I0830 18:04:50.757715 18749 net.cpp:406] fc7_scale <- fc7/bn
I0830 18:04:50.757720 18749 net.cpp:380] fc7_scale -> fc7/scale
I0830 18:04:50.757753 18749 layer_factory.hpp:77] Creating layer fc7_scale
I0830 18:04:50.757850 18749 net.cpp:122] Setting up fc7_scale
I0830 18:04:50.757858 18749 net.cpp:129] Top shape: 1 4096 (4096)
I0830 18:04:50.757860 18749 net.cpp:137] Memory required for data: 6792964
I0830 18:04:50.757866 18749 layer_factory.hpp:77] Creating layer relu7
I0830 18:04:50.757872 18749 net.cpp:84] Creating Layer relu7
I0830 18:04:50.757879 18749 net.cpp:406] relu7 <- fc7/scale
I0830 18:04:50.757884 18749 net.cpp:380] relu7 -> fc7/relu
I0830 18:04:50.758122 18749 net.cpp:122] Setting up relu7
I0830 18:04:50.758131 18749 net.cpp:129] Top shape: 1 4096 (4096)
I0830 18:04:50.758136 18749 net.cpp:137] Memory required for data: 6809348
I0830 18:04:50.758138 18749 layer_factory.hpp:77] Creating layer drop7
I0830 18:04:50.758146 18749 net.cpp:84] Creating Layer drop7
I0830 18:04:50.758152 18749 net.cpp:406] drop7 <- fc7/relu
I0830 18:04:50.758157 18749 net.cpp:380] drop7 -> fc7/out
I0830 18:04:50.758191 18749 net.cpp:122] Setting up drop7
I0830 18:04:50.758198 18749 net.cpp:129] Top shape: 1 4096 (4096)
I0830 18:04:50.758201 18749 net.cpp:137] Memory required for data: 6825732
I0830 18:04:50.758205 18749 layer_factory.hpp:77] Creating layer bottleneck
I0830 18:04:50.758213 18749 net.cpp:84] Creating Layer bottleneck
I0830 18:04:50.758217 18749 net.cpp:406] bottleneck <- fc7/out
I0830 18:04:50.758224 18749 net.cpp:380] bottleneck -> bottleneck
I0830 18:04:50.766371 18749 net.cpp:122] Setting up bottleneck
I0830 18:04:50.766381 18749 net.cpp:129] Top shape: 1 256 (256)
I0830 18:04:50.766399 18749 net.cpp:137] Memory required for data: 6826756
I0830 18:04:50.766405 18749 layer_factory.hpp:77] Creating layer office-fc8
I0830 18:04:50.766413 18749 net.cpp:84] Creating Layer office-fc8
I0830 18:04:50.766417 18749 net.cpp:406] office-fc8 <- bottleneck
I0830 18:04:50.766424 18749 net.cpp:380] office-fc8 -> fc8
I0830 18:04:50.766579 18749 net.cpp:122] Setting up office-fc8
I0830 18:04:50.766587 18749 net.cpp:129] Top shape: 1 31 (31)
I0830 18:04:50.766589 18749 net.cpp:137] Memory required for data: 6826880
I0830 18:04:50.766595 18749 layer_factory.hpp:77] Creating layer fc8_target/bn
I0830 18:04:50.766602 18749 net.cpp:84] Creating Layer fc8_target/bn
I0830 18:04:50.766607 18749 net.cpp:406] fc8_target/bn <- fc8
I0830 18:04:50.766613 18749 net.cpp:380] fc8_target/bn -> fc8/bn
I0830 18:04:50.766783 18749 net.cpp:122] Setting up fc8_target/bn
I0830 18:04:50.766790 18749 net.cpp:129] Top shape: 1 31 (31)
I0830 18:04:50.766794 18749 net.cpp:137] Memory required for data: 6827004
I0830 18:04:50.766799 18749 layer_factory.hpp:77] Creating layer fc8_scale
I0830 18:04:50.766806 18749 net.cpp:84] Creating Layer fc8_scale
I0830 18:04:50.766810 18749 net.cpp:406] fc8_scale <- fc8/bn
I0830 18:04:50.766815 18749 net.cpp:380] fc8_scale -> fc8/scale
I0830 18:04:50.766850 18749 layer_factory.hpp:77] Creating layer fc8_scale
I0830 18:04:50.766949 18749 net.cpp:122] Setting up fc8_scale
I0830 18:04:50.766957 18749 net.cpp:129] Top shape: 1 31 (31)
I0830 18:04:50.766959 18749 net.cpp:137] Memory required for data: 6827128
I0830 18:04:50.766970 18749 layer_factory.hpp:77] Creating layer accuracy
I0830 18:04:50.766981 18749 net.cpp:84] Creating Layer accuracy
I0830 18:04:50.766985 18749 net.cpp:406] accuracy <- fc8/scale
I0830 18:04:50.766989 18749 net.cpp:406] accuracy <- label
I0830 18:04:50.766994 18749 net.cpp:380] accuracy -> accuracy
…
